Pytorch/random_goal/reward_step_error_comparison/model/checkpoint_actor.pth (torch, 15757 bytes, 10 tensors)

fc1.weight f4 [64, 4]
00000000: 8c05 b9bd e485 fabd 3411 3abd bcdf ddbd
00000010: 9b01 fe3e 3bb1 54bf 14bd 85be 3cfb c4bf
00000020: f890 8abc fa03 8a3d 10d8 61bd 2c85 dabd
00000030: 6b41 ec3c 10a8 a0bd 461c bbbd e376 c9be
00000040: 14e5 303f aa7c efbe 2911 493f 8395 32bf
00000050: e0c0 83bb c4f7 7e3d 1ada d6bd 5aba dabd
00000060: ed76 563f 2a74 0bbd c7dc d0be f1b0 8fbf
00000070: 68c3 f33c e4df a4bd b490 43bd 60f0 db3b
00000080: 26af bf3d 7872 fabd b02a ce3c 0067 343c
00000090: 3cb5 803f 670c 5abf 57ff 233c 1192 91be
000000a0: e71a da3f 9acf a8bd 55f9 eabf ef8f 51c0
000000b0: 665d f63f fcb1 3abf b0e6 29bf 922f d5be
000000c0: c462 babd f435 393d 4022 b6bc 6697 85bd
000000d0: b867 a0bc 708b be3c 36c7 9d3d 5850 a3bc
000000e0: 1dd7 adbf 121b fb3f ac6e 8a3e 80a2 26c0
000000f0: a4aa 1dbe 11ff fc3e 852e 8fbe f25d ffbf
00000100: 9ce6 6cbd 7066 083c 9029 bb3c 849d bdbd
00000110: 611c 22bd 4042 84bd 0d9e 3a3c 0e2e c93d
00000120: b462 c6bd 3580 8e3f 1960 833f 98ff c2bf
00000130: 8e34 9cbd 608f 66bc a41f 883d b260 c23d
00000140: ecbb 3340 add2 17be fa14 5d40 2c34 b1be
00000150: 3e61 2d40 ecd4 5f40 a2ce 39bf f400 03c0
00000160: 004c b739 f88b f0bd 3c71 8d3d ba50 c33d
00000170: a016 f3bf 143f 39c0 8350 bc3d 0e5f 65c0
00000180: 312a 843f 1c46 88bf 8f48 8b3e 84e4 f2be
00000190: b296 293f f0f2 fa3f 9689 22c0 eeb6 cbbf
000001a0: c357 11bf 7209 cac0 966e d7bf 839a 3fc0
000001b0: 80ed 0c3b d444 5abd f816 90bc 6096 5b3c
000001c0: 10db 2540 be50 4bbf 1344 febf ead8 c83e
000001d0: caa9 a33f 641e 60bf 4ae6 d93e d541 e8bf
000001e0: 4ec6 9bbe cf72 37c0 f7de c33f 3948 ebbf
000001f0: fc95 99bd 705e 823c 2449 913d 40cf 66bb
00000200: de87 583e 67d0 713c 7cf1 06bd e5b9 e9be
00000210: f99f 3f3f e3d2 5240 aae0 263f ea30 88c0
00000220: 5c37 c73d 828e 91bd 1ac1 efbd a835 6bbd
00000230: 40d4 e0bb bec2 c13d 2287 ee3d 8079 a33b
00000240: 4053 abbd 7094 f4bc 64d3 b2bd 8ef1 d1bd
00000250: 7365 19bf eee1 13c0 bed4 1ec0 f7e3 99be
00000260: 3fa1 3540 4fd4 9dbe 2e5e 71bf c960 1dc0
00000270: 865e bf3d 4da2 49bd 0f76 97bc 9fb6 89bd
00000280: 015f a13f 9595 b1bf 92fd c33d d3e1 d1be
00000290: e127 633f 662f 1ebe ed9a a6bf 8a9d a9bf
000002a0: 0898 343f 002c 0d40 02e7 e63e 01bc 2dc0
000002b0: bff4 ea3e 897e ba3e 2cb7 713f 432b b0c0
000002c0: 3930 083d aa91 39bd a237 50be 5abb f0be
000002d0: 40ba 91bb 605e 1bbc a0e6 fc3b 3a58 91bd
000002e0: ce92 513e 029b b83b f2ef ca3c cee0 8f3d
000002f0: 90de e73d 80fa dabb 0208 ab3d d6ab d9bd
00000300: 0397 f53f 99a7 2fc0 b1b0 d23e 72b8 30bf
00000310: 84b9 733f e4ac 70bf 448f 8e3e f11a f8be
00000320: 2b0e c9be 45e0 3b40 5581 0ebc dba0 84c0
00000330: e2d8 1f3f d343 743e 93f1 57c0 856b 79bf
00000340: 042a 8f3d c07f 5dbc 2c2c d13d 2694 873d
00000350: acbc ab3d 82d9 803d 18c3 0dbd 285c afbc
00000360: e794 74bf cdd2 3040 3cf4 4bbf 46c5 e8c0
00000370: 8a17 95bd 3447 6e3d 1404 5e3d 20c3 c0bd
00000380: cafc 1d3f e1ae 15bf b7a6 ec3e 85f9 e9be
00000390: 3cfd 1d3f 380c b3bf 9ad9 57bf 5b27 a3bf
000003a0: 4dd5 f83e 1eb0 f13f 6f61 733f 633b 9abf
000003b0: 0c22 e03d 6049 be3c 9000 60bd 9e76 c8bd
000003c0: e2df 9b3f 1e68 d4bf e1c5 43be d38e 4cc0
000003d0: df88 6cbd 04ed 98bd ab03 65be 2e73 a8be
000003e0: 3522 753f aef8 5dbf 3ddf 003d 49a4 11bf
000003f0: 8708 e53f f69f c0bf 022d f5bf 43d9 80bf
-0.09034261 -0.12232569 -0.045426562 -0.108336896 0.496106 -0.8308293 -0.26120818 -1.5389171
-0.01691483 0.0673904 -0.055137694 -0.10669932 0.028839787 -0.078445554 -0.09136252 -0.39348516
0.69099545 -0.467748 0.7854181 -0.69759387 -0.004020795 0.062248006 -0.10490818 -0.10680075
0.83775216 -0.03404633 -0.4079344 -1.1225873 0.029756263 -0.08050516 -0.04774542 0.0067120045
0.09359579 -0.122288644 0.02516684 0.011010885 1.0055308 -0.85175174 0.010009608 -0.28431752
1.703946 -0.08242722 -1.835734 -3.27441 1.9247253 -0.7292783 -0.66367626 -0.41637856
-0.09100869 0.04521747 -0.022233129 -0.065230176 -0.019580707 0.023259848 0.07704012 -0.019935772
-1.3581272 1.9617636 0.2703756 -2.6036682 -0.15397125 0.4941335 -0.2796518 -1.9950545
-0.057837114 0.008325204 0.022846967 -0.09258559 -0.039577845 -0.06457949 0.011390221 0.09823237
-0.09686795 1.1132876 1.0263702 -1.5234251 -0.076272115 -0.014072269 0.0664666 0.094910994
2.8083448 -0.1482646 3.4544053 -0.34610116 2.7090602 3.4973707 -0.7258092 -2.0469332
0.00034961104 -0.11745447 0.06906363 0.09536882 -1.899128 -2.894475 0.09195044 -3.5839267
1.0325376 -1.0646396 0.27203795 -0.4743997 0.6624557 1.9605389 -2.5396476 -1.5915201
-0.5677454 -6.313653 -1.6830623 -2.9938056 0.0021503866 -0.053288296 -0.017589077 0.013402551
2.5914955 -0.7942008 -1.9864525 0.39227992 1.278619 -0.8754637 0.4255851 -1.814509
-0.30424732 -2.8663824 1.5302418 -1.8381416 -0.074993104 0.015914172 0.070940286 -0.0035218745
0.21145579 0.01475916 -0.03294514 -0.4564964 0.74853474 3.2941215 0.6518656 -4.255971
0.09727356 -0.07107259 -0.11706753 -0.057424217 -0.0068612397 0.09460972 0.11646868 0.004988849
-0.08365488 -0.029855937 -0.08731726 -0.10251151 -0.59920424 -2.3106647 -2.4817348 -0.30056736
2.8379667 -0.3082604 -0.9428433 -2.4590323 0.09344201 -0.049227048 -0.018488912 -0.06724285
1.2607118 -1.3873774 0.09569849 -0.40992603 0.88732725 -0.15447769 -1.301603 -1.3251202
0.7054448 2.2058105 0.4509812 -2.7145998 0.4588985 0.36424664 0.94420123 -5.505281
0.033249114 -0.04530493 -0.20333722 -0.47017938 -0.0044472516 -0.00948295 0.0077179223 -0.07096906
0.20466158 0.0056337127 0.024772618 0.070253 0.11321747 -0.006682694 0.08351137 -0.10628478
1.918671 -2.7446043 0.4115043 -0.6903144 0.9520495 -0.9401381 0.27843678 -0.48458055
-0.39268622 2.9355633 -0.008697827 -4.1446357 0.6244031 0.23853998 -3.3741195 -0.97429687
0.06990436 -0.0135192275 0.10213503 0.06620054 0.08385596 0.06291486 -0.034609884 -0.021406248
-0.95539707 2.7628663 -0.7966955 -7.274081 -0.0727988 0.058173373 0.054203108 -0.09412217
0.6171385 -0.5846997 0.46220943 -0.4569818 0.6171453 -1.3988104 -0.8431641 -1.2746385
0.48600236 1.8881872 0.95070547 -1.2049373 0.10943994 0.023228347 -0.054688036 -0.097882494
1.2177699 -1.6594274 -0.19118454 -3.1962173 -0.057747718 -0.07467082 -0.2236468 -0.32900375
0.9575532 -0.8670758 0.031462897 -0.56891304 1.7893227 -1.5048816 -1.915436 -1.0066303

fc1.bias f4 [64]
00000000: 1a1b b9be 6bdf 7fbe 30d7 51bd 701f 66bd
00000010: e432 80b9 f6da c4be 5aed 91be 2250 a9be
00000020: 585d e4be 23d2 2cbd e218 81be 44f5 75be
00000030: bc1a d1be c03a d2bd 5181 56bf 01da bfbe
00000040: 12f4 d2be f9b7 37bd bf73 b2be 8c36 aabe
00000050: 826d 9cbd 85ab 3d3e 4c93 21be 169f b43f
00000060: 5f0e a1bd 96ca adbe a495 bb3e fea4 cdbe
00000070: e748 673e 0708 9abd 284b afbe dc03 9bbe
00000080: 0603 96bd 4d1d 89bf b015 0dbd 725c 85be
00000090: 506c f3be 539d 0fbd c441 e33e f793 01bd
000000a0: caaf d0bd 9063 cbbe 8937 05bf 5dcb ddbe
000000b0: 46ad bdbd a8ab b9be 97e6 5abd c8ab 30be
000000c0: 438e f0bd 30e3 81bd 4299 5b3e eb79 3ebe
000000d0: ac87 ddbe dcac 31be 4b38 893e 403a 72be
000000e0: d1f6 0fbd 1f55 b4be 81a0 1cbf b4e9 bfbe
000000f0: 0db3 b4be 84c3 bdbd d44c 5ebd b1d4 0c3f
-0.3615349 -0.24987571 -0.05123061 -0.056182325 -0.0002445198 -0.38448304 -0.28501397 -0.3306895
-0.44602466 -0.04219259 -0.25214297 -0.24019343 -0.4084071 -0.10265112 -0.8379107 -0.3747101
-0.41201836 -0.044853184 -0.34853932 -0.3324474 -0.076380745 0.18522461 -0.15778846 1.4111049
-0.07864069 -0.33943623 0.36637604 -0.40164942 0.22586404 -0.07521062 -0.34237027 -0.30276382
-0.073247954 -1.0712067 -0.03444451 -0.26047093 -0.47543573 -0.035062145 0.44386113 -0.03163525
-0.10189779 -0.39724398 -0.52037865 -0.43319216 -0.09261565 -0.36263776 -0.053442564 -0.1725303
-0.11745884 -0.06342161 0.21445182 -0.18601196 -0.43267572 -0.17351097 0.2680076 -0.23655033
-0.03514749 -0.35221192 -0.6118241 -0.3748299 -0.35292855 -0.09265807 -0.054272488 0.5501204

fc2.weight f4 [32, 64]
00000000: f13c b13d 3b92 e6bd 301d 873d 2532 2c3e
00000010: bcc4 473d 6d2c 0d3d 88e8 cf3d ffc7 813d
00000020: 1e6e 853d 4a9a 2b3f cdc3 a9bf 0654 06c0
00000030: 84d2 083e 5083 263d 59d0 b53f 4b86 b0be
00000040: 2eea 00be 1927 23be 5e5d 87bf f109 1cbe
00000050: 2108 c6bf 46d9 353f 21d4 87bd 718e e63f
00000060: 3bf0 ba3e ff22 56bf 2d51 9b3e e149 d9bd
00000070: 8f6f bc3f d8ee d8be 3634 e63f f889 753d
00000080: cf54 a33c fa87 3e40 0dda 4fbd 9507 63bb
00000090: fee4 b13c e1c6 6e3e f727 9140 f036 4e3d
000000a0: 54ea 953f adf9 bf3f babf 30bf 8d61 5140
000000b0: f2b1 f83d 5479 323d ad78 2d3e 8259 b6bd
000000c0: cec6 633f 6546 363e 0f1e 3940 d89b f5bf
000000d0: 3752 8a3d 4d82 b8bd 2536 bb3f 1664 eebc
000000e0: efcb 35be 3eec 583e 2a9f 3d3f 107a d5bd
000000f0: f787 4b3f 563f d93d a4eb 123f 7a52 ee3e
00000100: 942b 1cbe b88c 14bd 2891 9e3d e9c8 89bd
00000110: 0f67 123e dbc2 2a3e b068 c2be 667d c6bd
00000120: cb52 9f3d a8df 95bd fd75 84be a30e 96bf
00000130: 370d 00be 7bab e23c bccb a7bf f0cc 403f
00000140: 10ca 0dbe 9c1a 6fbd a1b5 273e 7ef3 1ebe
00000150: ea2c 993f 78b9 c23d 9b1a 01be a2a9 8bc0
00000160: 847e edbd fc28 72be 0afc d5be 11af 61bd
00000170: b332 2640 d542 57be 5654 6dbf 2b4b 0bbe
00000180: 2c8e fc3d ae32 0f3f 97e8 a7bd 5982 d3bd
00000190: 035b 103e 95c3 3d3e 699c cebe 8b30 0a3e
000001a0: aee0 ee3d 81ad fabf 18cb f0be 1824 dabe
000001b0: c729 2f3d 3d78 00be 7793 cd3d 622d c0bd
000001c0: e623 02bf 3f07 15bd f86c 433e 8719 8f3f
000001d0: 5ea4 a03d 651b c7bc 8435 0740 4e2e eebc
000001e0: cb28 e13d 5a9b f6bd 94c5 0f3f 242b c23d
000001f0: 4408 f43e 292d ab3d f80c 2b3d 246b 543f
00000200: 80da c73d 6295 eb3e 0427 c1bd f3b7 b6bd
00000210: 2c08 903f e360 18be 573a df3f 67ab 923d
00000220: 29bd 2bbd 98bd 013f 8698 c6bf 99b5 b1bf
00000230: 8151 b5bd 8061 f5bd 1a0d 373f e30c 823f
00000240: 4a85 0f3e f170 113e 4921 893f 2fae 0a3e
00000250: 262f 803f a273 1e40 3733 213d d5f0 993e
00000260: b8eb a93e 9e39 0c3f 7323 ed3f e6d6 2cbe
00000270: d5f4 723e 5891 b03e a859 923f 7d14 22be
00000280: 0d74 4d3d 2d92 cf3f 149a 923d 5fa2 023d
00000290: d321 9fbd 627f 5ebf a38f ecbf 7610 a83d
000002a0: 46b2 6b3f e2b3 733f 1f36 06bf 1786 513f
000002b0: d0c6 d53d b62c 143e 3074 f3bd d467 0e3e
000002c0: 0a42 5c40 6a9b 873e e955 4c40 1929 f93f
000002d0: 2fb7 1bbe b7be 023e 9eea 7cc0 5543 c1bd
000002e0: 1936 2f3f 6899 dfbf 0357 e73d 8af8 e93b
000002f0: 40a8 413f f18c c53d 94a1 3b3f 3dd9 ad3e
00000300: a93b a2bd 46a9 4f3f 7054 6f3d d0fc 8e3d
00000310: 147e 843f e0ec 8c3d 0449 a83f a11f 2fbe
00000320: d904 013d e258 17bf 85ea 0c40 364b b5bb
00000330: bc1a bcbd e90c b8bc ae52 33bf cf07 9c3f
00000340: 590c 36bb 6022 b1bd 9dc3 0e40 bcc9 33bd
00000350: a1cd c0bf e18d 963f 36b5 043d 45db 903e
00000360: 3bd6 4abd c49c fdbf cbcf 1340 6f68 fc3d
00000370: df0d 283f 307d 263f 8a34 7f3f d0ce 5ebd
00000380: 1b41 043e 8b14 b63d 81ae b4bc df0d a53d
00000390: a703 14be f3a2 febf 0f3f adbf 0ee9 bdbd
000003a0: 70f1 c0bd 6a98 423f 21f3 8abf adc5 ba3e
000003b0: 8be8 823d dd37 283e 4eb1 09be ac60 f9bd
000003c0: c259 d83f ff90 e4bd 822c b53f 8925 863e
000003d0: 35df 30bd 6eb0 a33d ab82 68be cdc8 dc3d
000003e0: 9325 813f 5b27 8abf ad99 083f c4b4 3b3c
000003f0: 2549 993e ce17 643e 42da 6bbe 3532 34bf
0.08654202 -0.1125836 0.06597364 0.16816004 0.048771605 0.034466196 0.10151774 0.06336974
0.06515144 0.670323 -1.3262879 -2.0988784 0.13361555 0.040652573 1.4204208 -0.34477457
-0.12589332 -0.15932883 -1.0575368 -0.15238167 -1.5471231 0.7103466 -0.06632257 1.801222
0.36511406 -0.8364715 0.3033537 -0.106097944 1.4721545 -0.42369723 1.7984684 0.05994603
0.0199379 2.9770494 -0.05074506 -0.003464197 0.021715637 0.23318054 4.5361285 0.05034536
1.1712136 1.499807 -0.6904255 3.271579 0.121433154 0.04357274 0.16940565 -0.08903791
0.88975227 0.17800291 2.8924596 -1.9188185 0.067539625 -0.09009228 1.4625899 -0.02910046
-0.17753576 0.21183869 0.7407099 -0.10423672 0.7950434 0.106077835 0.5739081 0.465473
-0.15250999 -0.036267012 0.0774253 -0.06727774 0.14297126 0.16675894 -0.37970495 -0.096918866
0.077794634 -0.0731805 -0.25871268 -1.1723217 -0.12505041 0.027669659 -1.310905 0.7531271
-0.13846612 -0.058374986 0.1637788 -0.15522572 1.1966832 0.095080316 -0.12607805 -4.364457
-0.115963966 -0.23648447 -0.41793853 -0.055098597 2.5968444 -0.21021588 -0.9270681 -0.13602893
0.12331805 0.55936706 -0.0819866 -0.10327596 0.14097218 0.1853164 -0.40353706 0.1349508
0.11663948 -1.9584199 -0.47029948 -0.42605662 0.04276445 -0.12545867 0.10037892 -0.09383656
-0.50836027 -0.036383864 0.19084537 1.1179665 0.078438506 -0.024305055 2.1126413 -0.029074814
0.10994109 -0.1204135 0.56160855 0.09480885 0.47662556 0.08358223 0.041760415 0.82975984
0.097584724 0.46012408 -0.0943127 -0.08921804 1.1252494 -0.1488071 1.7439679 0.07161599
-0.041928444 0.5067992 -1.5515296 -1.3883544 -0.08853436 -0.11981487 0.71504366 1.0160183
0.1401569 0.1420324 1.0713283 0.13543008 1.0014389 2.4758077 0.039355483 0.30066553
0.33187652 0.54775417 1.8526443 -0.16878852 0.23726209 0.34485888 1.1433611 -0.15828128
0.050159503 1.6216484 0.07158294 0.03189313 -0.07770123 -0.8691312 -1.8481334 0.08206265
0.920689 0.95196354 -0.5242633 0.8184523 0.10438311 0.14470181 -0.118873954 0.13906795
3.4415307 0.2648576 3.1927435 1.9465667 -0.15206598 0.12768064 -3.95182 -0.09436671
0.6844192 -1.7468691 0.11295893 0.007140224 0.75647354 0.09646023 0.73293424 0.33954802
-0.079215355 0.81117666 0.058430135 0.06981814 1.0350976 0.06881118 1.3147283 -0.17101909
0.031498764 -0.5912 2.201814 -0.0055326475 -0.09184787 -0.022467094 -0.70048034 1.2189883
-0.0027778356 -0.08649135 2.2306893 -0.04389356 -1.5062753 1.1762048 0.03239938 0.2829229
-0.049520712 -1.9813466 2.3095577 0.123246066 0.65646166 0.6503477 0.99689543 -0.05439645
0.12915461 0.08890637 -0.022055866 0.08059286 -0.14454518 -1.9893478 -1.3534869 -0.09272967
-0.094210505 0.76013815 -1.0855447 0.3647894 0.0639201 0.1642756 -0.13446543 -0.12176642
1.6902392 -0.11160468 1.4154208 0.26200512 -0.043181617 0.07992636 -0.22706096 0.10780487
1.0089592 -1.079326 0.5335949 0.011456672 0.29938617 0.22274706 -0.23032477 -0.7038911

fc2.bias f4 [32]
00000000: 03ea 593f 815b 5bbf 0915 33bf 4da4 15c0
00000010: 935d 96be 1afd dfbe bbf3 bbbf 6caa c9bd
00000020: 3f1b 93bf e3b5 9d3f 8967 4dbe 590e 88bd
00000030: 6571 a2bf 02fb 683e aba9 15be 9292 97bd
00000040: a986 0cbe 60b4 623f ab6a 10bf a48e a6bf
00000050: 5567 ce3f 1813 3b3b c30d 7abf 0b49 21be
00000060: 7475 623f 027f acbf 21fe efbe 4a77 9bbe
00000070: 0a07 1e3f 5b5a 60be 938b d3bf 817e cbbe
0.851227 -0.856865 -0.6995397 -2.3381531 -0.29368266 -0.4374779 -1.4683756 -0.098469585
-1.149269 1.2321132 -0.20059027 -0.066433616 -1.2690855 0.22752002 -0.14615504 -0.07401003
-0.13723244 0.8855648 -0.5641276 -1.301228 1.6125284 0.0028545316 -0.9767725 -0.1575052
0.8846047 -1.347626 -0.46873572 -0.30364448 0.6172949 -0.21909468 -1.652697 -0.39744952

fc3.weight f4 [16, 32]
00000000: f829 bbbf 968d aebf fa88 aabe fe3b 92bc
00000010: 9b4c 3dc0 76ae 6fc0 ad30 ffbf 17ee 083d
00000020: 0991 5abf d079 13bd f150 67bd 8839 353e
00000030: 71fd 8fc0 5e3a 56c0 70e5 b4bc 8920 6f40
00000040: dbfb 1b3e b86b c43f 4699 f63f 15d5 f73c
00000050: 31a1 75bf 5c23 7fbf ff4e 8b3f 9e2d da3d
00000060: f82d 0ec0 9953 5ec0 a02a 9fbf 3ef0 7040
00000070: 7328 3e3f b027 9a3f 1d22 27bf 57e3 8d3f
00000080: ea70 bebf 7c98 a53f 0aa4 893e 3431 28c0
00000090: e9d1 043e 074d 083f 6e83 0c3f fcd5 b6bd
000000a0: f751 c93e a7c9 30c0 14e0 bb3d 1071 3ebd
000000b0: 482f 9d3f 9ce2 f13e 10c9 a03c bbef f2be
000000c0: 5a48 493d e16c 3abf e309 59bf 5be4 0bc0
000000d0: 4b84 d5bf 6d34 36bf a446 a73e 35f0 6fbe
000000e0: 210b 16c0 e34c dabf d257 03bf 4d79 203f
000000f0: 4f4a 59bf f831 88be 8979 b73d f07a 1d3e
00000100: 3a26 1fbf 39df 7ac0 b169 a740 8518 9b40
00000110: af88 b03f 3389 4bc0 0827 7cbf 2000 32be
00000120: f3d1 a1bf 7088 82bf c9f8 1fbe 86b2 253e
00000130: 1862 c040 8bc4 3d40 4da2 51bd c61f 9cbf
00000140: 8b47 3c3e 9fe0 233e 3051 e7be 746b 6f40
00000150: ce98 f4bf 04c6 95bf f7ff 3f40 6534 313e
00000160: 9bb9 813e a906 d2bf 4638 b6be aa04 73c0
00000170: 6f05 85bf 2d22 1ebf 3718 1040 e089 15bf
00000180: cb48 dcbf 2d7e 64be b18a b23f 0a94 223f
00000190: e569 fdbf 5b26 17c0 f930 acbf fdfb 1fbc
000001a0: a77f 65c0 9d03 39c0 f418 48be ebbc 83be
000001b0: d03b 5c40 0304 63c0 c46a 51bd e1c2 87be
000001c0: 36eb 69be 7507 a5bf 04b2 38bf 7d88 3340
000001d0: bf61 8dc0 059a 1ec0 737d fb3f 92e9 b0bd
000001e0: 6f6e d5bd fe15 0a40 d0db 26be 6856 e73f
000001f0: a807 cfbd d941 8ebf 3682 15c0 1c7f 3fbe
00000200: 5d53 df3f 68b9 c8bf 2f6b 1b40 41fc bebf
00000210: 29ef 323f 9be9 5bbd a85a 72bf 4b1f 623e
00000220: 4a26 093f 6e8c 3140 023d d93d 47da 6abc
00000230: e45d a53f b571 f43f d5a4 4a3e e693 4d3e
00000240: 43b1 013c dc6b 0cbf 0a5f 29c0 992e b0bf
00000250: 1e76 453f 42a5 a4bf 4a82 eebf 1896 403e
00000260: ac11 d03f 82b3 5140 8700 96bf 297b 743e
00000270: 75a5 31c0 d199 95bf 47b8 09be 3c51 713f
00000280: 252d 723f ef53 9d3e 9db0 6fc0 2c81 61be
00000290: 222d 933f b035 c73f e7a6 7740 920b 6a3e
000002a0: 08cf 9dbf 5216 50c0 71de 733e 0ca0 debd
000002b0: eeea 09c0 b1d9 453f 4f1c 99bc 7aea 22bf
000002c0: 6636 62be 82d8 63c0 2f93 cd3f 577f 11c0
000002d0: 9ca6 13bd 723d ddbf 0efa 3d40 4639 293c
000002e0: 219a 2b40 9f1d 973f 3718 bc3f 8520 52bc
000002f0: 6c59 28c0 bee2 223f 68d8 2fc0 31e0 7a3d
00000300: 8b08 38c0 605d 04c0 9a8e ac3f 7609 1a40
00000310: d278 913e 6606 e3bf 236a 00bf c6cd 443e
00000320: 74b7 f6bf d1b6 c33f fae5 cbbc a6be c13d
00000330: b712 f940 14a2 e33f f45d a5bd 40a1 743e
00000340: d4fc 72bd 0811 223f 1538 003e c27c 94be
00000350: 10a3 34bf dc36 c6bf 7174 bbbe 8431 10be
00000360: 6f80 de3e d323 ec3f 0e09 86c0 8e9e b2bf
00000370: 5913 cf3f b826 dc3e 46fa 8a3e 5e85 5ebd
00000380: 8a37 3cc0 b12a 2c40 ba0e e63f 30fc a83f
00000390: f4dd ac3f aa78 f63e 20b5 95bf 077b cbbd
000003a0: fce2 34c0 47be 59bf 0444 2e3e 6e65 3dbe
000003b0: 0b31 8cbe adf8 5a3f ba6a 413e b00a 43bd
000003c0: 4c83 5c3e 3cbf 25bf 94c0 dabd 699c 78bf
000003d0: f3c7 b9bf 0fc1 a8bf 0a0d 023e 1dc8 243e
000003e0: 2872 6dbe 4dfa 09c0 1013 08bf 3bf4 48bf
000003f0: a6e3 633e 705a 6ebe bffd 1b3f c3fc 6a3e
-1.4622183 -1.3636959 -0.3330763 -0.017850872 -2.9578006 -3.7450233 -1.993673 0.033430185
-0.85377556 -0.03600484 -0.056473676 0.17697728 -4.4996877 -3.3473125 -0.02208206 3.7363608
0.15232794 1.5345373 1.9265525 0.030252973 -0.95949084 -0.9966333 1.0883483 0.10653232
-2.2215557 -3.4738524 -1.2434883 3.7646632 0.7428047 1.2043362 -0.6528643 1.1085004
-1.4878209 1.293716 0.26882964 -2.6280031 0.129707 0.53242534 0.54888046 -0.08927533
0.39320347 -2.762308 0.09173599 -0.046494544 1.2280054 0.47243202 0.019627124 -0.47448525
0.049141265 -0.72822386 -0.8478071 -2.1858127 -1.6680998 -0.71173745 0.32671082 -0.23431475
-2.3444293 -1.7054714 -0.5130588 0.6268509 -0.8487901 -0.26600623 0.08958728 0.15378928
-0.62167704 -3.9198744 5.231652 4.846743 1.3791713 -3.180249 -0.98497057 -0.1738286
-1.2642196 -1.0197887 -0.15622248 0.16181383 6.0119743 2.965121 -0.051180173 -1.2197196
0.18386666 0.16003655 -0.4517913 3.7409334 -1.9109132 -1.1701055 2.9999979 0.17305143
0.25336918 -1.6408283 -0.35589808 -3.7971597 -1.0392283 -0.617709 2.251478 -0.58413506
-1.7209715 -0.22313757 1.3948575 0.6350714 -1.9797941 -2.361716 -1.3452445 -0.0097646685
-3.5859163 -2.8908455 -0.19540769 -0.2573007 3.4411507 -3.5471199 -0.05112721 -0.26515868
-0.22843632 -1.2892901 -0.7214663 2.8052056 -4.418182 -2.4781506 1.9647659 -0.086383
-0.10421454 2.1575923 -0.1629479 1.8073244 -0.10108882 -1.1113845 -2.3360724 -0.18700832
1.7447315 -1.5681581 2.428417 -1.4920732 0.6989618 -0.05368958 -0.9466958 0.2208225
0.5357405 2.7741961 0.106073394 -0.014334268 1.2919278 1.9097201 0.19789441 0.2007595
0.007915798 -0.5485208 -2.6464257 -1.376422 0.7713336 -1.2862933 -1.8633511 0.18807256
1.6255393 3.2765813 -1.1718911 0.23875107 -2.7757237 -1.1687566 -0.13449202 0.9426458
0.94600135 0.307281 -3.7451546 -0.22021931 1.1498148 1.5563259 3.869562 0.22855976
-1.2328806 -3.2513623 0.23815323 -0.1087037 -2.154964 0.77285296 -0.018690256 -0.6363903
-0.22091064 -3.5600896 1.6060542 -2.2733972 -0.036047563 -1.7284377 2.9683871 0.010328596
2.6812823 1.1805915 1.469489 -0.012825136 -2.6304579 0.6362723 -2.7475834 0.06124896
-2.8755214 -2.0681992 1.3481019 2.4068274 0.2841249 -1.7736328 -0.5016195 0.19219121
-1.9274735 1.5290166 -0.024889935 0.094601914 7.7835345 1.7783837 -0.08074561 0.23889637
-0.059323147 0.6330724 0.12521394 -0.29001433 -0.70561314 -1.5485492 -0.36612275 -0.14081389
0.43457362 1.8448433 -4.1886053 -1.3954637 1.617778 0.4299829 0.27144068 -0.054326408
-2.9408898 2.6901057 1.7973244 1.3201962 1.3505235 0.48138934 -1.16959 -0.09935575
-2.826354 -0.85055965 0.17018133 -0.18495724 -0.27381167 0.855357 0.18888369 -0.047617614
0.21534461 -0.64744925 -0.106812626 -0.9711366 -1.4514145 -1.3183917 0.12700287 0.16091962
-0.23188078 -2.1559021 -0.5315409 -0.78497666 0.2225481 -0.23276687 0.6093406 0.22947983

fc3.bias f4 [16]
00000000: 6e50 83bf b65a 18bf cfda dbbe 6b24 31c0
00000010: d06d 083e 3ee3 483e e50c c9bf 754d 24bf
00000020: 798c eabf f117 92bf fba3 b7be 6ee0 6e3f
00000030: 4d4e c7bf e374 67bf 631e 2cbe 09cb 463e
-1.025892 -0.59513414 -0.42940375 -2.7678478 0.1332314 0.19617936 -1.570706 -0.6418069
-1.8324119 -1.1413556 -0.35867295 0.933112 -1.557077 -0.9041273 -0.16808467 0.1941339

fc4.weight f4 [8, 16]
00000000: f9dd f9bf 9adf 3cc0 4caf a9be e960 5240
00000010: 789d 0ec0 dbb0 c6bf 638e 06c0 6812 62bf
00000020: 72c7 8a40 3fdb ae40 fe3d 78be d023 06c0
00000030: 4ecf 09c0 f797 a5bf 970f 1cbf f575 9840
00000040: f549 8f40 45dd 7ebf 7739 6440 458a 82bd
00000050: cb6c 89c0 ded9 ae3f cb0b 8040 e40a c43f
00000060: c9f7 fabf 93e5 6fc0 8a1d 083e 0fbb 1940
00000070: ee1d 86be 6f35 0540 e36c 413f fd35 36c0
00000080: 16f0 a43f 35ca 8dc0 9f75 30c0 e386 a93f
00000090: 31bd 84bf 9e61 05c0 c18e d2be 6aaa 28bf
000000a0: 24a9 acbf e9da 8ebf 89a1 353e 8a30 9ec0
000000b0: cbd1 cebe d12e b1be a4ef 2d3e 00e9 7c40
000000c0: 7e43 c13e 0d76 ee3e fed3 4a40 a46e f63f
000000d0: 1a7f 723f 398c 3440 44d0 6d3d c2ff a33b
000000e0: 991c 79bf 7008 5040 8c78 93be e9af 0b40
000000f0: 0323 3440 c691 57be 91fc 76bf d52e 8840
00000100: d366 973d 697e 16be 0ce8 c1bd 5c2c e4bd
00000110: 8e80 a6be c432 70bf 1cde d43d b2f7 20be
00000120: eee2 b9bd 2794 8f3d a261 cd3b d407 01be
00000130: ca0f 17be 95b6 e8bd af5e 7abf 32ae f9be
00000140: 730c c53f 70e1 3440 cf85 973f d36d 8b3f
00000150: 1230 47bd 3352 15be 6974 ca3f 8869 613e
00000160: 585e 5f3d 375b 8f3f c2d8 b43d bd54 b93f
00000170: 9286 48c0 ea9b 97bf efeb 27bf 3160 1740
00000180: 8901 b93e 9755 ef3f f64f 7d3e 34eb 95be
00000190: 5891 3dbf b483 863f 6619 10c0 f995 a83f
000001a0: 46e6 3d3f c72b a6bd 9027 a9be a599 f03d
000001b0: f52c b63f 1d58 ad3f 8441 1c3f 4665 303f
000001c0: b22e fabf 8f7c 4d3e 27c5 b9bf ae88 14c0
000001d0: a017 e2bf 168e 06bf 67eb a1bf f50b b2bf
000001e0: 8d99 f9be b369 8cbe 7f3e 9b3e 0e3d 613f
000001f0: 9241 2fc0 ec7e d73f b030 423f 0d52 3ec0
-1.9520866 -2.9511476 -0.33141553 3.287165 -2.2283611 -1.5522722 -2.1024406 -0.88309336
4.3368464 5.4642634 -0.24242398 -2.0959358 -2.1532779 -1.2937001 -0.6096129 4.764399
4.477778 -0.9955638 3.5660074 -0.06374029 -4.2945304 1.3660238 4.0014396 1.5315824
-1.9606868 -3.748387 0.13292518 2.4020422 -0.2619471 2.0813863 0.7555677 -2.8470452
1.2885768 -4.4309335 -2.757179 1.3244289 -1.0370237 -2.084083 -0.41124538 -0.6588503
-1.3489118 -1.1160556 0.17737402 -4.943425 -0.40394434 -0.3460603 0.16985947 3.9517212
0.37746805 0.4657444 3.169189 1.9252515 0.9472519 2.8210585 0.058059946 0.005004854
-0.9730926 3.250515 -0.28802907 2.1826117 2.814637 -0.21051702 -0.96479136 4.255717
0.07392659 -0.14696659 -0.094680876 -0.111412734 -0.32519954 -0.9382746 0.103939265 -0.15719488
-0.090764865 0.0701068 0.0062677423 -0.12600642 -0.14752117 -0.1136295 -0.97800726 -0.48765713
1.5394424 2.8262596 1.183771 1.0892891 -0.048629828 -0.14582138 1.5816776 0.22012913
0.054533333 1.1199712 0.08830406 1.4478985 -3.1332135 -1.1844456 -0.6559438 2.365246
0.36133984 1.8697995 0.24737534 -0.29281008 -0.740499 1.0508943 -2.2515502 1.3170768
0.74179494 -0.081138186 -0.33037996 0.11748055 1.423247 1.3542515 0.6103747 0.6890453
-1.95455 0.20067047 -1.4513291 -2.3208423 -1.766346 -0.52560556 -1.2649964 -1.3909899
-0.48749962 -0.27424392 0.30321118 0.8798379 -2.738377 1.6835608 0.7585554 -2.973758

fc4.bias f4 [8]
00000000: 067b 08bf 53cd d43f bb36 43c0 25aa e23f
00000010: fa4b 05bf ba30 1c3f 7e1b 8bbf 16d4 a6bf
-0.5331272 1.662516 -3.0502155 1.7708174 -0.52069056 0.6101185 -1.0867765 -1.3033473

fc5.weight f4 [3, 8]
00000000: 1eff bb40 5c17 8540 69db 14be 8d7e 6a3f
00000010: c653 81be 1b34 71c0 22ac 46c0 932e 8cc0
00000020: 9c4a cf3f 1fca fd3f d611 30c0 34c3 21c0
00000030: fdf7 773c 6e6d d63f 1bbb 1340 76a8 d940
00000040: 5bde 9abf 36b0 a2bf b5a2 bb3e d887 c63f
00000050: 3406 bc3e 22cc 0bc0 2054 2d41 4d27 32c0
5.874892 4.1591015 -0.14536823 0.9159935 -0.25259227 -3.7688053 -3.1042562 -4.3806853
1.6194644 1.9827307 -2.7510886 -2.5275393 0.015134809 1.6752145 2.308295 6.801814
-1.2099108 -1.2710025 0.36647573 1.5510206 0.36723483 -2.1843343 10.833038 -2.7836487

fc5.bias f4 [3]
00000000: 8809 2540 3344 bec0 82cd 5cc0
2.5787067 -5.945825 -3.4500432
