Pytorch/random_goal/reward_step_error_comparison/model/checkpoint_critic.pth (torch, 15047 bytes, 7 tensors)

fcs1.weight f4 [64, 4]
00000000: fb82 8fbd 8111 733e 42ec 16bd 1bb5 21be
00000010: 8a59 823e e978 9abe f4fe 9a3e 40f3 81bd
00000020: 10fa 623e 6738 6bbe af74 56bc a471 b3be
00000030: 6366 ae40 a0e7 f340 db49 6fc1 12be c3bf
00000040: 3b94 aabc 728f 163d e72c 98bc c2f4 b13c
00000050: 13d1 813d 5cc0 debd 2bc5 df3a fa4b a93c
00000060: f50e 7e40 c356 4640 e34c 6f3f 29b9 84c1
00000070: b1d4 063e 3736 98bc 7c44 ca3e 759d 5f3e
00000080: 1803 193d 8bf0 ae3e d674 cd3d fbd2 983d
00000090: bfb9 bec0 2942 e5c0 a664 9cc0 bf4a 7fc1
000000a0: f8a0 3c3e a977 ba3d 3d33 9c3d 6d51 f4bd
000000b0: 478c 20c1 f37b 1241 d80e 72c0 897f 99c1
000000c0: d4b2 0bbe 6d88 3abd a3a7 f53a 1f04 aabd
000000d0: ef3b 323d adae 6e3c 30b6 c6bc 7330 e1bc
000000e0: 36a5 4641 b801 e4c0 f293 e4c0 ce01 ddbf
000000f0: 8770 b0bd 668b 26be 3761 03bd 8be1 023d
00000100: 61ed fb3d b620 813d 0103 88bc 2139 113d
00000110: ee65 b63b 3f12 4e3c 9dd4 febd 68f1 18be
00000120: e41b 013e f9ff 6bbe 887a 793d 9c41 dcbd
00000130: 99a3 bfbd 6639 99bd f9e7 11bb c599 4b3d
00000140: 97b7 923e 48ea cbbd cdd8 a73e c051 9abe
00000150: b7a3 133e 4fa1 2c3e 7f96 c33d 6ab8 443d
00000160: ecf3 2b3d d77b 1a3d 3d32 09bd f9d6 ebbb
00000170: 13fe f5bf 576b 8740 01f1 96bf 7fd2 31c0
00000180: 4ad0 40bc 9add 2d3c f06b 66bd f9d4 a33c
00000190: 1743 183e d0f5 e9bd 8827 25be f443 bfbe
000001a0: 1828 693d fe98 8abc 2613 b33d 8fb5 65be
000001b0: 90ab 633d 296d 5dbe b988 c03d 30a3 38be
000001c0: d424 df3c 3194 eb3d a653 82bd abf7 133d
000001d0: 7e35 02c1 dedc 74c1 d869 20c0 b30c abc0
000001e0: a48e 74bd 98d4 083e e870 0cbe 6f7b ff3b
000001f0: cbd8 4bbd 1159 9fbc 160b 07bd 749f 8abc
00000200: 9ba7 d23f d9a6 ab40 2c57 7b41 a0c6 8e3f
00000210: 8726 ba3d 46fa e03d 42c6 033e 5a33 18be
00000220: 503f 9bbc 3ede 583d 873a babd ed30 2e3e
00000230: fbdf c6bd 69f3 053c 558d 36bd 2f4d 2f3c
00000240: bdf9 433f 0e2a 1141 4907 ef3f a77f d340
00000250: 222e 5ec1 3dc7 e63e 250d 6d41 26b2 03c1
00000260: 4708 5dc0 dfd8 8641 60b8 8abe 1703 73c1
00000270: 6ee8 06c0 4004 9240 1d79 adbf 2f71 3dc0
00000280: 0b94 65bd 60ea fc3d f7e4 ed3c 8caf 9ebd
00000290: e8ba 493c dbee 27be be29 133c 6727 00be
000002a0: 0f3c 4a40 c7d6 c440 887a 863f 10e0 d3c0
000002b0: 5f25 85c0 7b26 dcbf 0299 4dc1 7a03 273c
000002c0: 3f6d 673e 4d2e a0bd e08e e03c 36d9 55be
000002d0: a4d8 003e 6dce abbd 5526 713c 508d 63be
000002e0: 2b80 66c1 a3d7 3c40 2f36 f740 47e5 4940
000002f0: 2bb1 abbd d9eb a93d b310 79bd 3213 a23d
00000300: 37d7 d5bf 4369 6940 0135 83bf b160 0fc0
00000310: 7181 c03d d3d2 00be d12c 493d a51d 4cbe
00000320: 82a9 373e c90c c3be 6a3b 1a3e 12c6 4fbe
00000330: 474f 4abc b0ab adbd 66f3 04be 827f 27be
00000340: 2aa7 873e 9b76 ef3d b343 463e 84b8 e2bd
00000350: 87b1 7bbd d553 683c a04c ddbc c57c 34be
00000360: 7cd6 9dbd e8f7 bc3e a0b2 8bbd 5bea 2e3e
00000370: 51fb 13c0 a475 9c40 1e07 bfbf 1a2f 53c0
00000380: 4f62 70bd 4ca6 81bd d9fb 0f3d 69d0 0b3e
00000390: 73f4 51bc 296f 2f3e f4d4 eb3c 4bca 16bc
000003a0: 091b 33bc 509f 663d 7471 b13b e8fe fa3d
000003b0: 4492 903d 8846 53be 5900 ddbb d9f3 93bd
000003c0: eb6f 4c3e 310b ecbd e1d3 8e3e 8e17 e1bd
000003d0: fcdf 7cbd 7669 173e f383 61bd a811 453d
000003e0: 91a6 1dc0 6fd9 ab40 33d6 d5bf 22d2 6dc0
000003f0: c4fd 07c0 fc3d 9140 19ee aebf dd06 3dc0
-0.070074044 0.23737146 -0.036846407 -0.15791743 0.25458938 -0.30170372 0.3027264 -0.063452244
0.22165704 -0.22970735 -0.013089343 -0.35047638 5.4499984 7.6220245 -14.955531 -1.529238
-0.020822635 0.036757894 -0.018576099 0.021723155 0.06338706 -0.108765334 0.001707231 0.020666111
3.969663 3.0990455 0.93476695 -16.59041 0.13167073 -0.01858054 0.39505374 0.21837409
0.037356466 0.34167895 0.1003205 0.07462116 -5.960174 -7.164326 -4.887286 -15.955749
0.1842078 0.091048546 0.076269604 -0.11929593 -10.034247 9.155261 -3.782156 -19.187273
-0.13642436 -0.045540262 0.0018741976 -0.08301567 0.04351419 0.014568013 -0.024256796 -0.027488923
12.415335 -7.12521 -7.1430597 -1.7266176 -0.08615213 -0.16264114 -0.032075133 0.031953376
0.12301136 0.06305067 -0.016602995 0.035454873 0.00556635 0.012577592 -0.124428965 -0.14935839
0.12608296 -0.23046865 0.06090787 -0.107547015 -0.09357376 -0.07481651 -0.002226351 0.049707193
0.28655693 -0.09956795 0.32782593 -0.30140495 0.14417921 0.1685841 0.09550189 0.048027433
0.04198067 0.03771576 -0.033495177 -0.0071972576 -1.9218162 4.231853 -1.1792299 -2.7784727
-0.01176841 0.010611916 -0.05625528 0.019999014 0.14869343 -0.11423838 -0.16128361 -0.37356532
0.056923002 -0.016918655 0.08743887 -0.2243254 0.055583537 -0.21623673 0.09401078 -0.18031001
0.02723924 0.11502875 -0.06363611 0.036124866 -8.13806 -15.303923 -2.5064602 -5.3453
-0.059706345 0.13362348 -0.13714945 0.007796697 -0.049767297 -0.01945165 -0.032969557 -0.016921736
1.6457399 5.364117 15.708782 1.1154366 0.0908938 0.10985236 0.12868598 -0.14863339
-0.018951088 0.05294632 -0.090931945 0.17010851 -0.0971069 0.008175709 -0.04456838 0.010699554
0.76552945 9.072767 1.8674098 6.6093326 -13.886263 0.45073882 14.815709 -8.230993
-3.4536302 16.855894 -0.27093792 -15.188254 -2.1079364 4.563019 -1.3552586 -2.9600332
-0.056049388 0.12349391 0.029039843 -0.07748327 0.012312628 -0.1639971 0.00898212 -0.12515031
3.1599157 6.151218 1.0506144 -6.6211014 -4.160812 -1.7199243 -12.849855 0.0101937
0.22600268 -0.07821331 0.027411878 -0.2088364 0.12582642 -0.08388982 0.014718612 -0.22221875
-14.406291 2.9506614 7.725364 3.154619 -0.083834015 0.082969375 -0.06080694 0.079138175
-1.6706303 3.6470497 -1.025055 -2.2402766 0.09399689 -0.12580423 0.049115006 -0.19933183
0.17935756 -0.38095692 0.15061727 -0.20290402 -0.012348003 -0.084800124 -0.12983474 -0.16357234
0.26494724 0.11692544 0.19361763 -0.1107035 -0.0614486 0.014180143 -0.027014077 -0.17625721
-0.07706925 0.36907887 -0.068211794 0.17081587 -2.3122141 4.8893604 -1.4924047 -3.2997499
-0.058687504 -0.06330547 0.03515229 0.13653721 -0.012814629 0.17132248 0.028788067 -0.009203504
-0.010931739 0.056304276 0.005415136 0.12255651 0.07059148 -0.20632374 -0.006744426 -0.072242446
0.19964568 -0.11525572 0.27896026 -0.10990821 -0.061737046 0.14786324 -0.055057477 0.04811254
-2.4632914 5.370292 -1.6705993 -3.7159505 -2.1248636 4.5388165 -1.3666412 -2.953544

fcs1.bias f4 [64]
00000000: 6f8b b7bd 4833 b6be 629f 79be d628 17c0
00000010: 6e35 d7bc e617 74be 0cac 2140 dde7 5bbe
00000020: a8ca 09be 5f4d c2bf 705a 9abe be46 0cc0
00000030: ede7 17bd 5f49 acbd 8908 993f 988a 57bd
00000040: 4e95 35bd b056 f6bd dce4 18be 0a6a 8bbd
00000050: f185 a9be d5f2 77be c9d4 24bd 633e 05c0
00000060: 2d72 ebbc f4e5 a8be 5a4a 72be df5a 3dbe
00000070: 0fd4 62bd 7cb1 0fbf 3025 ebbd 3f0b 9dbd
00000080: 012c 0d3f d2cb d0bd d42e febd 746d 37bd
00000090: 0c8b 02c0 30e3 9b3d 11bb 03bf 31ee 0bc0
000000a0: da04 c8bd 977e 42be 7ed2 01bf 8028 26c0
000000b0: 2570 66be b0b7 58be 1069 bbbf 7f9d 98bd
000000c0: e125 cebf cda4 79be fe96 59be 6dae edbd
000000d0: 033b 92be 9538 65bd b17a 28be 294b 22c0
000000e0: 1e62 88bd 9e2e c0bd 71a4 61bd 5d30 dbbd
000000f0: 9e88 82be bc61 aebd 92d4 32c0 bfa4 0cc0
-0.08962142 -0.35586 -0.24377206 -2.3618674 -0.026270594 -0.23837242 2.526126 -0.21475168
-0.13456213 -1.5179862 -0.30147123 -2.1918178 -0.037086416 -0.08412432 1.195573 -0.052622408
-0.04433184 -0.12028253 -0.14931053 -0.06807335 -0.33110002 -0.24213727 -0.04024199 -2.0819328
-0.028740967 -0.3298794 -0.23661175 -0.18491696 -0.055378016 -0.56130195 -0.11481702 -0.07668161
0.5514527 -0.10195126 -0.124112755 -0.044782117 -2.0397367 0.07611692 -0.51457316 -2.186413
-0.0976655 -0.18993603 -0.5071181 -2.596222 -0.22503717 -0.21163821 -1.4641438 -0.07451915
-1.610531 -0.24379273 -0.21249005 -0.11605535 -0.28560647 -0.055962164 -0.16453053 -2.5358374
-0.06659339 -0.093838915 -0.055088464 -0.10702584 -0.25494856 -0.08514735 -2.7942243 -2.1975553

fc2.weight f4 [32, 67]
00000000: 02c6 843e 499a 8c3e 2bc7 3b3e 2bd0 c63f
00000010: a9a7 8cbc 6f70 2dbd c965 79c0 020c 8e3e
00000020: 327a bbbd 3e30 0c40 8f4e 853b cc0f 21c0
00000030: 4c50 ba3c 724f b9bd bf02 8d3e b188 39bd
00000040: c480 2cbe 7056 cebd 2d6b cc3c 5023 163e
00000050: de28 93be cfc9 8bbe f7e3 ea3d 58d2 9e3e
00000060: d0e2 a33d 861f f13e 3ac6 cc3d 1d6e 5abe
00000070: df39 5b3b 047a 8ac0 58b6 6b3c 5041 8d3a
00000080: 0785 b0bf 36bd eb3d f7cd 043e b8dd 89bd
00000090: f4a0 aabe 2851 9ebf 26af a53f b74b a73e
000000a0: 1f9e dfbd 81d3 a23e b18f d5bf b103 0841
000000b0: 9411 d6be ace6 ebbc 2999 5cc0 cc76 b33c
000000c0: e0b9 8d3e ec65 c63e c9ed 463c 1fb9 9d3d
000000d0: a39e 58bd 6e25 1b3e f893 073e 3b66 ab3e
000000e0: 0819 11bd ddad 21be fd09 1b3d 893b a0be
000000f0: 7023 e53e d5f6 10bd e604 ab3e 32e8 a73e
00000100: e299 70bc 3ff3 27be c865 24bd fbd7 1b3e
00000110: ae75 7f3e 0ce7 babe 87dc 2c3d f07e 51bd
00000120: bf80 9cbd c1ad 0341 0019 593e e33f df3c
00000130: 492e 0e3d 2cff 31be b70e 40c0 1c61 6cbd
00000140: 4df0 733b 7629 31c0 b58f 92be 4f04 aabd
00000150: 3a9c 92be 9ffd 0c3e 56c8 97bd d144 a5be
00000160: 0829 bf3d 65ca 2d3d 1613 e8bf 751d 5bbd
00000170: 61e9 edbe 89f6 eebe 5a0a f63c 9846 c5bd
00000180: 9f0e 2dc1 ec7b d13d 47e7 c03d c51d 09c0
00000190: e990 92bc 24c1 423e cde4 d6bd 63eb 15bf
000001a0: 290b 1c40 1e7b b4c0 012c f3bf 29ea 103e
000001b0: ad79 693e be68 0fc0 8290 2240 131c 80be
000001c0: 430f a6be 22b7 f2bf c04b 853d 5ebb c0bf
000001d0: 60a8 b43e f206 073e 88d3 68be e754 8abd
000001e0: 79b9 66bd 7591 85be f0d5 06c0 bc46 283e
000001f0: 7c26 1d3e 7463 c23d 086f 65bd 06b3 1fbe
00000200: 96c1 e0bc 8c0f 14c0 801e f3bf d54b 16bd
00000210: 6323 5a3c 4ae7 a8bd 2fc8 aabc 783e 3cbe
00000220: edfa a23e 2fb3 1a3e f254 d23a 618b 01bb
00000230: af3b 00c1 0814 86be 3928 993d e3a5 963d
00000240: 1dba 9c3a aa39 98bf 2890 e7bd 6abc 313d
00000250: fe5b 1740 17e5 9fbd 2c8f 013c 0a09 38bd
00000260: 07a1 093e 48f3 58be d6e4 b8be fde6 ad3e
00000270: 9f20 933b 77f7 993f 8bae 4e3d 2a95 0b3e
00000280: 340d 623e 158e dc3e 6f7f ee3c b2a6 d9c0
00000290: 6ef4 4cbd 6533 a93c 4fdd 4bc0 809a ec3b
000002a0: ba08 babd 5e9d bf3d 1a5b f23f 0879 c7bd
000002b0: f0fd 4140 0794 9e3f 9520 873d 9b71 8a3e
000002c0: a583 1040 6ea5 4fc0 4863 82be ab71 20bc
000002d0: 20d9 12c1 041c 253d d45b 913f 1ba6 d4bd
000002e0: 2426 9f3d 9051 32be 21b8 f23d 207c b7bd
000002f0: 5e16 81bc 44bc 963f 88a1 573d 2bff ec3d
00000300: ef73 693d de52 863d 8e76 e9be 7f91 4a3d
00000310: 401d 923f c274 9d3f c76a 8c3e e806 763d
00000320: 1451 4ebb 45a1 113d 0fe6 65be 5bb7 e6bc
00000330: dbb0 61c0 7b43 df3a d7fb d13c 0ace 55be
00000340: 781f 41be 7595 ab3c 4734 7ebf 2539 91bc
00000350: a2be 833f 1d38 06bb d386 30bc 3c42 84c0
00000360: 85f7 f7ba b27f 0a3c 2604 ad3c 9a75 9bbc
00000370: ad32 d83b 3ebf d9bd 9478 6e3c 9f77 12bb
00000380: d4d0 8a3e 9693 a6ba 5b5c b6be 0278 3739
00000390: 1145 353d 57f7 963c 2e33 5c3f f287 a93b
000003a0: d29e d4bb ede7 a0bf 24f6 e73b 79fb e9bb
000003b0: 200f 6e3c ff50 08c0 7d47 0740 b591 663e
000003c0: a057 8f3e 5af1 223d b88f 043d 273c 403e
000003d0: 1094 09c0 fd6d 4e3d 6f67 5a3e 8a5f 35be
000003e0: ecef 50bc 8666 713e e08a 333d 481c 3b3e
000003f0: 4518 423d 2a1c b6bd 0aed 0d3d 2d7d b53c
0.25932318 0.2746146 0.18337695 1.5532278 -0.01716979 -0.042343553 -3.8968375 0.27743536
-0.09154166 2.1904445 0.004068203 -2.5165892 0.022743367 -0.09048356 0.27541158 -0.045296375
-0.16845995 -0.100750804 0.02495345 0.14661908 -0.28742117 -0.27302405 0.11469262 0.31019855
0.080022454 0.47094363 0.09998746 -0.21331067 0.0033451242 -4.3273945 0.014386736 0.0010776911
-1.3790597 0.115106985 0.12969194 -0.067317426 -0.33325922 -1.2368517 1.2944076 0.32674953
-0.10918831 0.3180199 -1.6684476 8.500901 -0.41810286 -0.028796516 -3.4468482 0.021907233
0.27680874 0.38749635 0.012141653 0.07701325 -0.052885663 0.15150997 0.1324004 0.33476433
-0.035424262 -0.1578898 0.037851322 -0.31295422 0.447536 -0.035391647 0.33402175 0.32794338
-0.014685126 -0.16401385 -0.04013613 0.15219109 0.24947235 -0.365044 0.0422025 -0.051146448
-0.07641744 8.22992 0.21200943 0.027252143 0.03471211 -0.17382497 -3.0008981 -0.0577098
0.0037222088 -2.7681556 -0.28625265 -0.08301603 -0.28634816 0.13768624 -0.07411258 -0.32279065
0.09333998 0.042429347 -1.8130825 -0.05349489 -0.46467116 -0.46672466 0.030034233 -0.09632605
-10.81607 0.10228714 0.09419113 -2.142442 -0.017891364 0.1901899 -0.10492859 -0.58562297
2.4381812 -5.640029 -1.8997804 0.14151825 0.22800322 -2.240768 2.54007 -0.2502142
-0.3243352 -1.8962138 0.06508589 -1.505718 0.3528471 0.13186243 -0.22736943 -0.06754475
-0.056329224 -0.26087537 -2.1068077 0.16433233 0.15346712 0.094916254 -0.05601409 -0.15595636
-0.027436059 -2.313449 -1.8993683 -0.036693413 0.013314101 -0.0824724 -0.020847408 -0.18383205
0.31832066 0.15107416 0.0016047044 -0.0019766914 -8.014571 -0.26187158 0.07478375 0.07355859
0.0011957322 -1.1892598 -0.113067925 0.043392576 2.3649898 -0.07807367 0.00790767 -0.044930495
0.13440333 -0.21186554 -0.36112088 0.33965293 0.0044899727 1.2028645 0.050459426 0.1363112
0.22075349 0.4307715 0.0291135 -6.8015985 -0.050037794 0.02065439 -3.1853826 0.0072205663
-0.09083696 0.09356187 1.8934052 -0.09739882 3.031124 1.2388924 0.065980114 0.270398
2.258035 -3.244472 -0.2546637 -0.009792726 -9.178009 0.04030992 1.1356149 -0.103832446
0.077709466 -0.17413926 0.11851526 -0.08959222 -0.015757736 1.1776204 0.052644283 0.11572107
0.05699533 0.065587744 -0.45598263 0.049455162 1.1415176 1.2301257 0.27425215 0.06006518
-0.0031481432 0.03555419 -0.22451042 -0.028163603 -3.5264194 0.001703366 0.025632782 -0.20879379
-0.1885966 0.02094529 -0.9929852 -0.017727444 1.0292552 -0.0020480223 -0.010774332 -4.1330853
-0.0018918371 0.0084532965 0.021120142 -0.018976975 0.006597838 -0.1063218 0.014555115 -0.0022349132
0.27112448 -0.0012708779 -0.35617337 0.00017496946 0.04425532 0.018428488 0.86015594 0.0051736766
-0.0064886594 -1.2570778 0.007078903 -0.0071405736 0.014529973 -2.1299436 2.1137383 0.2251652
0.2799654 0.039780952 0.032363623 0.18772946 -2.149662 0.05039786 0.2132852 -0.17712227
-0.012752514 0.23574266 0.043833613 0.18272507 0.047386426 -0.088920906 0.034649886 0.022154415

fc2.bias f4 [32]
00000000: 062e 4c3f 621c 6340 17f5 7740 2bb1 a9be
00000010: 54db 9c3f 42c7 3abe 829e e7c0 a1b7 3940
00000020: 0826 d0be 4702 99bf 0388 20c0 0c4a 4240
00000030: 5800 3d3e 6da8 3f40 4b78 2ec0 7d85 81bf
00000040: 1b16 3e3f 01c1 8e3f 36ff 883f 0f59 68be
00000050: 9d74 bd3f 1a1d 46c0 7503 1040 2473 0d3f
00000060: 1473 0abf 0a38 75c0 b3c8 e53f ac21 fbc0
00000070: 66ee 9740 a4aa 1540 0a28 cec0 7356 d5bf
0.79757726 3.5486073 3.874334 -0.3314298 1.2254434 -0.18240073 -7.238099 2.9018328
-0.40654016 -1.195382 -2.5083015 3.0357695 0.18457162 2.994655 -2.726092 -1.0118862
0.7425248 1.115265 1.0702884 -0.22690223 1.4801213 -3.0955262 2.250211 0.55253816
-0.54081845 -3.8315454 1.7951874 -7.8478603 4.7478514 2.33854 -6.4423876 -1.6667007

fc3.weight f4 [16, 32]
00000000: 5aaa 72be 043d 5ebe 81b3 66be 646b 293e
00000010: e5d0 a5bc d9d2 75be 175c 53bc 9961 acbe
00000020: 06d1 95bc 04b6 213e eea6 68be bc1b 66be
00000030: a431 31bd fbd2 2cbe b73a bb3e 13be 0bbe
00000040: 4d88 eebd c970 353b 6019 c73d e558 6dbd
00000050: ec38 0ebe a207 17be be1f 7ebe 268e 9ebe
00000060: 61cc 9939 04a9 b7bd dd08 50bd b51c 8e3c
00000070: bf69 64be 8fa9 01be 4a83 bdbc 9edb 13be
00000080: 4741 bcbf 2624 0abf acc0 333f 88b1 9abf
00000090: 8003 94be 2a66 773e c2f2 d83d 7765 44bf
000000a0: 49a7 a73d bcf7 133f 0bd9 25bf 42a7 12c0
000000b0: 5382 843e 1c50 8b3e 94c6 783f b661 8ebf
000000c0: 82f3 42bf 02d0 10bf bd2c 18c0 e7ef 9b3d
000000d0: 4e5a 4dbe df65 823e 8159 7fbf c0f7 5d3e
000000e0: 794b 443e 8e9b 10bf 9ac7 37be 5f0e ed3c
000000f0: 9d4d 76c0 9f51 7fbf bb0a 163f fa3f 19bd
00000100: dd52 e4bf f92d 8ac0 b216 61bf 90bf e73d
00000110: d026 23c1 9c96 1e3f 144b ff3f 6d4e dabf
00000120: 5132 fabe c76d 8640 a981 b63f 9fa8 9ec0
00000130: 9eee e4bf c45b 413e bf3e e0be e848 0d40
00000140: de0e 7840 d3f2 9cc0 f97b 2340 6d57 a9be
00000150: 55b7 84c0 0327 8a3f b759 a93e 0055 2240
00000160: 26b8 5abe 55b6 ffbf 2e4f f03f e8c1 33c0
00000170: 0c5d 98bb 15e1 94bf f119 de3f 0b3d 9b3f
00000180: 6052 103f 9de9 2b40 8aa3 943f e778 b33d
00000190: a871 723e 6bb9 49bf df28 0fc0 e5f0 373f
000001a0: c1e6 d63f e4e3 d3c0 4ced 87c0 f28f 1040
000001b0: df26 89be 4c6f 04bf 5c38 8ebe 1518 5540
000001c0: fbf8 db3e edda 1ebf 1b64 16c0 5aeb e8be
000001d0: 82cb 2340 1b6a 83c0 6d13 a140 3ca3 d23b
000001e0: d465 08be 8f60 3540 21d1 1cbf 1eae 2bc0
000001f0: 2d03 3cbf 28ae 8740 27ab dcc0 ca44 74c0
00000200: 7940 41bd ff9c cf3c 0e85 663c ad1f 17bd
00000210: 51ae bbbb 5722 413c 3aa7 4cb9 005c a7bd
00000220: a989 e839 d05d d03a 3c10 683c c871 86bd
00000230: 0d00 2c39 79e3 eebc 8961 573d 6e5e 18bd
00000240: f61d f03c c259 c63c 9b3b 44bd 7334 573a
00000250: cde0 453c f559 38bd 6769 b0bd 6deb 30bd
00000260: 0e52 26b8 a487 873b 3350 963a de70 89ba
00000270: fa87 19bd 6a78 75bd d1c7 a63b d83b 313c
00000280: addc 29bf a459 0ac0 13c4 27c0 d592 29c0
00000290: 3d76 efbf c393 11c0 d697 5ac0 9ca7 bfbf
000002a0: cf96 ffbe bf3b c63e 91f7 0ec0 c44d 73c0
000002b0: ed85 403c 7646 25bf 5c34 a5c0 196b e83d
000002c0: 3448 7ebe 773c 16c0 4390 9a3e c007 d33d
000002d0: 7721 c63f 59c3 e9bf ad22 683f b19b 7cc0
000002e0: 547f a23d 16f9 b7be a654 d03d 2934 c3bf
000002f0: 3d55 a2bc 2085 82c0 ce28 0cc0 f9d6 b4bf
00000300: 63a3 62bf fd8c 94bf 2fcc a03e b711 24c0
00000310: 9ad9 ee3f d62a 9dbe 8abc 18bd 1b9b 60bf
00000320: 336e d5be 6edd 933f d12d bcbd 5956 59c0
00000330: 7ba7 893e ff19 56bf 0bec 5ebf 811f 16c0
00000340: a61c 063f 2ec1 f53e f39f 913f fcfb 45be
00000350: 33fb 513f 998d c53e 4b12 e6bf a596 fbbf
00000360: 2d6d 013e f27d c1bf 18e7 a43e 63b8 febd
00000370: 2dc7 4dbf 4791 32bf bd79 b5be b682 a8bd
00000380: ee6f a4c0 d0eb 653e 9234 4240 4504 a8bf
00000390: 9082 9b3d 1b58 733f 8a84 3a3e 866e 0ac0
000003a0: 0b85 0cbf 5f63 a63e ca46 203d 533b 25be
000003b0: d34c edbd fd67 1a3f b0a1 20c0 09bf aec0
000003c0: a0d9 443f 3fc8 b13e 24cb 743e daf6 4cbf
000003d0: 6e41 7d3e b125 9e3d b27c 7bbe ccad 27c0
000003e0: c143 383e 1649 89c0 9a58 a03f 4dae b13f
000003f0: 1a41 05be d09f a3c0 be7b 6e3e a4dc ddbe
-0.23697796 -0.21702963 -0.22529413 0.16544873 -0.02024121 -0.24006213 -0.012900374 -0.3366821
-0.018288147 0.1579209 -0.22719929 -0.22471517 -0.04326023 -0.16877358 0.36568233 -0.13646726
-0.11647091 0.0027685633 0.09721637 -0.057946105 -0.13888901 -0.14749005 -0.24816796 -0.30967826
0.00029334708 -0.08967784 -0.050789703 0.017347673 -0.22305964 -0.12662338 -0.023133893 -0.14439246
-1.4707421 -0.5396141 0.7021587 -1.2085428 -0.2890892 0.24160066 0.105931774 -0.76717323
0.08186204 0.5779989 -0.64784306 -2.2914586 0.2588068 0.27209556 0.97178006 -1.1123569
-0.76152813 -0.56567395 -2.3777306 0.07614117 -0.2005398 0.25468346 -0.9974595 0.2167654
0.19169416 -0.5648736 -0.17947236 0.028937517 -3.8484871 -0.9973392 0.58610123 -0.03741453
-1.7837788 -4.318112 -0.87925255 0.113158345 -10.196976 0.6194856 1.9944787 -1.7055184
-0.48866513 4.2009006 1.4258319 -4.9580836 -1.788532 0.18882662 -0.4379787 2.2075748
3.8759074 -4.9046416 2.5544417 -0.33074513 -4.1473794 1.0793155 0.3307626 2.536438
-0.2135931 -1.9977518 1.8774164 -2.80871 -0.004649764 -1.163119 1.7351667 1.2128004
0.56375694 2.6861336 1.1612408 0.08763295 0.23676169 -0.7879855 -2.2368696 0.7185195
1.678917 -6.6215687 -4.247717 2.2587857 -0.2678747 -0.51732326 -0.27777374 3.3295949
0.42963395 -0.62052804 -2.34986 -0.4549206 2.5592961 -4.1067023 5.0336213 0.0064281505
-0.13320094 2.8340185 -0.61256605 -2.6825023 -0.73442346 4.2400093 -6.8958926 -3.8166986
-0.047180627 0.025343416 0.014069809 -0.036895443 -0.0057275672 0.011787972 -0.00019517253 -0.081718445
0.00044353053 0.0015897099 0.014164027 -0.06564671 0.00016403217 -0.029161202 0.05258325 -0.03719943
0.029311161 0.024212722 -0.047908407 0.00082094147 0.012077522 -0.045007665 -0.08613854 -0.04319327
-3.9653904e-05 0.0041360427 0.0011467993 -0.0010485908 -0.037483193 -0.05992929 0.005089738 0.0108174905
-0.6635235 -2.1617212 -2.6213424 -2.649587 -1.8707958 -2.2746437 -3.4155173 -1.4973025
-0.49919745 0.38717458 -2.2338603 -3.8016214 0.01175068 -0.6456064 -5.1626415 0.11348552
-0.24832231 -2.3474405 0.30188188 0.103042126 1.5478963 -1.826274 0.9067791 -3.9470026
0.07934442 -0.35932225 0.101723954 -1.5250293 -0.019816035 -4.0787506 -2.1899905 -1.4128104
-0.8853056 -1.1605526 0.3140578 -2.5635812 1.8660157 -0.30696744 -0.03728918 -0.8773667
-0.41685638 1.155195 -0.09188426 -3.3958952 0.2688559 -0.83633417 -0.87078923 -2.3456728
0.52387464 0.47998947 1.1376938 -0.19334406 0.82023925 0.38584593 -1.7974333 -1.9655348
0.12639304 -1.511656 0.3220756 -0.12437513 -0.80382043 -0.69752926 -0.3544444 -0.08228056
-5.1386633 0.22453237 3.0344586 -1.3126303 0.07593262 0.95056313 0.18214622 -2.1629958
-0.5489051 0.3249769 0.03913001 -0.16135912 -0.11586919 0.60314924 -2.5098686 -5.4608197
0.7689457 0.34723088 0.23905617 -0.80064166 0.2473199 0.07722033 -0.24559286 -2.6199827
0.17994596 -4.2901716 1.2527039 1.3881317 -0.13013116 -5.1132584 0.23289391 -0.43332398

fc3.bias f4 [16]
00000000: 8eee 71be 6855 e7bf 87c1 e040 a740 3740
00000010: 138c 82bc d43a c43e bfd6 1140 236c 0b40
00000020: 2df7 0640 2dc9 04c0 4714 a0bf d668 213f
00000030: 1eb3 4541 68ae 21be 3f4e 72bf 787b 7240
-0.23626158 -1.8072939 7.023624 2.863321 -0.015935933 0.38326132 2.278732 2.1784751
2.1088364 -2.0747788 -1.2506188 0.6305059 12.35623 -0.15789187 -0.94650644 3.788786

fc4.weight f4 [1, 16]
00000000: f96d a6bc 4264 54c0 66dd 8c3f 8f3a 6c3f
00000010: 7199 1939 0c8b e4bf 0bcc 5a3f cf78 cb3f
00000020: 4796 8a3f fc4e 5bc0 8b0e 333f 0414 b73f
00000030: 4cf8 813f b01a 80bc b1ce c3bf ef29 693f
-0.02031611 -3.3186193 1.1005065 0.92276853 0.00014648378 -1.7854934 0.85467595 1.5896243
1.0827111 -3.4266958 0.69944066 1.4302983 1.0153899 -0.015637726 -1.5297452 0.9107961
