Pytorch/fixed_goal/reward_step_minus_weighted_euclidean/model/checkpoint_critic.pth (torch, 14963 bytes, 7 tensors)

fcs1.weight f4 [64, 4]
0	0xb1ae026f	-5.064343e-09
1	0x31ece3e7	6.8944135e-09
2	0xb204cb21	-7.729597e-09
3	0x31dfc78b	6.5128396e-09
4	0xb716f726	-8.99824e-06
5	0x37ec369b	2.815882e-05
6	0xb816b701	-3.5933223e-05
7	0x38289a67	4.019812e-05
8	0xaf6fe21e	-2.1817256e-10
9	0x312bba5c	2.4989708e-09
10	0xb1624fdc	-3.2932723e-09
11	0x3113bcaf	2.149857e-09
12	0x3b47804e	0.0030441466
13	0xbc5e13ca	-0.013554523
14	0x3d69d015	0.057083208
15	0xbd05e9d5	-0.032693703
16	0xbe4e15f9	-0.2012557
17	0xc07c64bf	-3.943649
18	0xbe1bb6d4	-0.15206462
19	0x3decc01b	0.11560079
20	0xb79937d4	-1.8265018e-05
21	0x37eda907	2.8331311e-05
22	0xb80c53dd	-3.3456705e-05
23	0x37eefaf0	2.8488663e-05
24	0x372ddce8	1.0363037e-05
25	0xb80bcc10	-3.333023e-05
26	0xb743d863	-1.1673287e-05
27	0x374322b8	1.1630989e-05
28	0x33834dda	6.114324e-08
29	0x3289378c	1.5974159e-08
30	0x332b3920	3.9865995e-08
31	0xb339fa60	-4.3301384e-08
32	0x3b405cac	0.0029352112
33	0x3b123f5b	0.0022315595
34	0xbb8ddc91	-0.004329272
35	0x3b816e51	0.0039499183
36	0x33b25f6a	8.3061266e-08
37	0xb4af6e9a	-3.2676763e-07
38	0xb5c21134	-1.4459133e-06
39	0x35ac1f24	1.2824062e-06
40	0x3af8316c	0.0018935627
41	0xbb5502ed	-0.0032502965
42	0x3ba67e5f	0.0050809826
43	0xba829457	-0.0009962422
44	0x3c1adf45	0.009452646
45	0x3c5cf7b3	0.0134867905
46	0x3d4cdc9c	0.050015077
47	0xbcd782eb	-0.026307544
48	0x3907be2a	0.00012945445
49	0xb89597bc	-7.1331364e-05
50	0xb8344278	-4.2977248e-05
51	0x376b02f0	1.40077755e-05
52	0x3891c678	6.9511065e-05
53	0xb8f986ab	-0.00011898329
54	0xb7841002	-1.574308e-05
55	0x377683d7	1.4693439e-05
56	0xb985de15	-0.000255332
57	0x39d073b2	0.0003975905
58	0xba0a3728	-0.0005272501
59	0x39b05bd4	0.00033637753
60	0xb412c899	-1.3670287e-07
61	0x320634d6	7.81184e-09
62	0xb2a45d60	-1.9134575e-08
63	0x33fa29c6	1.1649131e-07
64	0xb62c9e1e	-2.5722034e-06
65	0x364b41b9	3.0287613e-06
66	0xb61cc415	-2.3359946e-06
67	0x3603db58	1.9648196e-06
68	0xb4574a2d	-2.005042e-07
69	0x315f54b0	3.249891e-09
70	0xb30eb59e	-3.322713e-08
71	0x335a475f	5.0821992e-08
72	0xbb5a4df1	-0.0033310617
73	0xbb2486ea	-0.002510483
74	0x3b81be3c	0.0039594453
75	0xb99c7e40	-0.00029848702
76	0x309e3e56	1.151373e-09
77	0x3056e27e	7.817461e-10
78	0xb094d3b9	-1.0828592e-09
79	0x30171b80	5.497256e-10
80	0xb611ec3d	-2.1744193e-06
81	0x360f1724	2.132213e-06
82	0xb5ae351d	-1.2979468e-06
83	0x35933aef	1.0969505e-06
84	0xba8d2440	-0.001076825
85	0xbc003d0c	-0.007827055
86	0x3b886a27	0.004163045
87	0xb982fd42	-0.00024984224
88	0xb277e4d1	-1.4429319e-08
89	0x327005a8	1.3971125e-08
90	0xb3b61788	-8.479316e-08
91	0x33931449	6.848911e-08
92	0xb414bd93	-1.3852541e-07
93	0x34a04518	2.9852595e-07
94	0xb502d69c	-4.874107e-07
95	0x349d6848	2.9319403e-07
96	0x32eb19f0	2.7369396e-08
97	0xb4ce44be	-3.8420507e-07
98	0xb58e8c98	-1.0620743e-06
99	0x357a5714	9.325897e-07
100	0xb1edb06e	-6.9176656e-09
101	0x327c5566	1.4687748e-08
102	0xb29addaf	-1.802877e-08
103	0x32598721	1.2661787e-08
104	0x3d3fe5c4	0.04684998
105	0x3bb96cfb	0.0056587434
106	0x3dc7a9d4	0.09749189
107	0xbd85263c	-0.06501433
108	0x36352b5c	2.699634e-06
109	0xb6a5b7a6	-4.9387627e-06
110	0x341a7b84	1.4387302e-07
111	0x33674b78	5.3852517e-08
112	0x399af2c8	0.00029554055
113	0xb928e87c	-0.00016108336
114	0xb908a6e2	-0.0001303214
115	0x3853bbd6	5.0481256e-05
116	0xb7988f26	-1.818647e-05
117	0x37a32ee1	1.9452944e-05
118	0xb813ed12	-3.526832e-05
119	0x37e60536	2.7420563e-05
120	0xb6ac0ede	-5.12773e-06
121	0x36e5ac21	6.8447703e-06
122	0xb6efed37	-7.1503705e-06
123	0x36c915a2	5.992785e-06
124	0x3390394a	6.7159434e-08
125	0x3382d495	6.092265e-08
126	0xb3f81cd1	-1.15536416e-07
127	0x335ab6fa	5.0923497e-08
128	0x360b6c79	2.0775753e-06
129	0xb610490b	-2.1500189e-06
130	0x34994a22	2.855241e-07
131	0xb4a5fa5e	-3.091581e-07
132	0x406f75dc	3.7415686
133	0x3fe898a6	1.8171585
134	0xbe24fece	-0.16112825
135	0x3dfdc848	0.12391716
136	0xb684bf28	-3.95616e-06
137	0x3588dfba	1.0197903e-06
138	0xb59c47fb	-1.1643855e-06
139	0x365caa66	3.288174e-06
140	0xb5b4868a	-1.3450201e-06
141	0x35e717ba	1.7217747e-06
142	0xb62459dd	-2.4490212e-06
143	0x3609b88b	2.052201e-06
144	0xba3d3acb	-0.00072185387
145	0x3a28e8de	0.00064433913
146	0xb9b62c3f	-0.0003474671
147	0x39747eae	0.00023316845
148	0xb7d0a328	-2.4871508e-05
149	0x37cd9de8	2.4511435e-05
150	0xb90f5403	-0.0001366884
151	0x38ec36a0	0.000112635316
152	0xba6fb6e4	-0.00091443793
153	0x3a4fd48d	0.0007928096
154	0xba03b5cd	-0.0005024344
155	0x39b3d452	0.00034299731
156	0x3807a7b4	3.2342694e-05
157	0xb7e58a0e	-2.7363214e-05
158	0xb6797df0	-3.7177197e-06
159	0x35036624	4.8949937e-07
160	0xb3d8de77	-1.009875e-07
161	0x341eff57	1.4807789e-07
162	0xb44be51b	-1.8989196e-07
163	0x3427fd1b	1.5645166e-07
164	0x3642bdc4	2.901871e-06
165	0xb7817011	-1.5430183e-05
166	0xb7a3947d	-1.950026e-05
167	0x378f5036	1.708428e-05
168	0xbb72e03a	-0.003705992
169	0xbd094f96	-0.033523165
170	0x3c7a02ef	0.0152594885
171	0xbb57865e	-0.0032886486
172	0xbaa1c4e3	-0.0012342002
173	0x3a7de0ff	0.0009684711
174	0xba3b724d	-0.0007150516
175	0x3a06bd3e	0.00051398936
176	0xb7957589	-1.7816916e-05
177	0x37a690dc	1.9856197e-05
178	0xb7833f37	-1.5645854e-05
179	0x3736e9c2	1.0902471e-05
180	0xb13f8694	-2.7870657e-09
181	0x31150f66	2.1691107e-09
182	0xb0b19b54	-1.2922592e-09
183	0x30ecdb62	1.7233612e-09
184	0xb64fdf8a	-3.097552e-06
185	0x3688e34b	4.0795762e-06
186	0xb6afeeba	-5.243198e-06
187	0x36961993	4.4733256e-06
188	0x379b2828	1.849614e-05
189	0xb7b9d42a	-2.2152515e-05
190	0x365af94c	3.2629641e-06
191	0xb66c042c	-3.5169169e-06
192	0x30c885a8	1.4589903e-09
193	0x3224ecb3	9.599876e-09
194	0xb194a708	-4.326356e-09
195	0x3142092e	2.8235934e-09
196	0x3a54421a	0.0008097008
197	0xb9b1dc90	-0.00033924403
198	0xb9503c6d	-0.00019858936
199	0x385f4884	5.323488e-05
200	0x3b31ba5a	0.002711913
201	0xb8a87f59	-8.0345846e-05
202	0x3b4cd120	0.0031252578
203	0xbab84bbf	-0.001406066
204	0xba623745	-0.00086294516
205	0x3a399fc7	0.00070809986
206	0xb9e200b0	-0.0004310659
207	0x39961f14	0.00028633384
208	0xb37ac3a0	-5.838558e-08
209	0x33cd1563	9.5499466e-08
210	0xb3f330ae	-1.1324424e-07
211	0x33c4c9f4	9.163696e-08
212	0xba0f5b3b	-0.00054686115
213	0x39ed1d8e	0.00045226183
214	0xb9b0ed57	-0.00033746168
215	0x3971ff62	0.00023078689
216	0xb9cbdbfe	-0.00038883084
217	0x39c7e609	0.00038127627
218	0xb9876274	-0.0002582256
219	0x394d48cf	0.00019577447
220	0x349b6a9e	2.8948574e-07
221	0x34fca90e	4.706166e-07
222	0xb6183f17	-2.2686488e-06
223	0x358b5bde	1.0383044e-06
224	0xb7e51642	-2.7309292e-05
225	0x380ec618	3.4039927e-05
226	0xb84126d6	-4.6050955e-05
227	0x37f0dfe7	2.8714492e-05
228	0x374656f6	1.1821967e-05
229	0x361347ac	2.1946425e-06
230	0xb8c39f4a	-9.3279945e-05
231	0x3884ebc7	6.3381674e-05
232	0xb38870d1	-6.353515e-08
233	0x3417e8c3	1.4147649e-07
234	0xb42ebed2	-1.6274433e-07
235	0x34049678	1.2348198e-07
236	0x33a6d140	7.76804e-08
237	0xb4226070	-1.512251e-07
238	0x33f61f9c	1.14610174e-07
239	0xb3dad500	-1.01901605e-07
240	0xb2ba0fe3	-2.1660474e-08
241	0x3237efa9	1.0706494e-08
242	0xb325bf07	-3.8590795e-08
243	0x32f44fd6	2.8441644e-08
244	0x33ed03e1	1.1036878e-07
245	0xb3f95097	-1.1609625e-07
246	0xb1f259d4	-7.0533392e-09
247	0x31405770	2.798938e-09
248	0xb18cf64e	-4.102538e-09
249	0x30b31077	1.3028644e-09
250	0xb1837011	-3.8253423e-09
251	0x316e16bb	3.464648e-09
252	0x3394ce02	6.92926e-08
253	0xb3cb1e89	-9.4584784e-08
254	0xb30eb238	-3.322404e-08
255	0x32dd8450	2.5787955e-08

fcs1.bias f4 [64]
0	0xb3c718ae	-9.271149e-08
1	0xb8b95c40	-8.83867e-05
2	0xb3912ed8	-6.7606095e-08
3	0xbe4d2709	-0.20034422
4	0x3efb3bd1	0.49069074
5	0xba29ecca	-0.00064821227
6	0xba4d49cb	-0.00078311254
7	0xb3d94dd7	-1.0119009e-07
8	0xbc461443	-0.012089792
9	0xb8d09a5d	-9.946965e-05
10	0xbe045857	-0.12924324
11	0xbe458dee	-0.19292423
12	0xbba857a4	-0.0051374007
13	0xbb21dc0d	-0.002469781
14	0xbd4db260	-0.05021894
15	0xb52ec3b2	-6.5104825e-07
16	0xb8adde1c	-8.290654e-05
17	0xb425d11e	-1.5442899e-07
18	0xbca0f80c	-0.019649528
19	0xb213c2df	-8.600835e-09
20	0xb82288ab	-3.875109e-05
21	0xbe03cf9d	-0.12872167
22	0xb6947f91	-4.4255944e-06
23	0xb61155a1	-2.1656526e-06
24	0xb861d042	-5.3838135e-05
25	0xb441670d	-1.8012015e-07
26	0xbe719497	-0.23591839
27	0xb87e8cfe	-6.068963e-05
28	0xbc6ca8c3	-0.014444533
29	0xb988464f	-0.00025992325
30	0xb9ee6317	-0.00045468725
31	0xb4fc6265	-4.701025e-07
32	0xb7bcdce9	-2.2514216e-05
33	0x3ee21ca1	0.44162467
34	0xb72e72c7	-1.0397932e-05
35	0xb8db5f08	-0.00010460435
36	0xbcf088b8	-0.029362068
37	0xbbf263e6	-0.0073971627
38	0xbd0d5cfc	-0.034512505
39	0xba5ff7ac	-0.0008543681
40	0xb677763d	-3.6874692e-06
41	0xbace2a1a	-0.00157291
42	0xbe2a513b	-0.1663255
43	0xbd3259e5	-0.04354276
44	0xba511ccc	-0.00079770084
45	0xb3be09e3	-8.849363e-08
46	0xb92fdeb3	-0.00016772262
47	0xb8cd1882	-9.779727e-05
48	0xb40d6153	-1.3167055e-07
49	0xbcfc349c	-0.030786805
50	0xbcbcd048	-0.023048535
51	0xbd034fdb	-0.032058578
52	0xb605fdc1	-1.9966249e-06
53	0xbcb91175	-0.022591332
54	0xbc5d5ba9	-0.013510623
55	0xb7301fc6	-1.0497815e-05
56	0xbb0b2523	-0.0021231852
57	0xbbd17b67	-0.0063928845
58	0xb6056b12	-1.9880868e-06
59	0xb45c70d8	-2.0530149e-07
60	0xb2c16deb	-2.2518142e-08
61	0xb632a0d6	-2.6617686e-06
62	0xb3f19aac	-1.1250572e-07
63	0xb665efe7	-3.42633e-06

fc2.weight f4 [32, 67]
0	0x2ec4b8e6	8.9458926e-11
1	0xb4bdbc46	-3.534098e-07
2	0x310dc36e	2.062929e-09
3	0x38d5dbea	0.00010197594
4	0xbb1bf21d	-0.0023795434
5	0xb535a81e	-6.7672397e-07
6	0x35693435	8.6875235e-07
7	0x313f8480	2.7869476e-09
8	0xb923b24c	-0.00015611312
9	0x33b9895e	8.639721e-08
10	0x39032864	0.0001250818
11	0x3842bd13	4.6429293e-05
12	0x34a9b1d0	3.160808e-07
13	0xb69eeacc	-4.736101e-06
14	0xb83c1ee0	-4.4851447e-05
15	0x2f7d7523	2.3051831e-10
16	0xb3d2aeb2	-9.810664e-08
17	0xb208d23c	-7.964044e-09
18	0x370d1ea9	8.4113935e-06
19	0x2f8e3eda	2.5874308e-10
20	0xb35e4064	-5.1746966e-08
21	0x36303058	2.6254183e-06
22	0x321b095b	9.024315e-09
23	0x324ecafa	1.203693e-08
24	0xb2da96aa	-2.5447054e-08
25	0xb20aa1a5	-8.069411e-09
26	0x38acc9c2	8.2391794e-05
27	0xb301539e	-3.0111202e-08
28	0x37199a09	9.155375e-06
29	0x35341614	6.7087353e-07
30	0xb5990f94	-1.1403922e-06
31	0x303b7595	6.81973e-10
32	0x33ab2e4d	7.97123e-08
33	0xbd436305	-0.047701854
34	0x334927e4	4.683524e-08
35	0x32b83fe6	2.1449477e-08
36	0xb731b223	-1.0591498e-05
37	0xb699f0e2	-4.587798e-06
38	0xb83dac90	-4.5221823e-05
39	0xb4f29adc	-4.5188688e-07
40	0x312e5efc	2.5374325e-09
41	0x3627eb02	2.5021732e-06
42	0x3912a491	0.00013984951
43	0x383534d8	4.3202977e-05
44	0x354952b8	7.4998707e-07
45	0xb1183afb	-2.2152438e-09
46	0x34146979	1.3821945e-07
47	0xb3c5ee16	-9.216835e-08
48	0x3153655e	3.0762162e-09
49	0xb8239f2e	-3.9010476e-05
50	0xb6ff47a4	-7.6079323e-06
51	0xb4cb22b0	-3.7836935e-07
52	0xb0f66784	-1.7928277e-09
53	0xb72805b6	-1.001491e-05
54	0xb792920c	-1.7472565e-05
55	0x3308c057	3.18399e-08
56	0x35a1a07c	1.2042142e-06
57	0x3694f508	4.439269e-06
58	0xb195211f	-4.340236e-09
59	0x37923c74	1.7432707e-05
60	0x32a7aaae	1.9518975e-08
61	0xb3146a3a	-3.4555548e-08
62	0xb13f3973	-2.7826814e-09
63	0x32235c13	9.508784e-09
64	0x3cc3635e	0.023851093
65	0xbdcec3ae	-0.10095917
66	0x3cf3f1cf	0.02977839
67	0xac894c2d	-3.9022314e-12
68	0x34c56ded	3.677409e-07
69	0x2d8aa2dc	1.5761108e-11
70	0x35d5a9ee	1.5919193e-06
71	0x3a50eb76	0.0007969657
72	0x35ab13d8	1.2746268e-06
73	0xb2a49e7e	-1.9164187e-08
74	0x2f21eb11	1.4726377e-10
75	0x393cc750	0.00018003327
76	0xb3ed6f59	-1.10564265e-07
77	0xb78b3c26	-1.65981e-05
78	0x38e0703c	0.000107020576
79	0x335b6bc4	5.1087923e-08
80	0xb4c068de	-3.5839088e-07
81	0xb5cac4ba	-1.5107428e-06
82	0xb08cd1b1	-1.0245939e-09
83	0x3157805f	3.1359588e-09
84	0x30534e7c	7.6872886e-10
85	0xb4614971	-2.0981476e-07
86	0x2c99dc7a	4.3729994e-12
87	0xb1d5016f	-6.199279e-09
88	0xb7c58051	-2.3543982e-05
89	0x300e6978	5.180918e-10
90	0xafdc34b0	-4.0055204e-10
91	0x30a2f2a6	1.1856016e-09
92	0x30452c0a	7.1730766e-10
93	0xb5489d40	-7.4734635e-07
94	0xafc6c4f8	-3.6155945e-10
95	0xb5c79850	-1.4870984e-06
96	0xb3b57fa4	-8.451687e-08
97	0x32673619	1.345827e-08
98	0x37ae89b4	2.080654e-05
99	0xb1531162	-3.0714422e-09
100	0xbdd17ff3	-0.102294825
101	0x3144e5f0	2.8652458e-09
102	0xb1500d7e	-3.0275653e-09
103	0x3402338b	1.2125945e-07
104	0xb6284c60	-2.5078407e-06
105	0xb5366c55	-6.795793e-07
106	0xb2df866a	-2.6021741e-08
107	0x2f818c38	2.3564595e-10
108	0xb48ee367	-2.6615018e-07
109	0x35aa2850	1.267772e-06
110	0xb70ccdda	-8.392579e-06
111	0x330db177	3.2990524e-08
112	0xada467a5	-1.8690669e-11
113	0xb436be4f	-1.7019305e-07
114	0x2fc8da10	3.653473e-10
115	0x2dcf5871	2.3572451e-11
116	0xb60d6eb9	-2.1075086e-06
117	0xb5305e51	-6.570236e-07
118	0x355f00b3	8.307499e-07
119	0xae5850c0	-4.9184434e-11
120	0xb624535f	-2.4486433e-06
121	0xb62e639b	-2.5985998e-06
122	0xb128a3d4	-2.4540343e-09
123	0xb2feb545	-2.9651924e-08
124	0xb3457e40	-4.598246e-08
125	0x2e037ad3	2.989504e-11
126	0x32cbf86f	2.3745285e-08
127	0xaea44b3c	-7.471221e-11
128	0xadc960b0	-2.2893992e-11
129	0xad40f09c	-1.09673624e-11
130	0xaed886c0	-9.846479e-11
131	0x3c632f8f	0.013866319
132	0xbd8aead8	-0.06783074
133	0xbbee4eaa	-0.007272561
134	0xa9e988a0	-1.0370979e-13
135	0x31b50ea9	5.26946e-09
136	0xa7045a06	-1.8367482e-15
137	0x331e5580	3.6865003e-08
138	0x3291c3aa	1.69692e-08
139	0xb5487494	-7.467545e-07
140	0xadfe3023	-2.8897834e-11
141	0xa90bc1ed	-3.1032404e-14
142	0xb01d3aaa	-5.7199634e-10
143	0xab45568c	-7.010857e-13
144	0xb6823f22	-3.8816515e-06
145	0x39237651	0.00015588968
146	0x2f4ac48e	1.8441623e-10
147	0x37a8e0d2	2.013185e-05
148	0xb003b50d	-4.791481e-10
149	0x32646b18	1.3295697e-08
150	0x2d2a3335	9.6747515e-12
151	0xa7512480	-2.9024363e-15
152	0xb4325680	-1.660901e-07
153	0x261b5a60	5.389891e-16
154	0x2af89a6e	4.4160807e-13
155	0x35210bfe	5.9994625e-07
156	0xaa41bf6b	-1.7208255e-13
157	0x36bd1bb1	5.6358626e-06
158	0xb36cce92	-5.5135907e-08
159	0x27cf488d	5.75327e-15
160	0xb6c076d4	-5.7358793e-06
161	0xad8396b5	-1.4959903e-11
162	0x30bc5dde	1.3705479e-09
163	0x2f1b4f48	1.4125334e-10
164	0xaf11d995	-1.3264974e-10
165	0xaa0bbea8	-1.2411827e-13
166	0xaa896bab	-2.4410798e-13
167	0x34450fa0	1.8352739e-07
168	0x350b9ff4	5.20143e-07
169	0x2dafb184	1.997403e-11
170	0xaf7a9730	-2.279108e-10
171	0x2f1150ce	1.3216381e-10
172	0xafc539e8	-3.5875236e-10
173	0x2f33506f	1.6308531e-10
174	0x2ab90880	3.28685e-13
175	0x2e98d8ae	6.95065e-11
176	0xb6c11fb3	-5.7555385e-06
177	0x309e1038	1.1500623e-09
178	0xacdd64b6	-6.292379e-12
179	0x27c8e36d	5.5757727e-15
180	0xab3b9432	-6.664141e-13
181	0xac912c66	-4.126077e-12
182	0x288d3968	1.567904e-14
183	0xb4495164	-1.8749193e-07
184	0x3533ebb0	6.7025667e-07
185	0xb041d6fc	-7.05185e-10
186	0xa9160318	-3.3309374e-14
187	0xb20e4fd0	-8.283635e-09
188	0x30b10cb8	1.288206e-09
189	0x2c25776b	2.35142e-12
190	0xada06091	-1.8232778e-11
191	0x36bc7f38	5.617647e-06
192	0xab07dadc	-4.8265363e-13
193	0x26e96956	1.6196174e-15
194	0x28c7b688	2.2172599e-14
195	0x29a2d988	7.231981e-14
196	0xb1244b2c	-2.3907871e-09
197	0xaa245c6c	-1.4598191e-13
198	0xb437f6c4	-1.7132976e-07
199	0xb575cfab	-9.157181e-07
200	0xb401c054	-1.208403e-07
201	0x2c8e881d	4.0509943e-12
202	0x3151f14e	3.0550669e-09
203	0x2c510b16	2.970684e-12
204	0x36047ba6	1.9741506e-06
205	0xb4c5009c	-3.6694553e-07
206	0x3296a6e1	1.7538186e-08
207	0x331c9448	3.645644e-08
208	0x2c44a226	2.7943286e-12
209	0x350c00db	5.215531e-07
210	0x3171b050	3.5170338e-09
211	0x35b94bff	1.3805692e-06
212	0x3709700b	8.191923e-06
213	0x3346ceea	4.6288655e-08
214	0x33f923be	1.16014675e-07
215	0x35357d02	6.7609665e-07
216	0x2d880790	1.5464768e-11
217	0x30c08fc0	1.4010695e-09
218	0xb11429db	-2.1560627e-09
219	0xb72feb84	-1.0485648e-05
220	0x2a93fb5a	2.6286856e-13
221	0x309290bd	1.0664035e-09
222	0x35bab186	1.3909746e-06
223	0x2f02c336	1.1892784e-10
224	0x2f7db60b	2.307489e-10
225	0x2f816038	2.353333e-10
226	0x34a7b7f6	3.1240023e-07
227	0x37451715	1.1747489e-05
228	0x2e595f40	4.9424687e-11
229	0x3507abdc	5.054151e-07
230	0x3248f308	1.1696791e-08
231	0x32b08d7c	2.0553436e-08
232	0x2c560aa8	3.0417144e-12
233	0x3092cf6a	1.0681849e-09
234	0x347452b0	2.2754352e-07
235	0x30009a1d	4.6785137e-10
236	0x3193fcc2	4.3069983e-09
237	0x34a656b6	3.0983e-07
238	0x344c9d13	1.9056124e-07
239	0x355c68ac	8.2108704e-07
240	0x31b68ab9	5.312668e-09
241	0x2f5b041c	1.9919394e-10
242	0x33112cb4	3.38011e-08
243	0x36908a05	4.307602e-06
244	0x35159a6a	5.573153e-07
245	0x330bc8ae	3.2545977e-08
246	0x2c5bcd24	3.1235648e-12
247	0x32178f01	8.821872e-09
248	0x3132086b	2.5907194e-09
249	0x2cb2244d	5.0630945e-12
250	0x356a55f6	8.729688e-07
251	0x34bcedb0	3.519067e-07
252	0x33e606de	1.0711459e-07
253	0x2de9aec8	2.6566652e-11
254	0x35040620	4.9182745e-07
255	0x34a970a8	3.156067e-07

fc2.bias f4 [32]
0	0xbdcec3ab	-0.100959145
1	0xbd8aeada	-0.06783076
2	0xb575cf7c	-9.157154e-07
3	0xb5d81b1e	-1.6101146e-06
4	0xbba0e5c1	-0.0049102013
5	0xb775ca68	-1.4650264e-05
6	0xbec8328f	-0.39101073
7	0xb654550e	-3.163997e-06
8	0xbb5c2612	-0.0033592028
9	0xbd841353	-0.06448998
10	0xb73de20f	-1.1317911e-05
11	0xbcb27159	-0.021782564
12	0xbdfab069	-0.12240679
13	0xbb20fd1a	-0.0024564923
14	0xb6dc7654	-6.570286e-06
15	0xbd056e1f	-0.032575723
16	0xb55d1e95	-8.237342e-07
17	0xbe107564	-0.14107281
18	0xb5039e7e	-4.903194e-07
19	0xbdc998c6	-0.09843592
20	0xbe55ac88	-0.20866597
21	0xbdb8c623	-0.090221666
22	0xbbf5d2b9	-0.0075019267
23	0xb8accfeb	-8.240327e-05
24	0xbca332ba	-0.01992165
25	0xbbae065d	-0.005310817
26	0xb5c7805d	-1.4864014e-06
27	0xbc7d0e16	-0.015445253
28	0xbdfb32dd	-0.12265561
29	0xb697a54d	-4.519394e-06
30	0xb79bac6a	-1.8557726e-05
31	0xb60f2be6	-2.1334213e-06

fc3.weight f4 [16, 32]
0	0xb3547700	-4.9468326e-08
1	0x333c7e6c	4.388714e-08
2	0x2c5835a1	3.0725216e-12
3	0x2ea781c1	7.61733e-11
4	0x312965ac	2.465053e-09
5	0x2df748c4	2.8112963e-11
6	0xb5b1491b	-1.3208804e-06
7	0x2c0679e6	1.9110213e-12
8	0x3500780f	4.7858424e-07
9	0x328d5774	1.645433e-08
10	0xaf8a2a7a	-2.5132235e-10
11	0xb227521b	-9.739348e-09
12	0xb41566fb	-1.391417e-07
13	0xb6da3aa6	-6.503734e-06
14	0x2b4b8c3e	7.2314713e-13
15	0x31f9dcb8	7.2719466e-09
16	0xac86e469	-3.8338677e-12
17	0x3385f9f6	6.238763e-08
18	0x3395aa7d	6.969365e-08
19	0x333d79f4	4.4115907e-08
20	0xb43fb6bd	-1.7854741e-07
21	0xb3dfd250	-1.0422502e-07
22	0xb2a8bac9	-1.9642714e-08
23	0x2d7f7da0	1.4522966e-11
24	0x31fafe5b	7.3048745e-09
25	0x304c5c80	7.434622e-10
26	0x2d9065ee	1.641617e-11
27	0x32bae4f7	2.1757371e-08
28	0xb3f098ca	-1.1203663e-07
29	0x2d430b09	1.1086917e-11
30	0xac76713c	-3.502156e-12
31	0xaae143ac	-4.0014986e-13
32	0xb29b6b26	-1.80931e-08
33	0xb0a6b290	-1.212884e-09
34	0x2cf260d2	6.888803e-12
35	0xaf1b2cf4	-1.4113138e-10
36	0xafcdcb20	-3.7433612e-10
37	0xadbeb8d6	-2.1682583e-11
38	0xb8596b75	-5.183691e-05
39	0xac2859c8	-2.3924075e-12
40	0xb4e326d1	-4.2310288e-07
41	0xb24b1dc6	-1.1822925e-08
42	0x2d0cb6cf	7.99867e-12
43	0xb0f8cba0	-1.8102249e-09
44	0xb2d18bb9	-2.439434e-08
45	0xb01d6ce9	-5.727104e-10
46	0xace725ce	-6.569612e-12
47	0x30bc08ed	1.3681337e-09
48	0xac4787c0	-2.8354957e-12
49	0xb2bccb2e	-2.1978476e-08
50	0x2c8800e5	3.865452e-12
51	0xb2567249	-1.2482425e-08
52	0x31ca05a2	5.879614e-09
53	0xb11f29f0	-2.3161384e-09
54	0xb066660e	-8.381854e-10
55	0x2ea1e1d0	7.361545e-11
56	0x31797108	3.629852e-09
57	0xb0583abc	-7.866381e-10
58	0xac027690	-1.8539927e-12
59	0x3406a55d	1.2539881e-07
60	0xb210a8f2	-8.420317e-09
61	0x2d8197e8	1.4733062e-11
62	0x2c8c0554	3.979631e-12
63	0xac5c2e81	-3.1289695e-12
64	0xb58ebff7	-1.0635694e-06
65	0xb645b26b	-2.945914e-06
66	0x391390d2	0.00014072962
67	0xb2ecb67e	-2.7557004e-08
68	0xb4fd96f2	-4.723475e-07
69	0x30cf1f99	1.5070213e-09
70	0xba1f6d96	-0.0006081698
71	0xb14bdf8c	-2.966746e-09
72	0x36a09eaa	4.7868425e-06
73	0xb609a0ea	-2.0508255e-06
74	0x37a77402	1.9961972e-05
75	0xb4e01af5	-4.1742865e-07
76	0x36aaa612	5.085728e-06
77	0xb323b67a	-3.8117356e-08
78	0xb0ade3de	-1.265217e-09
79	0x36049a92	1.9759505e-06
80	0xb08a7369	-1.0073623e-09
81	0xb6608ea4	-3.3461629e-06
82	0xafed3969	-4.315084e-10
83	0x349d9556	2.9352185e-07
84	0xb69b3ff6	-4.626806e-06
85	0x360950ee	2.0461698e-06
86	0x330af290	3.2351238e-08
87	0xb1cd2a24	-5.971076e-09
88	0xb49f6f9c	-2.9697264e-07
89	0x339a5da2	7.1882155e-08
90	0xb0415298	-7.0330364e-10
91	0x3848b902	4.7856018e-05
92	0x360700e1	2.011708e-06
93	0x31aa830a	4.9625486e-09
94	0xb2705959	-1.3990154e-08
95	0x3007a190	4.934231e-10
96	0x35b72f13	1.3648263e-06
97	0x349f5c7b	2.9683346e-07
98	0xaf489107	-1.8241418e-10
99	0xb079f59e	-9.0934715e-10
100	0xb1cd9dc8	-5.984223e-09
101	0xafe8d530	-4.2352033e-10
102	0xb7a7eccf	-2.0018224e-05
103	0x2eb16c41	8.068258e-11
104	0xb40acd59	-1.2926957e-07
105	0xb398fb80	-7.123799e-08
106	0x311deab6	2.2979925e-09
107	0x342d15fa	1.6119876e-07
108	0xb574f815	-9.125809e-07
109	0xb20d0cf8	-8.210229e-09
110	0x2ee39ce9	1.0350638e-10
111	0xb31dfabc	-3.6782453e-08
112	0x2f804e52	2.3338714e-10
113	0xb519ee42	-5.734365e-07
114	0x2f360e63	1.6557915e-10
115	0xb34a3288	-4.7077748e-08
116	0x355f0319	8.307848e-07
117	0xb64e2ec2	-3.0723609e-06
118	0xb4bc6304	-3.5089772e-07
119	0xb0a5f22a	-1.2074157e-09
120	0x334005d2	4.4708777e-08
121	0xb47820ed	-2.3108778e-07
122	0xafd0e606	-3.799842e-10
123	0x368cc88c	4.195672e-06
124	0xb2ffc5b0	-2.9775805e-08
125	0xacec4c50	-6.715996e-12
126	0xaf9393d2	-2.6844177e-10
127	0x2fed3826	4.3149945e-10
128	0xba06fc00	-0.0005149245
129	0x398718d2	0.000257677
130	0x34880a68	2.5339546e-07
131	0x3585e942	9.977159e-07
132	0xb8b1872d	-8.465196e-05
133	0x34c48067	3.660127e-07
134	0x392a55a3	0.00016244366
135	0xb3b91499	-8.6184805e-08
136	0x39815209	0.00024665918
137	0xb9da751a	-0.00041667448
138	0x34d92ed9	4.0453486e-07
139	0xb720e3f9	-9.589822e-06
140	0x39969faa	0.00028729188
141	0xb79594b3	-1.7831428e-05
142	0xb0da58dd	-1.5886844e-09
143	0xb8a7de10	-8.004543e-05
144	0xb2c885e6	-2.3343954e-08
145	0xb9cc7c14	-0.00039002358
146	0x3293c9a5	1.720475e-08
147	0xba29c4cb	-0.0006476163
148	0xb8611f5c	-5.3673386e-05
149	0xb9a4f1d6	-0.000314607
150	0x380f4463	3.4157547e-05
151	0xb60d6720	-2.1070664e-06
152	0x394e2b06	0.00019661718
153	0xb859d341	-5.1933577e-05
154	0xb3c1e723	-9.0293064e-08
155	0xb8e8c5c5	-0.000110994595
156	0x38f2246c	0.00011546243
157	0x3224d0d8	9.593542e-09
158	0x315ad930	3.1846632e-09
159	0xb239de10	-1.0818908e-08
160	0xb6980f83	-4.531759e-06
161	0x37095e86	8.187844e-06
162	0xb01d9f77	-5.734288e-10
163	0xb425045a	-1.5368406e-07
164	0x33c68ffa	9.246283e-08
165	0xb2f34487	-2.8320086e-08
166	0xbb28db55	-0.0025765498
167	0x310f2439	2.082983e-09
168	0x38839753	6.274753e-05
169	0xb6193119	-2.2827355e-06
170	0xb2806e34	-1.4951276e-08
171	0xb4cc6480	-3.8071084e-07
172	0x379f6572	1.9001516e-05
173	0x37ef31d4	2.8514223e-05
174	0xb1c6fde0	-5.7914207e-09
175	0xb5bdec23	-1.4150322e-06
176	0x325c0449	1.280666e-08
177	0xb81d7329	-3.7538968e-05
178	0xb029bd38	-6.175074e-10
179	0xb7391b7b	-1.1033258e-05
180	0xb864a8ae	-5.451653e-05
181	0xb72b20e4	-1.0200052e-05
182	0xb559413e	-8.093374e-07
183	0x3237497e	1.0668712e-08
184	0x36916af5	4.333788e-06
185	0xb6d5b055	-6.3684224e-06
186	0xb24cca75	-1.1920396e-08
187	0xb8911a28	-6.919011e-05
188	0x35a02310	1.1931133e-06
189	0x30462d38	7.209624e-10
190	0x318d8f80	4.119954e-09
191	0xb1295dd1	-2.4646065e-09
192	0xbd32ed0a	-0.04368309
193	0x3a481c36	0.0007633598
194	0x347e926d	2.3708863e-07
195	0xb7693f03	-1.3902553e-05
196	0xbc056251	-0.008141116
197	0x3838a3d5	4.40216e-05
198	0x3fde960e	1.7389543
199	0xb866d56a	-5.503503e-05
200	0xbb605bb0	-0.0034234338
201	0xbc61cfad	-0.013782424
202	0x36449924	2.9295416e-06
203	0x3b8f7644	0.004378112
204	0x3d18ab59	0.037272785
205	0xbb7e8331	-0.003883552
206	0x36bd0852	5.6336075e-06
207	0x3ce810e9	0.028328376
208	0x34e068c2	4.1799473e-07
209	0x3c4ce4ac	0.0125056915
210	0x33ac08b8	8.01096e-08
211	0xbcc83395	-0.024438659
212	0x3e072cdb	0.13200705
213	0xbd76d5a9	-0.060262356
214	0x3b02a15a	0.0019932599
215	0x390d57a6	0.0001347946
216	0xbbab1555	-0.005221049
217	0x3bc2391a	0.005927217
218	0xb502a73b	-4.8672126e-07
219	0xbc252b5c	-0.010081138
220	0xbd4376c2	-0.04772068
221	0x35a9bd56	1.2646585e-06
222	0xb60df097	-2.115068e-06
223	0xb73128e0	-1.0559539e-05
224	0xbcb05609	-0.0215254
225	0x3a38905f	0.0007040556
226	0x33c5b6f8	9.206809e-08
227	0x36ee40b7	7.1004865e-06
228	0xbb312626	-0.0027030795
229	0xb7850686	-1.5857873e-05
230	0x3f9eca40	1.2405472
231	0x383899d6	4.401229e-05
232	0xba9104f7	-0.0011064102
233	0xbc236878	-0.009973638
234	0xb5065954	-5.004888e-07
235	0x3b623c99	0.0034520982
236	0x3ce433c7	0.02785672
237	0xbafe4bf3	-0.0019401297
238	0x3698ba43	4.5516367e-06
239	0x3caef596	0.021357339
240	0x33d608da	9.9667616e-08
241	0x3be3cd6c	0.0069519784
242	0xb307011d	-3.143315e-08
243	0xbcadb62c	-0.02120503
244	0x3df2332a	0.11826165
245	0xbcf1f9bf	-0.029538034
246	0x39164e41	0.00014334267
247	0xb8407b54	-4.5891225e-05
248	0xba0f2143	-0.00054599735
249	0x3883986e	6.274959e-05
250	0xb3d3ac74	-9.856822e-08
251	0xbc1d9239	-0.009617382
252	0xbd09ac47	-0.033611562
253	0xb40a9cbc	-1.2909271e-07
254	0xb5d8d051	-1.6153882e-06
255	0x36400f41	2.8619108e-06

fc3.bias f4 [16]
0	0xb66429c2	-3.3998954e-06
1	0xb4b0d7e2	-3.293963e-07
2	0xba7fc4b2	-0.0009756788
3	0xb74b2919	-1.2109312e-05
4	0xbd90f7cb	-0.07078513
5	0xbcddd874	-0.027080752
6	0x3f430776	0.7618326
7	0x3f0718fd	0.52772504
8	0x329b0881	1.8048242e-08
9	0xac36d2b8	-2.5980728e-12
10	0xb5ae01a2	-1.2964485e-06
11	0xb298ece3	-1.7802853e-08
12	0xb3481f3b	-4.6594533e-08
13	0xba008ea9	-0.00049040705
14	0x3ef25669	0.4733155
15	0xac3979f8	-2.6357787e-12

fc4.weight f4 [1, 16]
0	0xb1c5a4ce	-5.7521907e-09
1	0xb6b0e260	-5.2715623e-06
2	0xbaf1ea3c	-0.0018456648
3	0xb989aa16	-0.000262574
4	0xba444d66	-0.000748834
5	0xbc1b3e49	-0.009475299
6	0xbfc52c50	-1.5404148
7	0xbf862792	-1.0480826
8	0x32bc1ce7	2.1899224e-08
9	0xad64ea8a	-1.3012378e-11
10	0xb485e26b	-2.493792e-07
11	0x322a00eb	9.895511e-09
12	0x328d4e16	1.645007e-08
13	0x3c1e32b5	0.009655644
14	0xbf70ad63	-0.9401457
15	0xabf1b68a	-1.7174745e-12
