Pytorch/fixed_goal/reward_step_minus_weighted_euclidean/model/checkpoint_actor.pth (torch, 15603 bytes, 10 tensors)

fc1.weight f4 [64, 4]
00000000: 8c05 b9bd e485 fabd 3411 3abd bcdf ddbd
00000010: 455b 5cbe e871 dabe d09d d23e 7684 eabe
00000020: f890 8abc fa03 8a3d 10d8 61bd 2c85 dabd
00000030: 2289 d6bf a8bf 02be 58c6 2fbd 6710 bb3d
00000040: 4cd1 9fbd e0f9 c0be 1ba7 703e 6aa2 dcbd
00000050: e0c0 83bb c4f7 7e3d 1ada d6bd 5aba dabd
00000060: 561b 2e3f c33f efbf 54c7 123e bc4a 13be
00000070: 68c3 f33c e4df a4bd b490 43bd 60f0 db3b
00000080: 26af bf3d 7872 fabd b02a ce3c 0067 343c
00000090: f2a1 1fbe 3554 85bf f8e2 6f3e 56f4 f8bd
000000a0: 97cf 393d 6d53 b5be 63d9 ee3c cacc 25be
000000b0: f228 863e 0c63 08c0 0eec b33e e190 1fbe
000000c0: c462 babd f435 393d 4022 b6bc 6697 85bd
000000d0: b867 a0bc 708b be3c 36c7 9d3d 5850 a3bc
000000e0: 9f15 29bf 1f83 f8be 58cc cb3e c67c ebbe
000000f0: f8db e53d 5dc4 ccbf f42f 6b3e 374d 18be
00000100: 9ce6 6cbd 7066 083c 9029 bb3c 849d bdbd
00000110: 7c2c 0cc0 f435 90be e8d3 49be 9605 a13e
00000120: edd1 51bf b259 a4be 59e2 cd3d af9c afbd
00000130: 8e34 9cbd 608f 66bc a41f 883d b260 c23d
00000140: 9122 93be ee41 01bf 98d3 c13e 5c2f 81be
00000150: a4b7 fcbf 0524 a2be 7dd0 0ebe b71c 713d
00000160: 004c b739 f88b f0bd 3c71 8d3d ba50 c33d
00000170: 3cc0 9d3e 271a eebf c935 6e3e 2785 79be
00000180: 1b7b 9dbf f548 06bf e538 df3e 16e5 d8be
00000190: b98a 4e3e 3cd8 02c0 4efc 603e 5a77 43be
000001a0: 7121 cbbf acf4 38bd 14af 1c3e b2eb e5bd
000001b0: 80ed 0c3b d444 5abd f816 90bc 6096 5b3c
000001c0: a367 d6bf 342e 52be 8f18 483e 76ed a6bb
000001d0: 561b c43e 13d8 f0bf ec66 6a3e 40d2 fcbd
000001e0: 2090 54bf fbdc c7be 98ca 223e fcdd babe
000001f0: fc95 99bd 705e 823c 2449 913d 40cf 66bb
00000200: 3bbb 673f 5bbf 843e ff47 853e 13e7 96be
00000210: 90f5 bbbe 4d0f 58bf 0c89 ba3e 638d 0ebf
00000220: 5c37 c73d 828e 91bd 1ac1 efbd a835 6bbd
00000230: 40d4 e0bb bec2 c13d 2287 ee3d 8079 a33b
00000240: 4053 abbd 7094 f4bc 64d3 b2bd 8ef1 d1bd
00000250: 0372 3fbf 57c6 48be 6452 b43d 7bda a4bd
00000260: aa7e 18bd b79e 04c0 e5bc 053e 44e7 65bd
00000270: 37ef 1a40 25ef 383e 3561 5ebe e849 8e3e
00000280: 4fcb 563e fe7a be3d f038 793e 929a dfbd
00000290: fc90 1bbf c092 a9be 5c42 8a3e af01 36be
000002a0: 3d3f dbbe 6723 f5bf 9250 453e d4dc 54be
000002b0: d375 16be 2afe d5bf 1273 cc3e abd7 babe
000002c0: b051 e3bf de25 55be 3583 3abe e3d3 b1bc
000002d0: 40ba 91bb 605e 1bbc a0e6 fc3b 3a58 91bd
000002e0: d030 2540 6a34 063f 9d58 00be b1d2 2c3e
000002f0: 90de e73d 80fa dabb 0208 ab3d d6ab d9bd
00000300: 765d 7e3f 6a0b 36bb f5b2 50be c26d f13d
00000310: 92a9 efbd 0e39 4dbf 99c1 8a3e 011c a9be
00000320: e753 b0be b274 c5be 1d64 3e3e d470 c5bd
00000330: e0c2 1abf 82a1 73bf 99c0 a03e 94a4 a8be
00000340: 042a 8f3d c07f 5dbc 2c2c d13d 2694 873d
00000350: acbc ab3d 82d9 803d 18c3 0dbd 285c afbc
00000360: e357 a03d eb70 05c0 d28e 683e ac6e 10be
00000370: 8a17 95bd 3447 6e3d 1404 5e3d 20c3 c0bd
00000380: c081 fabf 4992 05be 2357 86bd 8235 aa3d
00000390: 624e 06bf e482 19bf a203 c23e 6028 9abe
000003a0: 655d 03bf bf86 66bf c8ab cb3e eaab bebe
000003b0: 0c22 e03d 6049 be3c 9000 60bd 9e76 c8bd
000003c0: 761d 5d3e a687 05c0 c9ec c13d 349f 30be
000003d0: 830a f8bf 3d15 a0be 247e 57be b6f2 523e
000003e0: cb8d 943d 66a3 efbe 4202 dc3d 8771 46be
000003f0: 5ff9 873f 3b15 cebf 2676 973e 799c 64be
-0.09034261 -0.12232569 -0.045426562 -0.108336896 -0.21519192 -0.4266503 0.41136026 -0.45804185
-0.01691483 0.0673904 -0.055137694 -0.10669932 -1.67606 -0.12768424 -0.042913765 0.09133988
-0.07803592 -0.3769064 0.23501246 -0.107731655 -0.004020795 0.062248006 -0.10490818 -0.10680075
0.6801046 -1.8691334 0.1433385 -0.14383978 0.029756263 -0.08050516 -0.04774542 0.0067120045
0.09359579 -0.122288644 0.02516684 0.011010885 -0.15589121 -1.0416323 0.23426425 -0.121559784
0.04536399 -0.3541521 0.029156392 -0.16191402 0.26203114 -2.1310453 0.35141033 -0.1558261
-0.09100869 0.04521747 -0.022233129 -0.065230176 -0.019580707 0.023259848 0.07704012 -0.019935772
-0.66048616 -0.48537537 0.3980434 -0.45993632 0.11223596 -1.5997425 0.22967511 -0.14873205
-0.057837114 0.008325204 0.022846967 -0.09258559 -2.190215 -0.28166163 -0.19709742 0.31449574
-0.81960946 -0.32099682 0.10052938 -0.08574807 -0.076272115 -0.014072269 0.0664666 0.094910994
-0.2873731 -0.50491226 0.37856746 -0.25231445 -1.9743543 -0.31668106 -0.1394672 0.058865275
0.00034961104 -0.11745447 0.06906363 0.09536882 0.30810726 -1.8601731 0.23262705 -0.243672
-1.2303194 -0.52455074 0.43598095 -0.4236228 0.20170106 -2.044448 0.21971247 -0.19088498
-1.586958 -0.045155212 0.15301162 -0.11226596 0.0021503866 -0.053288296 -0.017589077 0.013402551
-1.6750377 -0.20525438 0.19540618 -0.0050942255 0.38302106 -1.8815941 0.22890824 -0.123447895
-0.8303242 -0.39035782 0.15897596 -0.36497486 -0.074993104 0.015914172 0.070940286 -0.0035218745
0.90520066 0.25927243 0.2603149 -0.2947317 -0.36710787 -0.8439835 0.36432683 -0.5568449
0.09727356 -0.07107259 -0.11706753 -0.057424217 -0.0068612397 0.09460972 0.11646868 0.004988849
-0.08365488 -0.029855937 -0.08731726 -0.10251151 -0.74783343 -0.1960691 0.08804777 -0.08049484
-0.03723017 -2.0721872 0.13060339 -0.056128755 2.4208505 0.18059976 -0.21716769 0.2779076
0.20975994 0.09300803 0.24338126 -0.10918154 -0.60768104 -0.33119774 0.27003753 -0.1777408
-0.42821684 -1.9151429 0.19269016 -0.20787364 -0.14693384 -1.671819 0.39931542 -0.36492667
-1.7759304 -0.20815226 -0.18214114 -0.02170748 -0.0044472516 -0.00948295 0.0077179223 -0.07096906
2.5811043 0.5242373 -0.12533803 0.16877247 0.11321747 -0.006682694 0.08351137 -0.10628478
0.9936136 -0.00277778 -0.20380767 0.11788513 -0.11702265 -0.80165184 0.27100828 -0.33029178
-0.34439012 -0.38565594 0.18592878 -0.09640661 -0.60453606 -0.95168316 0.3139694 -0.32938063
0.06990436 -0.0135192275 0.10213503 0.06620054 0.08385596 0.06291486 -0.034609884 -0.021406248
0.07829263 -2.085017 0.22710732 -0.14104718 -0.0727988 0.058173373 0.054203108 -0.09412217
-1.9570847 -0.13044085 -0.06559589 0.08310987 -0.5246335 -0.5996535 0.37893397 -0.3010893
-0.51314384 -0.90049356 0.39779496 -0.37240535 0.10943994 0.023228347 -0.054688036 -0.097882494
0.2159327 -2.0864043 0.09468991 -0.17248231 -1.9378208 -0.31266204 -0.21044213 0.206004
0.07253607 -0.4680435 0.10742618 -0.19379245 1.0622977 -1.6100229 0.29582328 -0.22325315

fc1.bias f4 [64]
00000000: 1a1b b9be dc5d 8c3d 30d7 51bd 5e57 0b3e
00000010: 5bdd 153b f6da c4be d9c2 f03d 2250 a9be
00000020: 585d e4be 3175 18be 5c79 a1bc 3728 ab3d
00000030: bc1a d1be c03a d2bd 01e2 e3bc 3753 9abc
00000040: 12f4 d2be f278 6a3e 90f3 2fbe 8c36 aabe
00000050: e84e 2f3c b27e 2d3e 4c93 21be 0fc5 803d
00000060: 88d2 40be f6a7 803d 57b1 3e3e fea4 cdbe
00000070: cfb1 553e 18fc 963d b894 23be dc03 9bbe
00000080: 9c58 f9bd 461e 303a b015 0dbd 725c 85be
00000090: 506c f3be 4427 2fbe 3587 89bb 5fff 163e
000000a0: 9005 18bc 713a c4bd 09b6 75bd 06b9 26bd
000000b0: b1cd 083e a8ab b9be 47d8 573d c8ab 30be
000000c0: a24b ac3e 770e 8cbd 6ca2 80bd e0ee 03be
000000d0: ac87 ddbe dcac 31be 5b14 283d 403a 72be
000000e0: 1099 3d3e 3179 44bd e6cd 87bd b4e9 bfbe
000000f0: 18c4 7b3d a654 ff3d 3d53 b4bc fe96 2f3e
-0.3615349 0.0685384 -0.05123061 0.13607547 0.0022867534 -0.38448304 0.11755914 -0.3306895
-0.44602466 -0.14888455 -0.019711189 0.0835728 -0.4084071 -0.10265112 -0.027817728 -0.018838508
-0.41201836 0.228977 -0.17182755 -0.3324474 0.010699965 0.16942862 -0.15778846 0.06287586
-0.18830311 0.06282036 0.18622337 -0.40164942 0.2086861 0.07372302 -0.159747 -0.30276382
-0.12175104 0.0006718378 -0.03444451 -0.26047093 -0.47543573 -0.17104822 -0.004197026 0.14745854
-0.00927867 -0.09581459 -0.059988055 -0.040703796 0.13359715 -0.36263776 0.052696493 -0.1725303
0.33651453 -0.068386964 -0.062809795 -0.12884092 -0.43267572 -0.17351097 0.041035037 -0.23655033
0.1851542 -0.04796714 -0.06631069 -0.3748299 0.061466306 0.12467317 -0.022012347 0.17147443

fc2.weight f4 [32, 64]
00000000: f23c b13d 3efc ecbd 301d 873d a764 d03b
00000010: d082 13bc 6c2c 0d3d 8605 43be 00c8 813d
00000020: 1e6e 853d 9493 cd3d f414 aa3b 5662 213d
00000030: 85d2 083e 5083 263d 1f2d 733e 2553 03bd
00000040: 2eea 00be 6dc6 083d 8f21 5fbc f109 1cbe
00000050: 6bed 72be 98a8 e23d 21d4 87bd b3b4 91be
00000060: 1e9c e6bd c6b7 693e cb7e 563d e149 d9bd
00000070: d1a6 f13d d863 87be 909d 30bc f889 753d
00000080: a6e6 24be d71b 0cbe 0cda 4fbd 8007 63bb
00000090: 00e5 b13c 1fba 283e d141 ab3d 80df 4ebf
000000a0: 8ef0 093e 43dc 783e 63a6 733e f7dd ee3d
000000b0: 68df 003c 5479 323d d466 d3be 8259 b6bd
000000c0: 44c6 3f3b 9179 e1bd 0284 87bd b6bb 603e
000000d0: 3852 8a3d 4d82 b8bd 5360 a7bc 1864 eebc
000000e0: 9964 bcbd db82 61bd 2fa7 0b3e 107a d5bd
000000f0: 6591 76be 30ec d53c 8d64 893d ab5a d4be
00000100: 942b 1cbe 0f93 b83d 2691 9e3d 5bbe 02be
00000110: 040f 943d dbc2 2a3e 345b 3a3d 667d c6bd
00000120: ca52 9f3d 01a5 06be 58b2 993d 27c5 9abd
00000130: 370d 00be 78ab e23c 9bdd af38 bc84 103d
00000140: 10ca 0dbe 2b0c 0ebe 1380 eebb 7ef3 1ebe
00000150: be99 5bbe 2778 6dbd 9b1a 01be 1ff0 36be
00000160: b843 32be ff6d 5cbd 149a 84be 10af 61bd
00000170: d6f2 00bd 5dc3 61be 3b0f a33d 2b4b 0bbe
00000180: 347b 003e 93fe 7dbe 97e8 a7bd 5982 d3bd
00000190: 035b 103e f737 293d 92d2 1f3c cb68 223d
000001a0: b048 893d abcc 70be ddd8 cc3b 7d5e 8cbc
000001b0: 785f 47bc 3d78 00be 0206 f53c 622d c0bd
000001c0: 97d6 0bbe 8c40 cbbd 06c8 bbbc 0f0b 31be
000001d0: 5ea4 a03d 681b c7bc b278 8abd 502e eebc
000001e0: f55a 583d 2e5f 4bbe c329 413d 262b c23d
000001f0: 4384 653c aec7 e13c 3749 e2bd c659 2fbe
00000200: 82da c73d d060 ff3d 0427 c1bd 474c 063e
00000210: 2ff6 0d3e e360 18be 70ec 4dbf 68ab 923d
00000220: 28bd 2bbd 84ba 15bf 88e0 4c3d 3313 a8bf
00000230: 8151 b5bd 8061 f5bd 6090 ccbb 9bc1 aebe
00000240: 4b85 0f3e d38f 613f cbe2 47bd 2fae 0a3e
00000250: 0a36 373e 0748 173f 3833 213d 33ce 90bf
00000260: 7200 b63d dcad a9bf 2d99 013e e6d6 2cbe
00000270: 0dd6 6a3e 7e00 90bf bc91 963d 7d14 22be
00000280: ee3e 58be b6fb 633e 149a 923d 60a2 023d
00000290: d321 9fbd 93b4 25bd 1165 b3bf 176e 67bf
000002a0: d5b4 013e 6be6 9a3c 3f7d 90bf 28f4 0cbe
000002b0: c153 a23e b52c 143e 8764 c2bf d567 0e3e
000002c0: 0eef 203e f875 c33b 8971 413c 9b7b 71bf
000002d0: 2fb7 1bbe b7be 023e 6766 aebf 5543 c1bd
000002e0: 1a17 f23e e718 a53d 2a99 8d3e 80f8 e93b
000002f0: 3e22 cabf 3d56 f73e 0cc2 943c fbe8 74bf
00000300: a93b a2bd 6011 993c 7054 6f3d 5086 09be
00000310: 04f2 1dbe e0ec 8c3d d683 5cbe a11f 2fbe
00000320: d804 013d 9e69 32be ff06 cbbd 0ce9 13be
00000330: bc1a bcbd e80c b8bc f418 9abd a28e 77be
00000340: 400c 36bb 5092 033e 6d4f bd3d bcc9 33bd
00000350: 0c5e 31be 0531 003e 34b5 043d 3d12 debe
00000360: 6dd3 b7bd 87df 04be 407f 2ebe 6e68 fc3d
00000370: cd37 d23a 3286 b3be c325 b2bc d0ce 5ebd
00000380: 1ed5 963d e7db a6be 80ae b4bc de0d a53d
00000390: a703 14be 1fe3 07bc fac6 8cbe e84c 09bf
000003a0: dee0 38bc 0332 2cbe 2540 683d dd55 aa3c
000003b0: 7bee 0bbe dd37 283e 54f7 babe ac60 f9bd
000003c0: 8582 043d 75a0 1ebe 6cdd 45bc 9124 8cbd
000003d0: 34df 30bd 6eb0 a33d d017 76be cec8 dc3d
000003e0: 4741 323d 4b88 9dbe 3e1f d1be c0b4 3b3c
000003f0: 80e3 e0bc 21f9 113e c1a3 05be fbd7 3abd
0.086542025 -0.11571549 0.06597364 0.006359655 -0.009003356 0.034466192 -0.19045076 0.06336975
0.06515144 0.10037914 0.005190486 0.03940042 0.13361557 0.040652573 0.23747681 -0.032061715
-0.12589332 0.03339236 -0.013618841 -0.15238167 -0.2372338 0.11067313 -0.06632257 -0.28458175
-0.11260246 0.2282401 0.052367013 -0.106097944 0.11799396 -0.26443362 -0.010779753 0.05994603
-0.1610361 -0.13682495 -0.050745055 -0.0034641922 0.021715641 0.1647725 0.08362163 -0.80809784
0.1347067 0.24302773 0.2379394 0.1166343 0.007865764 0.04357274 -0.4128939 -0.08903791
0.0029262463 -0.11009515 -0.06616975 0.21946606 0.06753963 -0.09009228 -0.020431673 -0.029100463
-0.09198875 -0.055056434 0.13637994 -0.10423672 -0.24078901 0.0261136 0.06708632 -0.41475424
-0.15250999 0.09012424 0.077425286 -0.12767927 0.072294265 0.16675894 0.045497134 -0.096918866
0.07779463 -0.13148881 0.075047195 -0.07557135 -0.12505041 0.027669653 8.3859275e-05 0.035282835
-0.13846612 -0.13871829 -0.007278451 -0.15522572 -0.21445367 -0.057975914 -0.12607805 -0.17865036
-0.17408645 -0.053815838 -0.25898802 -0.055098593 -0.031481586 -0.22047181 0.07961889 -0.13602893
0.12546998 -0.24804144 -0.0819866 -0.10327596 0.14097218 0.041313138 0.009754794 0.03965072
0.06703317 -0.23515575 0.006251438 -0.0171349 -0.012168758 -0.12545867 0.029910091 -0.09383656
-0.13656078 -0.09924421 -0.022922527 -0.17289375 0.078438506 -0.02430506 -0.06761302 -0.029074818
0.05282112 -0.19860527 0.047158968 0.09480886 0.014008584 0.027561035 -0.11049121 -0.1712409
0.09758474 0.124696374 -0.0943127 0.13115035 0.13863443 -0.1488071 -0.804389 0.071615994
-0.04192844 -0.58487725 0.050018817 -1.3130859 -0.08853436 -0.11981487 -0.006242797 -0.34132084
0.14015691 0.88110083 -0.04880027 0.13543008 0.17891708 0.5909428 0.039355487 -1.1312927
0.08886804 -1.3256183 0.12656088 -0.16878852 0.22933216 -1.125015 0.073520154 -0.15828128
-0.21117756 0.22263989 0.07158294 0.031893134 -0.07770123 -0.040455412 -1.4015218 -0.9040236
0.12666638 0.0189087 -1.1288222 -0.13765013 0.31704524 0.1447018 -1.5186929 0.13906796
0.15716192 0.0059649907 0.011806854 -0.9432923 -0.15206598 0.12768064 -1.3625001 -0.09436671
0.4728325 0.0806139 0.27655917 0.007140219 -1.57917 0.48307982 0.018158935 -0.95668
-0.079215355 0.018685043 0.058430135 -0.13430142 -0.15424353 0.06881118 -0.21534666 -0.17101909
0.03149876 -0.17423102 -0.09913444 -0.14444369 -0.09184787 -0.022467092 -0.07524291 -0.24175504
-0.0027778298 0.12848783 0.09243665 -0.04389356 -0.17321032 0.125187 0.03239937 -0.4337329
-0.08975873 -0.12975894 -0.1704073 0.12324606 0.0016038358 -0.3506332 -0.021746522 -0.05439645
0.07364868 -0.32589647 -0.022055864 0.080592856 -0.14454518 -0.008293896 -0.27495557 -0.53632975
-0.011284081 -0.16815953 0.056701798 0.020792896 -0.13665192 0.1642756 -0.3651682 -0.12176642
0.032351036 -0.15490897 -0.012076717 -0.06842912 -0.043181613 0.07992636 -0.24032521 0.10780488
0.043519285 -0.30768046 -0.40844148 0.011456668 -0.02745223 0.14255191 -0.13050748 -0.04561613

fc2.bias f4 [32]
00000000: 8113 84be adf0 94bd c0a3 4a3e e6e0 2bbe
00000010: 4be8 ccbd 8913 9bbd ad8b abbd 5c61 ba3e
00000020: a05f 9abd 9195 9a3e adc0 00be 788a 9bbd
00000030: 546d 82bc 24ab d5bd 9a97 2dbf 1fd0 1ebd
00000040: 55ee 0bbe 954a f93e 21bb 753e c8bc 60bd
00000050: e8e5 023f a077 6cbb d897 133f 1490 bcbd
00000060: 3f85 15be e076 12be 6132 6dbd 2f8c adbe
00000070: 1e60 02be ce85 0f3c a4b2 cabd 81ec 11be
-0.2579613 -0.07272468 0.19789028 -0.1678501 -0.10005244 -0.075720854 -0.083762504 0.36402404
-0.0753777 0.30192235 -0.125735 -0.0759477 -0.015921272 -0.10433033 -0.6780945 -0.0387727
-0.13665135 0.48689714 0.23997165 -0.054867536 0.5113206 -0.0036082044 0.5765357 -0.09207168
-0.1460161 -0.1430316 -0.057909373 -0.33896014 -0.12731978 0.008759929 -0.09897354 -0.14250375

fc3.weight f4 [16, 32]
00000000: e7ce f83e 3e41 cb3d bba9 4dbf d55e fc3e
00000010: a3a0 093e db5f 1abe 4a07 0bbe 1754 be3f
00000020: 92b2 dd3e 1b60 89bf d009 81bd 3e7b 353e
00000030: ae07 ccbd 281d 62be ec0e 473f 7b4b 783d
00000040: 5084 203e 2611 82be 7df3 1dbf 8f61 3a3e
00000050: 7329 87bf c77f 70bd afc0 e43d 7a60 183e
00000060: a0bd 063d 4496 4a3e f263 44be c78e 273e
00000070: e928 bfbd aa06 45bc 2cb9 2ebe 745c 0e3e
00000080: 0122 b63e 6d88 3fbe 41e6 6dbf 89b0 34bd
00000090: cd51 863d ecc8 733e e210 b63c 1841 b33d
000000a0: 80ae 36bb cbbd c5be 14e0 bb3d 8ee5 3cbd
000000b0: e8fc a1bd 6bc8 703d fa04 fa3e dd15 053e
000000c0: 2863 433d e97c 4cbf 979b 40bf 17b5 d1bd
000000d0: 3b54 9dbf fae2 493e 9c6a 29be be72 6cbe
000000e0: 862e b93d f2da 0d3e 5f11 02be f96d 8dbd
000000f0: 3205 c0bb 077b b9bd 518f f9bd 3fcf fd3d
00000100: b9a5 283e 85ef 80be 1c58 fe3d 30e7 51be
00000110: 0149 023e 8052 e0bc 8807 1dbe 7999 ecbc
00000120: 6472 fbbd 5eb9 34be d057 21be 687f 0d3e
00000130: 000c 7d3d b153 443e 686e 0abd 0969 c43d
00000140: aa2b 433e 6ae3 6fbe 5184 383d 8a80 8fbe
00000150: fa2f 8bbd add5 45be afa6 373e e047 da3d
00000160: 7588 4abe 7973 56bd a2bf 303e 8458 993d
00000170: 9e79 5a3e d600 4ebe b854 193d 0cdb cfbd
00000180: 06c1 ce3e b815 bebd 9f2d 6bbf 23c2 c93d
00000190: d558 18be 28b4 2fbe 966a b5ba 8bee 1b3f
000001a0: b9ba 66bf c200 9fbf 95ae 48be 8610 57be
000001b0: 49e9 5d3e 5431 653e 0c9e 103f 30a8 143e
000001c0: 0a3e 70be 93a3 44be 3a35 7ebf 1930 903e
000001d0: cb4d 2bbf 400d a63d a313 aabe cb2f 69bd
000001e0: 7375 563e 7840 99bd b495 62bd 601f 32bf
000001f0: 1279 e63d 45a5 0fbe 1232 84be ab0b 81be
00000200: 9ce9 c93e fde7 4d3e 9b00 ecbe fed6 af3e
00000210: 48ad 6ebe cc9d cb3d 29df f93c de86 8c3f
00000220: ccc0 f6bd 2c42 b6be 80cc da3d 9e0b eb3c
00000230: 7f68 943c 2dfa 033c 0f35 183f ca6d 003e
00000240: 0052 a73b 9a18 6bbe 4c81 41bf c43d 9bbe
00000250: 0893 1cbe fd1f 3dbe 9e51 27bf 2a17 403e
00000260: de79 363e 2d99 17bd 6b71 37be a3e9 b2be
00000270: 3beb 30be a43d 57bc 08d4 ca3e 68f9 5c3e
00000280: 0293 d43e 9804 713e 8f19 8f3e 2f8d 273e
00000290: ae2d 43bd 09f0 18be d80c 39be e46a cfbe
000002a0: e9ce 273e 2137 db3e c8c2 773e c7e8 0fbe
000002b0: 161f eebd 95b9 5a3d c552 6abf 94a2 2cbc
000002c0: eeb2 58be b243 54be 4736 a53d daaf 663d
000002d0: fc90 c23e 324c 37be 3164 efbe a61a 43bd
000002e0: 0cfb 403e 1ee5 7e3d 9d89 743e c1a4 89bd
000002f0: 2fbc 2b3e 360a a3be 9967 49be b821 d93d
00000300: e730 8e3e ef12 bab9 a419 8d3e 8733 973e
00000310: 6006 4e3d 6ccb 033e 2403 65be d7ba a8be
00000320: 0c39 de3d 4492 9b3e a6d9 c7bc 7bec 173e
00000330: 4095 3ebe 0a36 eb3d 90c0 6cbf 2d83 1c3e
00000340: 035b 66bd bd28 8dbe 601f 3b3d 77ab 9e3d
00000350: d078 2bbd 63cc 0ebe 0eeb 37be 494a 25be
00000360: 4c49 25bd b30f 61be d2e3 b9bd 8206 9abe
00000370: 6034 50bc aafe 92bd 537e c6be 1e17 a93d
00000380: 6ea5 b83e c622 f33d 5fa2 3abe dca8 923e
00000390: f4ad 1a3e 1f4b 443e 6557 f53c 36ea e33e
000003a0: 842b d2be 76bd 3abf ee95 2d3e 1a8e 3dbe
000003b0: e5d6 09be 6a29 aa3d 3623 313f 1570 dcbc
000003c0: d0ca 5d3e 4142 70bf e9ad 4bbe 4fae 903e
000003d0: 09eb 74bf 9d2a 4d3e 0ce2 c3be 7e7f 203e
000003e0: 52dd 5b3e 70dc 8bbd b318 753e 990e 1bbf
000003f0: 5e73 4e3e 7b1a 0bbf 51ef db3d 3269 663e
0.48595354 0.09924553 -0.80337113 0.492911 0.13440184 -0.15075628 -0.13577 1.4869412
0.433003 -1.0732454 -0.063007 0.17722794 -0.09962402 -0.22081435 0.77757144 0.06061886
0.15675473 -0.25403708 -0.6169966 0.18201278 -1.0559524 -0.058715608 0.11169564 0.14880553
0.032895684 0.19783884 -0.19178751 0.16363059 -0.09333975 -0.012025515 -0.17062825 0.13902456
0.35572818 -0.18704386 -0.92929465 -0.04411367 0.06558571 0.23807114 0.022224847 0.0875265
-0.0027875006 -0.38621363 0.09173599 -0.046117358 -0.07909566 0.058784883 0.48831922 0.12996621
0.047701985 -0.798781 -0.7523741 -0.10239618 -1.229133 0.19715491 -0.16544574 -0.23090646
0.09042077 0.13853052 -0.12701939 -0.06905741 -0.0058599943 -0.09056669 -0.121855386 0.12393045
0.16469468 -0.2518274 0.12419149 -0.20498347 0.12723161 -0.027383089 -0.15334904 -0.028881775
-0.12277678 -0.17648837 -0.15756154 0.13818133 0.061779022 0.1917255 -0.033796698 0.09590346
0.19059625 -0.23426595 0.04504806 -0.28027755 -0.0679626 -0.19319792 0.17934678 0.1065824
-0.19778617 -0.052356217 0.17260602 0.07487586 0.21335456 -0.20117506 0.03743431 -0.10149202
0.4038164 -0.09281486 -0.9186649 0.09851482 -0.14877637 -0.17158568 -0.0013840969 0.6091086
-0.90128666 -1.2422106 -0.19597848 -0.21002397 0.21671022 0.22382098 0.5649116 0.14517283
-0.23461166 -0.19203024 -0.9929997 0.28161696 -0.6691558 0.08107996 -0.33218107 -0.056930345
0.20943241 -0.074829996 -0.05531855 -0.69579124 0.11253561 -0.14027889 -0.2581945 -0.25204214
0.39436042 0.20108028 -0.46094212 0.34343714 -0.23308289 0.09942207 0.030501919 1.0978658
-0.12048492 -0.3559736 0.106835365 0.028692063 0.018116234 0.008055252 0.5945596 0.12541881
0.0051062107 -0.22958604 -0.75587916 -0.3032056 -0.15290463 -0.18469234 -0.6535891 0.18758836
0.17819926 -0.037011314 -0.1791436 -0.34943876 -0.17277233 -0.013137255 0.39614892 0.21579516
0.41518408 0.23536909 0.27949187 0.16362451 -0.047650985 -0.14935316 -0.18071306 -0.4051124
0.16387524 0.42815498 0.24195397 -0.14053641 -0.11627023 0.05339964 -0.91532546 -0.0105368085
-0.21162006 -0.20728949 0.08066993 0.05632005 0.3800124 -0.1790016 -0.46756127 -0.047632836
0.18845767 0.062230222 0.2388062 -0.067208774 0.16771005 -0.31843728 -0.19668426 0.106021345
0.27771685 -0.0003549079 0.27558625 0.295315 0.05029905 0.12870568 -0.2236448 -0.32955047
0.108507246 0.3038503 -0.024395775 0.14836304 -0.18611622 0.114849165 -0.9248133 0.15284415
-0.05623914 -0.27570143 0.04568422 0.07747548 -0.041863263 -0.13945155 -0.1796076 -0.16141619
-0.040353104 -0.21978645 -0.090766564 -0.3008309 -0.0127078 -0.071774796 -0.38768253 0.082563624
0.36063713 0.11871867 -0.18226002 0.28644454 0.1510542 0.19169281 0.0299489 0.44514626
-0.41048825 -0.72945344 0.16951725 -0.18511239 -0.13460882 0.0830868 0.6919435 -0.026908914
0.21659398 -0.93851095 -0.1989056 0.28257987 -0.95671135 0.20035787 -0.38258398 0.15673634
0.21471146 -0.068291545 0.23935203 -0.6056915 0.20161197 -0.5433728 0.10739005 0.22501066

fc3.bias f4 [16]
00000000: 820a 143e 45c5 12bf d6d2 39bd d080 2b3e
00000010: 9e8c d23e fd5e 8dbe fd9c 89be d125 5dbe
00000020: 2824 9d3e 5703 5dbe f528 47be 3608 f43e
00000030: a969 b53e 9aa5 39bf 2bd5 12be 9071 1cbf
0.14457133 -0.5733226 -0.045367084 0.16748357 0.41122907 -0.27611533 -0.26877585 -0.21596457
0.30691648 -0.21583305 -0.19449218 0.47662514 0.35432175 -0.7251831 -0.1433913 -0.6111078

fc4.weight f4 [8, 16]
00000000: 4e1c 7dbf 84f2 3dbf e3a8 a9bc 8ce7 5fbe
00000010: a42e aabe 59d3 ec3e 8e1e bd3e 79f6 8e3e
00000020: c4d1 3abf 0252 e1bd 0b15 b5be c299 8c3f
00000030: c86f 72bf 065d 783e 8274 98be d0df f33d
00000040: 7912 a93e 1725 19bd 9486 80be ee71 aabd
00000050: 7ab3 c2be eea0 50be 80d4 0fbc dd79 ea3e
00000060: 37c9 fbbe dc66 76be 508d 403e 7921 0abd
00000070: 81e7 a3be efd4 c7be a672 3fbe 2b95 ed3d
00000080: 9773 8b3f 4e26 823f 0264 83be d769 483f
00000090: 295a f43e 53a7 6dbe 6cfa 233d eb93 713f
000000a0: 3f7f 5d3f a7b3 263d 78d7 643e c692 6c3e
000000b0: e49c 613f 94b6 2e3f 2204 9bbe c4f4 4e3f
000000c0: 22da a9be 22cf 433e e866 fcbd ee64 2ebe
000000d0: 20b0 d43d ac8e e63d f438 c9bd c0ff a33b
000000e0: b1ec 2fbe f2ac 15be 1086 5dbe 82d6 4cbe
000000f0: 94c1 66be c691 57be 1c57 32be b015 323d
00000100: 8aa5 05be 8575 2fbf 8cbc ccbc 6888 bf3e
00000110: 0eb7 d8be 1784 403e 4748 033f 939b 883e
00000120: 89ca 8ebe 78b1 383e ffc5 823b 1a2e dc3d
00000130: 1ac4 36bf 557b f33e 8aa8 69be 481d 88be
00000140: d75c a6be 6f4a b0be e66c a4be 5487 183e
00000150: 4930 39bf ec1e 5f3e d87b 863e c37a d13e
00000160: 754c a2bf 0b59 d3bd 3600 2d3d 62fa 203f
00000170: 2879 91bf 7461 883c 3d01 b2bd 27d4 8fba
00000180: ee66 dfbe 877a 7a3f 0aed 86bd 6757 cfbe
00000190: 31ef 39be 4b40 883e 915d b83e a071 4f3f
000001a0: 9a26 aebb 54a1 95be 9027 a9be b046 b7bf
000001b0: dfc0 0e3e e7f4 4d3f 25e6 17be 7992 163d
000001c0: efa2 1bbe 838f d1be c246 ffbc 9ea4 b63c
000001d0: 5d2b d0be aacd a03e cf93 8a3e 4b48 513e
000001e0: 0b12 30bf 8c8f 6c3e 5b2e a93e 0acf 8bbd
000001f0: 6d5d 00bf 8835 56be 5687 e6bd cb88 7b3b
-0.98871315 -0.74198174 -0.020710414 -0.21865672 -0.3323871 0.46254995 0.36937374 0.2792242
-0.72976327 -0.1100197 -0.35367617 1.0984423 -0.94701815 0.24254236 -0.29776388 0.11907923
0.33021906 -0.037388887 -0.25102675 -0.083225116 -0.38027555 -0.2037389 -0.008778691 0.457961
-0.49176952 -0.24062675 0.18803906 -0.03372333 -0.3201256 -0.39029643 -0.18696079 0.11600717
1.089465 1.016794 -0.25662237 0.782865 0.47725037 -0.2320836 0.040033743 0.9436633
0.8652229 0.040698674 0.2234782 0.23102865 0.8813002 0.6824734 -0.3027659 0.8084223
-0.33174235 0.19121984 -0.12324315 -0.17030689 0.10385156 0.11257681 -0.09825316 0.005004853
-0.17180134 -0.14616755 -0.21633172 -0.20003703 -0.22534782 -0.21051702 -0.17416042 0.043477714
-0.1305143 -0.68538696 -0.02499225 0.37408757 -0.4232716 0.18800388 0.5128216 0.26681194
-0.27888897 0.18036449 0.003990888 0.10750981 -0.7139298 0.47555032 -0.22818199 -0.2658484
-0.32492706 -0.34431788 -0.32114333 0.14895374 -0.723393 0.2178914 0.2626636 0.40913972
-1.2679583 -0.10319718 0.04223653 0.62882054 -1.1365099 0.016648032 -0.086916424 -0.001097326
-0.43633217 0.9784321 -0.0658818 -0.4049637 -0.1815765 0.26611552 0.36008886 0.81032753
-0.0053146603 -0.29224646 -0.33037996 -1.4318447 0.13940762 0.80451816 -0.14833887 0.03676078
-0.15198873 -0.40929803 -0.03116167 0.022295292 -0.40658084 0.3140691 0.27065894 0.20437734
-0.6877753 0.23101634 0.3304318 -0.06826599 -0.50142556 -0.20918858 -0.11256282 0.0038381096

fc4.bias f4 [8]
00000000: c96a 313f ad3b d3bd a093 c83e 8a42 60be
00000010: c504 d8bd ae14 133f 64ef 5bbe 42dd 0d3d
0.69303566 -0.103141166 0.3917513 -0.21900383 -0.10547785 0.5745343 -0.21478039 0.034634836

fc5.weight f4 [3, 8]
00000000: 7a28 4fbf 6e55 86bc 9fa0 2fbf 2010 453a
00000010: 6d0b 433e 2ce5 32bf adc0 87be 90ad 0f3e
00000020: a6db 4b40 fedc a53f 3fac 2640 3872 433a
00000030: 0269 9f3f c321 943f 56be 9f3e 22a6 f43f
00000040: 99df fd3e 8a96 173d a409 23bd 473d 21bb
00000050: 9a24 803b 37f1 793f 400c e4bd b0f5 4d3e
-0.8092114 -0.016398158 -0.68604463 0.00075173564 0.19047327 -0.6988094 -0.26514187 0.14031053
3.1852813 1.2958066 2.604263 0.00074556796 1.2453921 1.1572803 0.31199902 1.91132
0.49584654 0.0370088 -0.039804116 -0.0024603175 0.0039106132 0.9763369 -0.11135149 0.20113254

fc5.bias f4 [3]
00000000: 16b6 85bf df44 3040 c646 5f3d
-1.0446193 2.7542036 0.054510854
