Pytorch/fixed_goal/reward_step_error_comparison/model/checkpoint_actor.pth (torch, 15757 bytes, 10 tensors)

fc1.weight f4 [64, 4]
-0.09034261 -0.12232569 -0.045426562 -0.108336896 -0.36804572 0.64966357 0.3238802 -0.3723676
-0.01691483 0.0673904 -0.055137694 -0.10669932 0.87508595 1.3201224 0.07509048 -0.021832237
0.2460754 0.65943015 0.022497578 0.102561735 -0.004020795 0.062248006 -0.10490818 -0.10680075
1.5552648 0.4371353 -0.16554613 0.16217223 0.029756263 -0.08050516 -0.04774542 0.0067120045
0.09359579 -0.122288644 0.02516684 0.011010885 1.0369761 0.75692564 -0.01656401 0.12894757
0.9945374 0.6131853 -0.10520516 -0.028767608 1.344243 -1.3836924 -0.10332317 0.29443112
-0.09100869 0.04521747 -0.022233129 -0.065230176 -0.019580707 0.023259848 0.07704012 -0.019935772
-0.14107087 0.46241254 0.41428438 -0.4788277 0.06183413 -0.19935367 0.22141218 -0.14670251
-0.057837114 0.008325204 0.022846967 -0.09258559 0.6003207 0.5334006 0.04894713 0.07439886
1.5714543 0.9510922 -0.18143503 0.19297981 -0.076272115 -0.014072269 0.0664666 0.094910994
-0.03687071 0.37193668 0.2663926 -0.14167581 0.46420157 0.48652413 0.029712608 -0.10477024
0.00034961104 -0.11745447 0.06906363 0.09536882 1.1453735 0.3618269 0.17492059 -0.19024752
0.37930322 1.7521393 0.60109705 -0.591686 0.5685345 0.08378872 0.16224135 -0.13760325
0.59511876 0.40238902 -0.020630704 0.06646083 0.0021503866 -0.053288296 -0.017589077 0.013402551
0.37835672 0.54334295 -0.015890304 0.21198386 0.93992233 0.3134339 0.105938725 -0.004404002
0.3175847 1.6360396 0.36344406 -0.5696884 -0.074993104 0.015914172 0.070940286 -0.0035218745
0.35405168 0.5033037 0.2060942 -0.23241533 -0.64554185 0.5650509 -0.24023765 0.04356832
0.09727356 -0.07107259 -0.11706753 -0.057424217 -0.0068612397 0.09460972 0.11646868 0.004988849
-0.08365488 -0.029855937 -0.08731726 -0.10251151 0.7870315 0.52629614 -0.023673687 0.030941306
0.76162565 1.4724047 0.18584368 -0.1152884 0.3209578 2.0499191 0.1400617 -0.084231555
0.39533904 1.7986926 0.60221505 -0.46748456 1.0291408 0.9102555 -0.11015907 0.20218858
1.3033979 0.56473666 -0.21891282 0.19708817 -0.45517796 0.5485479 -0.11838666 0.14745505
0.8725219 1.2492608 -0.07526612 -0.123119965 -0.0044472516 -0.00948295 0.0077179223 -0.07096906
1.0001227 0.791963 0.014458841 0.023809437 0.11321747 -0.006682694 0.08351137 -0.10628478
1.1456485 -1.4542288 -0.31104872 0.2221101 0.819653 1.133819 0.11199242 -0.17172176
0.8662809 0.41839686 -0.06409242 0.15052302 1.2036794 0.8214869 0.0285701 -0.045356233
0.06990436 -0.0135192275 0.10213503 0.06620054 0.08385596 0.06291486 -0.034609884 -0.021406248
-0.00939058 0.49843132 0.2939357 -0.21165454 -0.0727988 0.058173373 0.054203108 -0.09412217
0.26639086 0.59169656 -0.16338566 0.18703286 -0.01074026 0.43277407 0.34575588 -0.2695475
-0.26876983 0.48538202 0.09825249 -0.07613508 0.10943994 0.023228347 -0.054688036 -0.097882494
0.08742691 0.24525544 0.16443805 -0.2452369 0.597354 0.5591784 -0.05602452 0.057538506
0.9887354 0.7747344 -0.12789273 0.03986314 1.2675554 0.012304616 0.14720044 -0.079480425
00000000: 8c05 b9bd e485 fabd 3411 3abd bcdf ddbd
00000010: 7d70 bcbe 5a50 263f a0d3 a53e f7a6 bebe
00000020: f890 8abc fa03 8a3d 10d8 61bd 2c85 dabd
00000030: a205 603f c5f9 a83f 0ac9 993d 85d9 b2bc
00000040: 31fb 7b3e 6ad0 283f d74c b83c e30b d23d
00000050: e0c0 83bb c4f7 7e3d 1ada d6bd 5aba dabd
00000060: eb12 c73f 33d0 df3e ed84 29be 7a10 263e
00000070: 68c3 f33c e4df a4bd b490 43bd 60f0 db3b
00000080: 26af bf3d 7872 fabd b02a ce3c 0067 343c
00000090: a2bb 843f e1c5 413f 3fb1 87bc d50a 043e
000000a0: 019a 7e3f b6f9 1c3f ce75 d7bd 0caa ebbc
000000b0: 2810 ac3f d51c b1bf 199b d3bd adbf 963e
000000c0: c462 babd f435 393d 4022 b6bc 6697 85bd
000000d0: b867 a0bc 708b be3c 36c7 9d3d 5850 a3bc
000000e0: e274 10be 56c1 ec3e 151d d43e e728 f5be
000000f0: c945 7d3d 5e23 4cbe e0b9 623e 2f39 16be
00000100: 9ce6 6cbd 7066 083c 9029 bb3c 849d bdbd
00000110: 9eae 193f f18c 083f c97c 483d 6e5e 983d
00000120: 6a25 c93f c77a 733f 1bca 39be 809c 453e
00000130: 8e34 9cbd 608f 66bc a41f 883d b260 c23d
00000140: be05 17bd 7c6e be3e 9c64 883e 7713 11be
00000150: d4ab ed3e b119 f93e db67 f33c c891 d6bd
00000160: 004c b739 f88b f0bd 3c71 8d3d ba50 c33d
00000170: 999b 923f 6041 b93e 621e 333e 3fd0 42be
00000180: 0834 c23e 1a46 e03f 7fe1 193f bc78 17bf
00000190: 7a8b 113f 6c99 ab3d 9922 263e dee7 0cbe
000001a0: b459 183f ef05 ce3e b901 a9bc 9e1c 883d
000001b0: 80ed 0c3b d444 5abd f816 90bc 6096 5b3c
000001c0: f9b7 c13e 8618 0b3f 622c 82bc 4c12 593e
000001d0: c09e 703f 687a a03e 67f6 d83d 724f 90bb
000001e0: 769a a23e bf69 d13f 5715 ba3e 19d7 11bf
000001f0: fc95 99bd 705e 823c 2449 913d 40cf 66bb
00000200: 4346 b53e 83d8 003f 5c0a 533e 49fe 6dbe
00000210: 3b42 25bf 2da7 103f dc00 76be b274 323d
00000220: 5c37 c73d 828e 91bd 1ac1 efbd a835 6bbd
00000230: 40d4 e0bb bec2 c13d 2287 ee3d 8079 a33b
00000240: 4053 abbd 7094 f4bc 64d3 b2bd 8ef1 d1bd
00000250: e57a 493f 58bb 063f 52ef c1bc 9f78 fd3c
00000260: e6f9 423f c277 bc3f ce4d 3e3e 531c ecbd
00000270: 9554 a43e e031 0340 566c 0f3e 9881 acbd
00000280: e169 ca3e 8f3b e63f c42a 1a3f 235a efbe
00000290: e3ba 833f 8106 693f 149b e1bd 860a 4f3e
000002a0: bed5 a63f 9592 103f af2a 60be 7bd1 493e
000002b0: 160d e9be a36d 0c3f b574 f2bd 75fe 163e
000002c0: 985d 5f3f c7e7 9f3f 2025 9abd 5226 fcbd
000002d0: 40ba 91bb 605e 1bbc a0e6 fc3b 3a58 91bd
000002e0: 0504 803f 16be 4a3f c6e4 6c3c 020c c33c
000002f0: 90de e73d 80fa dabb 0208 ab3d d6ab d9bd
00000300: 9ca4 923f 2b24 babf c741 9fbe d470 633e
00000310: c7d4 513f fb20 913f 485c e53d d4d7 2fbe
00000320: 96c4 5d3f 1d38 d63e e342 83bd b522 1a3e
00000330: 2b12 9a3f f74c 523f d80b ea3c 75c7 39bd
00000340: 042a 8f3d c07f 5dbc 2c2c d13d 2694 873d
00000350: acbc ab3d 82d9 803d 18c3 0dbd 285c afbc
00000360: f2da 19bc 6432 ff3e bd7e 963e f8bb 58be
00000370: 8a17 95bd 3447 6e3d 1404 5e3d 20c3 c0bd
00000380: 6264 883e 6d79 173f 924e 27be 8b85 3f3e
00000390: eaf7 2fbc 9094 dd3e ea06 b13e 2102 8abe
000003a0: 339c 89be fe83 f83e 9a38 c93d b5ec 9bbd
000003b0: 0c22 e03d 6049 be3c 9000 60bd 9e76 c8bd
000003c0: e10c b33d 3e24 7b3e 7362 283e 621f 7bbe
000003d0: 31ec 183f 5126 0f3f f879 65bd 7fad 6b3d
000003e0: c31d 7d3f fe54 463f 50f6 02be 8847 233d
000003f0: 413f a23f 4d99 493c b6bb 163e a2c6 a2bd

fc1.bias f4 [64]
-0.3615349 0.16493264 -0.05123061 -0.0061155506 0.22701895 -0.38448304 0.43679163 -0.3306895
-0.44602466 0.10272334 0.12243278 0.55660313 -0.4084071 -0.10265112 -0.009331074 0.028287752
-0.41201836 -0.056582917 0.13856319 -0.3324474 0.1350705 -0.033151045 -0.15778846 0.14690064
-0.33905435 0.14266251 0.33308515 -0.40164942 0.38801095 0.21263583 -0.36365303 -0.30276382
-0.09911917 0.64398026 -0.03444451 -0.26047093 -0.47543573 -0.058642916 -0.037699405 -0.18019149
-0.36943656 0.28503036 0.40552366 0.52409166 -0.0032269238 -0.36263776 -0.052993145 -0.1725303
0.47588542 0.09552194 0.22105473 0.16149645 -0.43267572 -0.17351097 -0.0041134157 -0.23655033
0.24489471 -0.0019129661 0.25994635 -0.3748299 0.0072715688 -0.0652705 0.2248826 0.353647
00000000: 1a1b b9be 1ae4 283e 30d7 51bd f564 c8bb
00000010: a877 683e f6da c4be 27a3 df3e 2250 a9be
00000020: 585d e4be 9d60 d23d 0abe fa3d 8b7d 0e3f
00000030: bc1a d1be c03a d2bd 5ce1 18bc b7bb e73c
00000040: 12f4 d2be 7dc3 67bd 82e3 0d3e 8c36 aabe
00000050: ec4f 0a3e 64c9 07bd 4c93 21be 1f6d 163e
00000060: 8898 adbe 1f16 123e 238a aa3e fea4 cdbe
00000070: 5fa9 c63e 35bd 593e bb30 babe dc03 9bbe
00000080: fefe cabd e4db 243f b015 0dbd 725c 85be
00000090: 506c f3be 8e33 70bd b16a 1abd 1e84 38be
000000a0: ca26 bdbe 80ef 913e cca0 cf3e df2a 063f
000000b0: cc7a 53bb a8ab b9be 570f 59bd c8ab 30be
000000c0: 41a7 f33e 02a1 c33d 2c5c 623e 535f 253e
000000d0: ac87 ddbe dcac 31be d5c9 86bb 403a 72be
000000e0: aec5 7a3e 7ebc faba b017 853e b4e9 bfbe
000000f0: 5746 ee3b 8aac 85bd a047 663e 3811 b53e

fc2.weight f4 [32, 64]
0.08654202 -0.033455383 0.06597364 0.073830284 0.0002101198 0.034466196 -0.1664397 0.06336974
0.06515144 -0.008731314 0.07773242 0.14049064 0.13361555 0.040652573 0.08829087 -0.07477996
-0.12589332 -0.18541397 -0.12333239 -0.15238167 -0.12464739 0.08742977 -0.06632257 -0.15053834
-0.08458265 0.080596134 0.124952 -0.106097944 0.11588654 -0.032328617 -0.029102227 0.05994603
-0.43453142 -0.1305949 -0.05074506 -0.003464197 0.021715637 0.018421259 0.09937717 0.01250803
0.067737594 0.14153899 -0.10241106 -0.10346048 0.014123714 0.04357274 0.09041171 -0.08903791
-0.0058835624 -0.09829218 0.017607609 -0.043197792 0.067539625 -0.09009228 0.038531795 -0.02910046
-0.12825172 0.005934236 0.049242873 -0.10423672 -0.1224253 -0.02952907 0.13890015 -0.13182427
-0.15250999 0.1396852 0.0774253 -0.068827234 0.13001038 0.16675894 0.10797925 -0.096918866
0.077794634 -0.074828185 0.12775429 -0.022192359 -0.12505041 0.027669659 0.050432466 0.09006585
-0.13846612 -0.0857477 0.04590863 -0.15522572 -0.15953861 -0.0027820603 -0.12607805 -0.12439043
-0.11785007 -0.0031926876 -0.20294403 -0.055098597 0.02127823 -0.16012202 0.13684066 -0.13602893
0.13459386 -0.1985107 -0.0819866 -0.10327596 0.14097218 0.098827004 0.06552183 0.12102494
0.114488825 -0.18204331 0.05970325 0.032797128 0.040933594 -0.12545867 0.09704295 -0.09383656
-0.072434805 -0.038272813 0.030053679 -0.11826387 0.078438506 -0.024305055 -0.014293723 -0.029074814
0.108137965 -0.14780658 0.103236414 0.09480885 0.070631236 0.0816328 -0.05127699 -0.09115328
0.097584724 0.05996261 -0.0943127 -0.22620377 0.06674273 -0.1488071 -0.059624724 0.07161599
-0.041928444 0.06522835 0.066982515 0.008799687 -0.08853436 -0.11981487 0.07852082 0.12597722
0.1401569 0.10393987 0.07367014 0.13543008 0.06364061 -0.0064254305 0.039355483 -0.16887848
-0.04789797 -0.08021513 0.03524689 -0.16878852 -0.042082604 -0.10051361 0.10905464 -0.15828128
-0.3634029 0.0699872 0.07158294 0.03189313 -0.07770123 -0.07566961 0.0006184846 0.028107507
0.029227287 0.004354776 0.029662274 0.01983842 -0.096361876 0.14470181 -0.24253835 0.13906795
-0.19587624 -0.0141113335 0.052654237 -0.0066572977 -0.15206598 0.12768064 -0.21305194 -0.09436671
-0.063702576 0.03408066 -0.04497077 0.007140224 -0.24790338 -0.047938038 0.01083855 -0.12593985
-0.079215355 0.06577996 0.058430135 -0.051474426 -0.1298049 0.06881118 -0.06775984 -0.17101909
0.031498764 -0.09595562 -0.031232443 -0.0016894001 -0.09184787 -0.022467094 0.02706722 -0.21195608
-0.0027778356 -0.11986201 0.12259051 -0.04389356 -0.11811178 0.12480907 0.03239938 -0.17327958
-0.039304655 -0.018750206 -0.06926429 0.123246066 0.05212044 -0.14063482 0.10610862 -0.05439645
-0.2440049 -0.067074135 -0.022055866 0.08059286 -0.14454518 0.07517236 0.04271629 -0.18062523
-0.1004924 -0.09651247 0.073723994 0.07726156 -0.1166623 0.1642756 -0.3502055 -0.12176642
0.013812777 -0.1532789 0.045000814 -0.08040184 -0.043181617 0.07992636 -0.06798206 0.10780487
-0.05959783 -0.23443693 -0.13474166 0.011456672 0.11358904 0.07794852 -0.05156066 -0.02445955
00000000: f13c b13d 8308 09bd 301d 873d 5534 973d
00000010: 9b53 5c39 6d2c 0d3d 2b6f 2abe ffc7 813d
00000020: 1e6e 853d c90d 0fbc 2d32 9f3d c7dc 0f3e
00000030: 84d2 083e 5083 263d d8d1 b43d 3c26 99bd
00000040: 2eea 00be 29dd 3dbe b195 fcbd f109 1cbe
00000050: 2147 ffbd 610e b33d 21d4 87bd b926 1abe
00000060: ab39 adbd 960f a53d d6e6 ff3d e149 d9bd
00000070: ec55 ed3d 036b 04bd cb67 eebc f889 753d
00000080: e77a debe abba 05be 0dda 4fbd 9507 63bb
00000090: fee4 b13c 2ee8 963c 4286 cb3d 7bee 4c3c
000000a0: 02ba 8a3d 99ef 103e e4bc d1bd 17e3 d3bd
000000b0: 2667 673c 5479 323d c629 b93d 8259 b6bd
000000c0: e6ca c0bb 694d c9bd d53d 903c 2bf0 30bd
000000d0: 3752 8a3d 4d82 b8bd 84d3 1d3d 1664 eebc
000000e0: 6b54 03be fb73 c23b e5b2 493d 107a d5bd
000000f0: 1eba fabd f3e6 f1bc d73b 0e3e f1fc 06be
00000100: 942b 1cbe a309 0f3e 2891 9e3d 4bf5 8cbd
00000110: 7121 053e dbc2 2a3e 3a24 dd3d 667d c6bd
00000120: cb52 9f3d 853f 99bd 05d2 023e c0cc b5bc
00000130: 370d 00be 7bab e23c 4692 4e3d 7274 b83d
00000140: 10ca 0dbe 7d9c afbd b00a 3c3d 7ef3 1ebe
00000150: 175e 23be 3a53 36bb 9b1a 01be 69c0 febd
00000160: 615b f1bd 693c 51bb 8fd0 4fbe 11af 61bd
00000170: af4f ae3c 07f7 23be f51f 0c3e 2b4b 0bbe
00000180: f9d2 093e 6446 4bbe 97e8 a7bd 5982 d3bd
00000190: 035b 103e d065 ca3d 4f30 863d ecdb f73d
000001a0: 1e79 ea3d 9069 3abe 658b 743d 4856 063d
000001b0: fca9 273d 3d78 00be 74be c63d 622d c0bd
000001c0: b358 94bd f4c3 1cbd 2233 f63c 5434 f2bd
000001d0: 5ea4 a03d 651b c7bc 3830 6abc 4e2e eebc
000001e0: 7077 dd3d 9c5a 17be 9d6d d33d 242b c23d
000001f0: 1ca7 903d 192f a73d d207 52bd 92ae babd
00000200: 80da c73d 5b9b 753d 0427 c1bd f6a1 67be
00000210: 6ab0 883d e360 18be 0e39 74bd 67ab 923d
00000220: 29bd 2bbd 7196 853d 212e 893d 902c 103c
00000230: 8151 b5bd 8061 f5bd 86cf a03d 2c00 013e
00000240: 4a85 0f3e 6dde d43d 5fe0 963d 2fae 0a3e
00000250: 0256 823d 6b8c d2bb 3733 213d 7bee 2cbe
00000260: a930 44bd d447 a4bd 0b5f 103d e6d6 2cbe
00000270: cf5e 2cbd 14da cdbd 0a58 df3d 7d14 22be
00000280: f20f babe 7355 8f3d 149a 923d 5fa2 023d
00000290: d321 9fbd abf8 9abd cd21 223a b741 e63c
000002a0: 106e ef3c 82b2 8e3b 4cfe f23c 2f84 a23c
000002b0: 6059 c5bd b62c 143e f95b 78be d467 0e3e
000002c0: c893 48be 3933 67bc f8ab 573d 7625 dabb
000002d0: 2fb7 1bbe b7be 023e 4a2a 5abe 5543 c1bd
000002e0: 7f76 82bd 2a98 0b3d 4533 38bd 8af8 e93b
000002f0: 62da 7dbe ad5a 44bd 2c94 313c 60f6 00be
00000300: a93b a2bd a5b7 863d 7054 6f3d d9d6 52bd
00000310: 93eb 04be e0ec 8c3d acc5 8abd a11f 2fbe
00000320: d904 013d 6184 c4bd 2edb ffbc dc6e ddba
00000330: bc1a bcbd e90c b8bc 13bc dd3c 040b 59be
00000340: 590c 36bb 377a f5bd bc10 fb3d bcc9 33bd
00000350: 97e4 f1bd e69b ff3d 36b5 043d 3470 31be
00000360: ebfd 20bd 089a 99bc 70da 8dbd 6f68 fc3d
00000370: 3e7c 553d 9302 10be 7a4f d93d d0ce 5ebd
00000380: 6cdc 79be 2a5e 89bd 81ae b4bc df0d a53d
00000390: a703 14be f7f3 993d 47f7 2e3d d2f5 38be
000003a0: f6ce cdbd 54a8 c5bd 9bfc 963d 4f3b 9e3d
000003b0: a5ec eebd dd37 283e 234e b3be ac60 f9bd
000003c0: fc4e 623c 25f5 1cbe c652 383d b8a9 a4bd
000003d0: 35df 30bd 6eb0 a33d 2e3a 8bbd cdc8 dc3d
000003e0: db1c 74bd 3c10 70be b8f9 09be c4b4 3b3c
000003f0: 5fa1 e83d 79a3 9f3d 4531 53bd 655f c8bc

fc2.bias f4 [32]
-0.04440648 0.0011912995 -0.1519614 -0.1067973 0.116530575 0.1066388 -0.064185 -0.023514416
0.057469606 0.28342044 -0.11562186 -0.004250586 0.03554199 0.013837903 -0.11445627 0.016370244
0.0875042 -0.0043129837 0.32039163 0.020262146 -0.013644057 0.008018423 -0.023868438 -0.060430855
-0.08627098 -0.14880781 -0.27495605 -0.69787914 -0.08819711 -0.0028466072 -0.13182707 -0.089935936
00000000: 92e3 35bd 6125 9c3a c59b 1bbe 8bb8 dabd
00000010: 95a7 ee3d 7165 da3d 6d73 83bd 4ea1 c0bc
00000020: 4065 6b3d 7c1c 913e 27cb ecbd 8048 8bbb
00000030: 7a94 113d 5fb8 623c 0d68 eabd e41a 863c
00000040: 6735 b33d ee53 8dbb 5f0a a43e cdfc a53c
00000050: 538b 5fbc b45f 033c be87 c3bc 5886 77bd
00000060: d7ae b0bd 1361 18be 0ac7 8cbe 35a8 32bf
00000070: b0a0 b4bd 258e 3abb adfd 06be 5530 b8bd

fc3.weight f4 [16, 32]
0.15664575 0.099228844 0.1964375 0.09312728 0.13348377 -0.1642909 -0.13190854 0.056992024
0.07716787 -0.23780008 -0.063007 0.17697728 -0.12742358 -0.22163163 -0.02208206 0.05524276
0.15675473 0.040521186 -0.041520394 0.029632356 -0.23844115 -0.045978036 0.11944381 0.14880553
0.056342386 0.19731936 -0.19181842 0.09202963 -0.046381295 -0.19370836 -0.22883993 0.13902456
0.15587574 -0.18563107 0.08925491 -0.122920945 0.043508343 0.43867695 -0.34445515 -0.08927533
0.13300046 0.03577395 0.09135997 -0.046494544 -0.067414455 0.05152091 0.019627124 0.13086726
0.6593455 0.26457012 -0.36823907 -0.24339622 -0.12262241 0.20728645 0.0655899 -0.23090646
0.06904206 0.15514535 -0.19449198 1.4857684 -0.0512563 0.24492103 0.0010511618 0.10525511
0.16427054 -0.24880493 0.11608544 -0.21653925 0.13033995 -0.027383089 -0.15334904 -0.001119256
-0.12277678 -0.23290467 -0.15756154 0.13818133 0.061779022 0.16054197 -0.033796698 0.09890969
0.19059625 -0.23435172 -0.011248817 -0.30487493 -0.06807508 -0.19326007 0.17900951 0.1065824
-0.1979283 -0.049334645 0.17260602 0.043173242 0.21335456 -0.20117506 0.03743431 -0.10149202
0.09767869 -0.13901445 0.019485539 0.03223724 -0.5548219 -0.5375583 0.49368933 0.0026289867
-0.1648252 -0.48997107 -0.19536845 -0.20939803 0.17007057 0.1289804 -0.059886843 0.18348724
-0.4373132 0.098374665 -0.5202296 0.12679642 0.13427258 0.09341752 0.11706578 -0.036459863
0.21893404 -0.07991757 0.78278816 2.0656395 0.15936875 0.08790524 -0.10548059 -0.13618821
-0.24978343 0.22943062 -0.13956565 0.16377282 -0.23308289 0.13277292 0.023030639 0.13731685
0.10153425 -0.17041957 0.106835365 0.02879548 0.01796171 -0.02891618 0.20167688 0.12100914
0.0051062107 0.0034896135 -0.18692726 -0.2311188 0.07182631 -0.16882363 -0.14790821 0.18758836
0.18263128 -0.037097603 -0.17915133 -0.037377864 -0.21797562 -0.1367814 0.24452853 0.19452968
0.3344758 0.2047774 0.14341015 0.16493142 -0.098263584 -0.2073031 0.74976474 0.2124687
0.1297653 0.31894127 0.24197295 -0.15341517 -0.1531282 0.39209735 -0.032464743 0.004705391
-0.33871156 0.067275494 0.33299878 0.4254876 0.21850973 -0.17825499 -0.22921243 -0.06304464
0.18527961 0.09767269 1.3127735 0.049291585 0.21282575 -0.22501364 0.14805382 0.1528101
0.11551747 -0.040488746 0.11470144 0.25571322 0.67283016 0.062286332 -0.12905158 0.222952
0.2187925 0.9017553 -0.024383368 0.17690176 -0.25815716 0.21993148 -0.09183543 0.14605796
0.15348308 -0.048373643 0.9374088 0.5369108 -0.047960587 -0.14223416 0.1105074 -0.1721586
-0.028761253 -0.19680186 -0.07984291 -1.2310418 0.032250732 0.05969438 -0.08021101 0.16866103
-0.034190178 0.121642455 0.24712677 -0.15892646 0.47874194 -0.19820093 0.02729349 -0.093402535
-0.12990612 -0.36682943 0.16960646 -0.18495724 -0.13211496 -0.2038196 0.17572752 -0.016092088
1.0505282 -0.104270585 -0.052947927 -0.21089037 -0.0017626568 0.20688073 -0.13900074 0.15673634
0.20671847 -0.039320014 0.44887218 1.0692327 0.24727723 -0.0016405059 0.19867769 0.2252071
00000000: be67 203e 7e38 cb3d e926 493e 84b9 be3d
00000010: f8af 083e e03b 28be 0813 07be 7870 693d
00000020: 300a 9e3d dd81 73be d009 81bd 8839 353e
00000030: 547b 02be 67f3 62be 70e5 b4bc 3b46 623d
00000040: 5084 203e 8bf9 253d 4a11 2abd 8ebf f23c
00000050: eb29 74be 7753 3cbd f59e f43d 7a60 183e
00000060: 46c7 663d 160e 4a3e 0c6c 44be 087a bc3d
00000070: 50fa 3dbd 7c5b 46be 0455 6abe 745c 0e3e
00000080: e49d 1f3e 1216 3ebe 47cb b63d fabd fbbd
00000090: ce35 323d 449a e03e 6d5c b0be fcd5 b6bd
000000a0: 4631 083e b587 123d f01a bb3d 1071 3ebd
000000b0: 9710 8abd 9707 533d 10c9 a03c 1102 063e
000000c0: deca 283f bc75 873e d589 bcbe dc3c 79be
000000d0: 7521 fbbd e642 543e ff53 863d be72 6cbe
000000e0: ec65 8d3d 6cde 1e3e e828 47be a92d be3f
000000f0: 20f2 51bd 94cc 7a3e 23c7 893a fe8f d73d
00000100: 8936 283e b8c6 7ebe 34be ed3d 77bc 5dbe
00000110: d677 053e 8052 e0bc 8807 1dbe 00b4 92ba
00000120: 6472 fbbd 907e 6ebe d057 21be 687f 0d3e
00000130: 000c 7d3d 1d65 243e 686e 0abd 2a91 ca3d
00000140: aa2b 433e e6f9 6fbe f54c 38bc 9118 9cbe
00000150: f36a 8bbd f8e5 45be 454e 373e e047 da3d
00000160: b7ad 4abe 2013 4abd a2bf 303e 6dd6 303d
00000170: 9e79 5a3e d600 4ebe b854 193d 0cdb cfbd
00000180: c40b c83d ce59 0ebe 23a0 9f3c 320b 043d
00000190: cf08 0ebf 6c9d 09bf d9c4 fc3e 144b 2c3b
000001a0: f0c7 28be 7ddd fabe ab0e 48be 706c 56be
000001b0: fb26 2e3e 7013 043e e84b 75bd 14e4 3b3e
000001c0: 84e7 dfbe a878 c93d c42d 05bf ecd6 013e
000001d0: c07e 093e af51 bf3d 2fc0 ef3d f056 15bd
000001e0: 3f30 603e d3ab a3bd ce64 483f 7033 0440
000001f0: 9031 233e aa07 b43d 3506 d8bd ec74 0bbe
00000200: 3ac7 7fbe dcef 6a3e 4cea 0ebe 10b4 273e
00000210: 48ad 6ebe a0f5 073e c0aa bc3c ca9c 0c3e
00000220: 30f1 cf3d 7882 2ebe 80cc da3d 80e4 eb3c
00000230: 7024 933c a0e1 ecbc 6284 4e3e a4d3 f73d
00000240: 0052 a73b 00b2 643b dc69 3fbe 68aa 6cbe
00000250: ac19 933d 1ae0 2cbe 4075 17be 2a17 403e
00000260: b203 3b3e a8f3 17bd 7273 37be 8819 19bd
00000270: 0035 5fbe 6c10 0cbe b065 7a3e ca32 473e
00000280: 6940 ab3e 2bb1 513e 1cda 123e c8e3 283e
00000290: 6b3e c9bd 4447 54be 95f0 3f3f 6591 593e
000002a0: 32e1 043e 454c a33e c2c7 773e de18 1dbe
000002b0: a4cd 1cbe fcc0 c83e c0f9 04bd ae2f 9a3b
000002c0: 9a6b adbe bcc7 893d d17e aa3e 83d9 d93e
000002d0: 04c1 5f3e 7a88 36be aab6 6abe 8c1d 81bd
000002e0: f0b9 3d3e 9f08 c83d f608 a83f f9e5 493d
000002f0: feee 593e fa69 66be 6c9b 173e 407a 1c3e
00000300: 6c94 ec3d 87d7 25bd 97e8 ea3d d8ec 823e
00000310: 993e 2c3f f41f 7f3d 1926 04be 874d 643e
00000320: 240b 603e 6fd9 663f a1bf c7bc bc25 353e
00000330: 2d2d 84be b835 613e 3714 bcbd 3890 153e
00000340: ab2a 1d3e 7123 46bd 06fa 6f3f fc72 093f
00000350: 5272 44bd d5a5 11be b451 e23d 584a 30be
00000360: b89c ebbc 6d86 49be ae84 a3bd c792 9dbf
00000370: 5819 043d 1882 743d ac45 a4bd 7ab5 2c3e
00000380: 000b 0cbd ae1f f93d cd0e 7d3e 9ebd 22be
00000390: aa1d f53e 2ff5 4abe 9996 df3c d449 bfbd
000003a0: 1c06 05be 11d1 bbbe 51ad 2d3e 6e65 3dbe
000003b0: 2549 07be 16b6 50be eaf1 333e 8ed3 83bc
000003c0: b577 863f d18b d5bd eddf 58bd a5f3 57be
000003d0: f308 e7ba 8bd8 533e 3656 0ebe 7e7f 203e
000003e0: 02ae 533e 060e 21bd 93d2 e53e 9edc 883f
000003f0: 3e36 7d3e 3e06 d7ba 2a72 4b3e b19c 663e

fc3.bias f4 [16]
-0.072963305 0.02729079 -0.07697689 -0.15176775 0.019299759 0.014788493 0.47470167 -0.15987042
0.024778796 -0.0068448475 -0.30296564 0.21637657 -0.27487338 0.09937636 0.119350344 -0.2517074
00000000: c96d 95bd ef90 df3c 0fa6 9dbd 0169 1bbe
00000010: 871a 9e3c 6f4b 723c 190c f33e 12b5 23be
00000020: e7fc ca3c be4a e0bb 501e 9bbe d291 5d3e
00000030: 34bc 8cbe d585 cb3d f46d f43d cbdf 80be

fc4.weight f4 [8, 16]
-0.23234344 -1.0744536 -0.022125501 -0.24836168 -0.05558832 0.6184421 0.85739374 0.21331163
0.9326211 0.53478444 0.0013212573 0.3990113 0.20189826 -0.06033065 -0.71147627 0.3539223
0.26582664 -0.20990305 -0.2532493 -0.33630896 -0.011818945 -0.50362486 0.20930374 0.18612687
-1.8112959 -0.26099038 0.5245045 0.89115053 -2.423221 -0.14465253 -0.14162529 0.36980343
0.23087293 0.03457657 -0.2415211 0.6807306 -0.06009226 -0.37003246 -1.0039356 0.21953543
0.22302727 -0.020840572 0.08839667 0.08837839 0.21228002 -0.24184157 -0.40874556 -0.043226656
-0.33174235 0.19121982 -0.12324316 -0.17030689 0.103851564 0.112576805 -0.09825315 0.005004854
-0.17180134 -0.14616755 -0.21633172 -0.20003703 -0.22534782 -0.21051702 -0.17416042 0.043477718
0.27862144 -1.1281128 -0.026364466 0.07528861 -0.3161203 0.25922346 0.8453458 0.17153075
0.53531706 0.8404088 0.25871682 0.6894483 0.015715912 0.09364682 0.43146887 -0.039559003
-0.040221244 -0.77725226 -0.32114333 -0.12821293 -0.005663272 0.44939217 0.22886488 -0.16128488
-0.81197065 0.06911682 0.616214 0.5746376 -1.7595464 -0.31896827 0.9631233 -0.118744366
-0.12449256 0.61059314 0.072565764 -0.061566833 -0.012260012 -0.019672263 0.04478301 0.23152858
0.16113879 -0.7139795 -0.16089086 -0.19364531 0.22703034 0.37279606 -0.39975443 0.1362313
0.021891017 -0.5190842 -0.116166376 0.30010936 -0.081689484 0.7673891 0.94870615 0.013089045
0.7599879 0.87385595 0.5327818 0.26684982 0.6288627 -0.11893952 -0.26545468 0.3617234
00000000: 70eb 6dbe b287 89bf 8a40 b5bc 8652 7ebe
00000010: 94b0 63bd 3952 1e3f 287e 5b3f 5d6e 5a3e
00000020: 42c0 6e3f a2e7 083f 0a2e ad3a 364b cc3e
00000030: 6bbe 4e3e 461d 77bd 4f23 36bf 4e35 b53e
00000040: 6e1a 883e d3f0 56be e4a9 81be b030 acbe
00000050: 40a4 41bc 8fed 00bf b853 563e 0b98 3e3e
00000060: 8bd8 e7bf 88a0 85be ed45 063f 7122 643f
00000070: 0e16 1bc0 cb1f 14be 3806 11be e056 bd3e
00000080: f469 6c3e 29a0 0d3d 4f51 77be 5c44 2e3f
00000090: 4d23 76bd e574 bdbe f680 80bf e5cd 603e
000000a0: 4361 643e d9b9 aabc 5009 b53d bbff b43d
000000b0: ef5f 593e 51a5 77be 1947 d1be 6f0e 31bd
000000c0: 22da a9be 21cf 433e e966 fcbd ee64 2ebe
000000d0: 21b0 d43d ab8e e63d f338 c9bd c2ff a33b
000000e0: b1ec 2fbe f2ac 15be 1086 5dbe 82d6 4cbe
000000f0: 94c1 66be c691 57be 1c57 32be b115 323d
00000100: 78a7 8e3e 0066 90bf 4bfa d7bc ea30 9a3d
00000110: 85da a1be f0b8 843e 9568 583f c2a5 2f3e
00000120: 8a0a 093f 0825 573f 8876 843e af7f 303f
00000130: a8be 803c e7c9 bf3d 7de9 dc3e 9f08 22bd
00000140: 08bf 24bd 01fa 46bf e66c a4be 404a 03be
00000150: f892 b9bb bb16 e63e 8e5b 6a3e dd27 25be
00000160: 4fdd 4fbf 1f8d 8d3d 33c0 1d3f 731b 133f
00000170: d138 e1bf cf4f a3be 408f 763f 3f30 f3bd
00000180: f5f5 febd d54f 1c3f 5c9d 943d 812d 7cbd
00000190: 38de 48bc ba27 a1bc 646e 373d d415 6d3e
000001a0: 9101 253e 5cc7 36bf 93c0 24be f54a 46be
000001b0: a47a 683e 20df be3e 9dac ccbe 3880 0b3e
000001c0: ca54 b33c b4e2 04bf a3e8 edbd efa7 993e
000001d0: d14c a7bd 9d73 443f 68de 723f 6f73 563c
000001e0: 918e 423f 06b5 5f3f 6364 083f 8aa0 883e
000001f0: 25fd 203f 9096 f3bd ade9 87be cf33 b93e

fc4.bias f4 [8]
0.56043357 0.21063158 -0.21706644 -0.21900383 0.31033435 0.18517771 0.49046442 0.71627796
00000000: 9378 0f3f ceaf 573e aa46 5ebe 8a42 60be
00000010: 25e4 9e3e 3a9f 3d3e 271e fb3e fe5d 373f

fc5.weight f4 [3, 8]
0.43702456 -3.4829154 0.090343945 0.0007517356 0.564973 -2.9375207 -0.1076581 0.470791
0.22256418 -0.6987234 -0.075987734 0.0007455679 -0.30870748 -2.9826272 0.2361064 0.15630668
0.5751189 0.17151329 -2.14045 -0.0024603175 0.5816614 -0.41403985 -0.47088593 0.5517191
00000000: afc1 df3e 16e8 5ec0 3f06 b93d 1f10 453a
00000010: 12a2 103f 5700 3cc0 da7b dcbd 850b f13e
00000020: dde7 633e 89df 32bf 759f 9bbd 3772 433a
00000030: e80e 9ebe 5de3 3ec0 e0c5 713e dc0e 203e
00000040: fe3a 133f 2ea1 2f3e 22fd 08c0 473d 21bb
00000050: c3e7 143f 08fd d3be f617 f1be 773d 0d3f

fc5.bias f4 [3]
-0.7537508 -0.027187446 -0.75889283
00000000: d0f5 40bf 35b8 debc cd46 42bf
