Pytorch/fixed_goal/reward_step_error_comparison/model/checkpoint_critic.pth (torch, 15047 bytes, 7 tensors)

fcs1.weight f4 [64, 4]
00000000: c7da 5b3e 6700 a140 45c4 633f 9eb8 5dbf
00000010: 98c2 5b3c bbcf 833c e754 eabb 2de9 c33b
00000020: e8a2 833c 8bf8 6c3d dfa4 123d fb11 9dbc
00000030: 6916 cebc ea18 9d3c 45de 16bc bed3 1f3c
00000040: 85e9 d4bb 2bcb b5bc 27ef 5a3b 2fc7 56bb
00000050: b86d 833d 888f 153e 48f1 fe3d 7e93 00be
00000060: 02e6 9ebb ae7c 273d 3224 723d 7fd4 2ebd
00000070: b70f 8e3d 0988 fcbd c507 f53c db6c cbbc
00000080: 8202 873e 5f35 16be bc67 7f3e e90b 7cbe
00000090: 7aea e9bd 897a 543d 254f 2e3d 4a28 15bd
000000a0: 348b 41bd d219 103e 2734 473c fe25 27bc
000000b0: 8073 abc0 147e 01c0 ec6c 613f 7ffa 56bf
000000c0: db27 4bbc 95a1 6c3c 1ee2 e4bc 9fd3 cd3c
000000d0: d201 7fbc 6111 38bc f08f 53bc 9985 203c
000000e0: f73f f0bc 51b8 c93d 6e79 03bc 6b5a 9e3c
000000f0: 3d39 18bc e572 03ba 7591 9dbc 0d53 763c
00000100: 0148 f83b d992 4cbc 279b 76bc 0f69 703c
00000110: 02d8 243e eaf8 853e e55f 303e b80d 25be
00000120: d718 35c0 e642 90c0 89bf cc3e 50c3 b4be
00000130: 6137 63bd d570 8b3c 2fe1 f9bc 1f3e 1a3d
00000140: 04cd a53d b7ab d4bd fa56 8d3d de14 87bd
00000150: b278 8e3c 5782 76bd 8dcb b8bc 83e7 d93c
00000160: 540f 1c3d d79e 923c b07c 4d3d 1010 4fbd
00000170: dcc7 00bb c6b0 113b a308 11bc ef95 ef3b
00000180: b142 013e f482 03be 28df df3d fcc8 c3bd
00000190: ac36 5a3b c142 653e 1701 113c 3a2c aab9
000001a0: 42f9 d5bf c677 8ac0 174c c73e 2dc0 c1be
000001b0: 1557 b03d 7696 54be 7f6a 003d 91ad 08bd
000001c0: 7b4c 003e 9a5a e3bd 3c42 213e c5f4 0ebe
000001d0: c7c8 2dbd 3c8c 943c 1712 11bd 89ba 1c3d
000001e0: 909f 9bbc fed4 cb3c 458c e4bc e574 e33c
000001f0: 6ef8 3c3d 3b48 98bb f92d b23d b229 62bd
00000200: ecfa 76bc c773 583c 90fb 43bc 9208 243c
00000210: d1f6 6240 a423 b0c0 ac99 b9be de68 a23e
00000220: 5c97 a33d a4ef 113d d957 133d 5323 c9bc
00000230: c9f6 8e3c 3c4a 693d 512e b4b8 1ac6 6f3b
00000240: 41d1 0bbd 7441 8f3d 2449 69bc 13fc ec3c
00000250: 57b0 18bb 3a3a c13c c472 cf3c 5bbd a4bc
00000260: 894c b4bb 6f4b bcba 6325 46bc 904a 0d3c
00000270: 572d 4bbd 256f 2e3c 8041 03bd 467c 053d
00000280: e14f 423d c536 26be 3044 ea3d d7bf debd
00000290: f815 813e 0adc 72bd 743b 783e fff9 78be
000002a0: 56cd 2bbc fdf7 d5c0 e5ff 1ebf 7cfc 1e3f
000002b0: 64a2 ba3d 8d8c 44be 7a1f 1d3e b808 14be
000002c0: ebcf 73bf c00d c1c0 ecff 56bf 1fbc 6d3f
000002d0: 6b7f 6b3a bf7e 5d3d 6ce4 fdbb bcb0 cc3b
000002e0: c727 2cc0 0785 92c0 1c77 b13e 3bc3 9abe
000002f0: ef09 be3b 6bf7 cebc 7d39 403c e900 153c
00000300: 6543 393d e736 a43e 84f0 f43d 742c fcbd
00000310: 2460 98bc d609 1ebb 320c b6bc cc9c d73c
00000320: 67d2 833e 3097 04be a01f 813e ae24 76be
00000330: 2a58 8dbd 7836 393d 82ba c33b 2107 203c
00000340: 3b26 c1bc f02f a93b 6f08 a8bc 435a 9b3c
00000350: 268d a23e f544 6ebe 3ea9 953e 2971 94be
00000360: 3b89 b1c0 6803 f0bf ed40 c43e 8188 d7be
00000370: 9be5 7abc a9f5 793d 9607 2d3d 8af6 dcbc
00000380: c796 093e e763 9a3d da9e ee3d 9549 e0bd
00000390: d25d a43d 2ad3 1a3e 6a6c 643d 083c 50bd
000003a0: c1fa 733c 28b3 e1bb 0e4e 1dbc 6023 a73b
000003b0: 9aba ba3d 1b13 d8bd 06c3 163e 4fa7 febd
000003c0: cd0e b63b ef2d 0abb fcb1 81bc 47c4 6d3c
000003d0: 60dc e33b 87d5 4abc 3bc9 68bb 0e29 e53a
000003e0: 5a51 333e 4c72 8a3d 34e9 303e 8829 18be
000003f0: 7a85 0f3d abd3 0b3e aae3 8638 5a8d b13b
0.21470176 5.031299 0.8897136 -0.8660983 0.013413094 0.016090265 -0.0071512344 0.0059787245
0.01606889 0.057854217 0.035801765 -0.019173613 -0.02515717 0.019176919 -0.009208267 0.009755073
-0.0064975643 -0.022191605 0.0033406706 -0.0032772531 0.064174116 0.14605534 0.124483645 -0.12556264
-0.0048491964 0.04089039 0.05911655 -0.04268312 0.06936591 -0.12330634 0.029910931 -0.02483218
0.263691 -0.14668797 0.24941915 -0.24613918 -0.11421676 0.05187467 0.042555947 -0.036415376
-0.047251895 0.1407235 0.01215843 -0.010201929 -5.357849 -2.0233202 0.88056827 -0.83975977
-0.012399639 0.014442821 -0.027939852 0.025125323 -0.015564399 -0.011234612 -0.012912735 0.009797477
-0.029327376 0.09849609 -0.008024557 0.019330224 -0.00929099 -0.0005014374 -0.019234398 0.015034449
0.007576943 -0.012486183 -0.01505164 0.014673485 0.16098025 0.2616647 0.17224081 -0.16118515
-2.829641 -4.5081663 0.3998988 -0.35305262 -0.055472735 0.017021576 -0.030502884 0.0376569
0.08095744 -0.103843145 0.06901355 -0.06595777 0.017391536 -0.060182896 -0.022557998 0.026599651
0.038100556 0.017898006 0.05016774 -0.050552428 -0.0019650375 0.002223061 -0.008852157 0.0073115746
0.12623097 -0.12842923 0.109312356 -0.09559819 0.0033296747 0.22388746 0.0088503575 -0.00032457878
-1.6716692 -4.327121 0.3892524 -0.3784193 0.086103596 -0.20760521 0.031351563 -0.03336865
0.12529175 -0.11101265 0.15747923 -0.1396056 -0.042427804 0.018133275 -0.035417642 0.03826383
-0.018996984 0.024881836 -0.027898917 0.0277657 0.04613536 -0.0046472824 0.08700175 -0.055215545
-0.015074473 0.013211197 -0.011961833 0.010011809 3.5463145 -5.5043507 -0.36250055 0.31720632
0.07987854 0.03562893 0.03597245 -0.024552977 0.01745166 0.05695556 -8.591696e-05 0.0036586584
-0.034135107 0.06994906 -0.0142386295 0.028928792 -0.0023298466 0.023587335 0.02532328 -0.020109823
-0.0055022878 -0.0014365743 -0.012093875 0.008623734 -0.049603786 0.010646616 -0.032044888 0.03258922
0.04743946 -0.1623183 0.11438787 -0.10876434 0.25212073 -0.059291877 0.2424143 -0.24314116
-0.010485968 -6.686522 -0.62109214 0.6210401 0.09113005 -0.19194241 0.15344039 -0.14456451
-0.9523913 -6.0329285 -0.83984256 0.92865175 0.00089835253 0.054075953 -0.0077481773 0.0062466543
-2.6899278 -4.5787387 0.34661186 -0.30227074 0.005799524 -0.025264462 0.011732456 0.009094455
0.045230288 0.32073137 0.11959937 -0.12313166 -0.01860053 -0.002411475 -0.022222612 0.026319884
0.25746462 -0.12948298 0.2521944 -0.2403743 -0.069015816 0.04521796 0.005973161 0.009767325
-0.0235778 0.0051631853 -0.020511834 0.018963939 0.31748313 -0.23268493 0.29230684 -0.28992584
-5.548002 -1.875104 0.38330784 -0.42096332 -0.015313531 0.061025295 0.042243563 -0.026973028
0.13436423 0.07538586 0.11651392 -0.10951535 0.08025707 0.15119615 0.055767454 -0.0508385
0.014891327 -0.006887812 -0.009601129 0.0051006526 0.09117623 -0.10550519 0.14722833 -0.12434255
0.0055559636 -0.0021084507 -0.01583194 0.014512128 0.006953761 -0.01238001 -0.0035520333 0.0017483549
0.17511502 0.06760082 0.1727646 -0.14859593 0.035039403 0.13654964 6.432024e-05 0.0054184617

fcs1.bias f4 [64]
00000000: f371 73bf b779 f1bc c522 13be 6aca b1bc
00000010: a68f e5bc c771 17be 69a8 44be 0570 8abd
00000020: 8805 94be ff7f 9cbd efb3 5bbd f65d 30bf
00000030: 684e 8dbc d9a0 24bd 4641 85bd b8dd 4bbc
00000040: 434f 8cbc 3927 8dbe 79e6 b1be 6b24 87bd
00000050: dfb5 04be 0603 22bd c4df dfbd f9b6 99bb
00000060: 9300 29be b547 a6bd a843 d9be 31cc 91bd
00000070: 2ba0 6abe df1d 48bd e9ff 09bd 75a2 69be
00000080: 0daa 52bc 12b4 263f 9071 fbbd 4ef1 05bd
00000090: f515 bcbd d964 ccbd e172 17bc 1659 2ebd
000000a0: 6ff5 1ebe 1a49 8bbe 3979 573f 9a9d 4abe
000000b0: 2d33 783f 1aa1 23bd 6368 abbe 24f0 06be
000000c0: 75b3 2cbe d5be 35bd 5c20 a7be 7f33 22be
000000d0: 73ac 04bd eb6c aabe e269 8fbe 2ac4 32be
000000e0: 93b2 2cbe 9b23 cebd c076 10bd 45f3 76be
000000f0: 6147 4cbd 5076 b9bc 05fb 8ebe 20d8 8ebd
-0.9509575 -0.029476983 -0.14368732 -0.021702964 -0.028022598 -0.14789496 -0.19204868 -0.06759647
-0.2891047 -0.07641601 -0.053638395 -0.68893373 -0.017249301 -0.04019246 -0.065065905 -0.012442999
-0.017127639 -0.27568987 -0.3474615 -0.06598743 -0.12960003 -0.039553665 -0.10931352 -0.0046910015
-0.16504125 -0.08119146 -0.4243443 -0.071190245 -0.22912662 -0.048856612 -0.03369132 -0.22815879
-0.012857926 0.65118515 -0.1227752 -0.03270083 -0.091838755 -0.09980173 -0.009243698 -0.042565428
-0.15523313 -0.2720421 0.84169346 -0.19786683 0.9695309 -0.03994856 -0.33478078 -0.13177544
-0.16865332 -0.044371445 -0.32641876 -0.15839957 -0.032391023 -0.33286223 -0.2801047 -0.17457643
-0.16864996 -0.10065385 -0.0352695 -0.24116237 -0.04987276 -0.022639424 -0.27925888 -0.06974816

fc2.weight f4 [32, 67]
00000000: 240e 123e 6676 02bb db7e 8eba c9a3 cbb9
00000010: c280 dc3a a8a7 87bd 9236 a93b 97ce 39bb
00000020: 8e19 fd3d d248 45bb ff86 323a a42a 493e
00000030: a0fe 26bb 9df7 5bbb 6cac a1bb 276c 533a
00000040: b96b 6fbb 88ff a4ba 20cb a7bd 8bc7 bb3b
00000050: 2ae6 d6bb ae39 043b b37d d93c 11c7 6e38
00000060: bac7 c03a 5230 b4bb 6e13 a4bc 3371 803d
00000070: d4dc 013c a9f5 ad3b 0b49 aa39 6121 153c
00000080: b6de e03a a293 0d3c db7b 90bb 3642 72bc
00000090: 5bed 0abc 10e7 0f3b ee01 8839 4875 573b
000000a0: ee6c 3abd 5fe5 03bd 4aa6 17c0 0876 7dbd
000000b0: a672 77c0 2ba8 6fbb 1979 ecbd 5bff b33b
000000c0: 008e 013d ec60 dbba 78cb abbc b1e4 963b
000000d0: 58bc 773b fd55 2bbd b087 f5bd 1d53 d33b
000000e0: 7f48 e2bc 4d6a 0abc 0f2d 073b 283e 453b
000000f0: 3189 81b9 e4bd 63ba dba4 16bb 8133 e33b
00000100: 98ca f9bd 65f3 1bbf bf41 f2be 36d4 3dbe
00000110: 30d8 9d3b 85c7 5b3c c291 6e3a 3a54 c83a
00000120: 2ec0 92bd bb3d c33c 31b8 913c e3ea cb3d
00000130: 7bb6 913b ea1d b63d 1994 483e 8caa 45ba
00000140: 20ec a7b9 6368 db3a 32a5 423a a2ae 8e3b
00000150: 2cd6 113d 9076 fbbd 70f0 203c 2087 043d
00000160: 36a1 633c 345b 8f3c 4c0a 1938 346a 103d
00000170: 3d8b 75b9 f79c cfbc 0dc5 0f3e a24e ef3c
00000180: 21d5 ff3b 8b80 b43a d87e f73c 5ca0 813a
00000190: ec2f d73c 97e3 753c 615c eabb ccb1 ae3b
000001a0: b215 873c 9e34 133a aded 8e3b 4601 003d
000001b0: a15c 163b 50ee 11c0 9fa4 d73c b57b 3bc0
000001c0: 3246 de3b 00d7 13be a662 bd3c 630c 2ebd
000001d0: bfa5 b03b c114 203d 5e6b af3c 4df1 5a3b
000001e0: 8236 a23b 1def 83bd c103 b63c 425a d03c
000001f0: e68e c83b 2193 293c 7773 d83c 1803 343c
00000200: 1db0 d239 9a37 cd3c 2bb6 5c3c 5c33 b0be
00000210: aabe 83bf 2317 b73e f2ca da3d 16fa 21bb
00000220: dfa2 deba 9eb5 d7b9 50fa 7c3a 4618 75bd
00000230: 7194 9b3b 3d4a ffbb faae da3d faf1 3bbb
00000240: 4865 0939 1f31 1d3e 125d 0cbb ce04 50bb
00000250: b8be 91bb c503 223a 8243 6bbb 81c4 7dba
00000260: 31a1 07be 58cc 8e3b 4740 e3bb 2d26 d43a
00000270: 25ca ad3c cf8f 3c37 7c8b 5a3b 11de 9fbb
00000280: a31d 08bd 3fa2 4c3d 5f3e a53b 5cbc 853b
00000290: 94c7 0e39 3139 e83b 0fe0 b23a 8663 e43d
000002a0: aa22 8dbb eb0f 80bc b2b8 f8bb 7354 793a
000002b0: 8a72 2139 ac3f 273b f739 01bd 23ec 00bd
000002c0: 4e03 07c0 8f52 3fbd 5516 67bf fbac 90bb
000002d0: 21e1 21be fd64 683b 2bbb fc3c f55e eeba
000002e0: 47ed 5abc d3f3 633b 1817 423b 705a 20bd
000002f0: 4e09 ea3e 2d5d b73b a033 afbc 5f4e 09bc
00000300: 72a8 433a 0944 a438 19e4 7bba d3a7 9aba
00000310: b6b6 85bb 0960 9e3b a766 98bd 43c0 23bf
00000320: 3cd2 80bf 8581 00bd aba3 82bb 14a1 0fbc
00000330: 638c 97b9 daa9 40ba 0775 01be 9fc6 a0bb
00000340: d6ca 49bc c276 e1bb da67 2bbb d50b 64ba
00000350: ffbd a63f 690c 04ba 9a26 d3ba 9f57 3dbb
00000360: 6e8e 4d39 da4b 3dbb 87e7 39bc df23 9f3e
00000370: 3bec e0ba 3a3a 3abc c654 abbb 31b0 fdba
00000380: d3b8 75b6 081b f1bb 968f 6abb 06e2 0e3e
00000390: 6134 f4bb 2c08 b2ba 1810 03b7 3184 ecb8
000003a0: c4a3 2abc 581e 8939 fadb 09be 5582 f0bb
000003b0: 6c48 89bb 1b29 a3bb 7d16 20bb 9a11 a9b8
000003c0: 943a 1ab8 17dd babb d8fa 4cbc 0c19 27bf
000003d0: d729 e8bb 8569 36bf 26d5 24bb 533c 163f
000003e0: a2a2 9fbb 2ed3 3e3d cdab c3ba 4ab2 56bc
000003f0: 906d 2cbb 48a2 cf39 c834 95bc 1de6 1440
0.14263207 -0.0019906997 -0.0010871546 -0.00038841207 0.0016823041 -0.06623775 0.005163976 -0.0028351897
0.1235839 -0.0030103219 0.0006810277 0.19645172 -0.0025481358 -0.0033564337 -0.0049338844 0.0008065127
-0.0036532714 -0.0012588361 -0.0819304 0.0057305745 -0.0065581994 0.0020175981 0.026549196 5.6929017e-05
0.0014707961 -0.0054989243 -0.020028796 0.06271591 0.007926185 0.005308826 0.00032479348 0.009102196
0.0017156217 0.008641155 -0.004409296 -0.014786294 -0.0084794415 0.0021957792 0.0002594138 0.0032876302
-0.04551404 -0.032201167 -2.3695245 -0.06188014 -3.8663726 -0.0036568742 -0.11546535 0.005493087
0.031629562 -0.0016737259 -0.020971045 0.004604899 0.003780147 -0.04183005 -0.11988771 0.006449117
-0.02762246 -0.008448196 0.0020626222 0.0030096862 -0.00024707013 -0.00086876587 -0.0022986445 0.00693363
-0.12196845 -0.60918266 -0.47315785 -0.18537983 0.0048170313 0.013414268 0.0009100699 0.001528389
-0.071655616 0.023833146 0.017788025 0.099569105 0.004446802 0.088924244 0.19587745 -0.0007540367
-0.0003202865 0.0016739484 0.0007425129 0.004354314 0.03560464 -0.122784734 0.00982295 0.032355428
0.013893416 0.017499544 3.6487632e-05 0.035257533 -0.00023416891 -0.025343401 0.14040013 0.0292123
0.0078073894 0.0013771219 0.030211851 0.000988971 0.026267968 0.015007875 -0.0071521257 0.0053312536
0.016489837 0.00056154456 0.0043618293 0.031251214 0.0022943395 -2.2801704 0.026323615 -2.9294255
0.0067832703 -0.14437485 0.023118328 -0.04249228 0.005390852 0.039082292 0.021413501 0.0033407987
0.0049503455 -0.064420916 0.022218587 0.025433663 0.0061205504 0.01035002 0.026422245 0.010987066
0.00040185536 0.025050927 0.013471167 -0.34414184 -1.0292561 0.3575984 0.1068324 -0.0024715713
-0.0016985795 -0.0004114331 0.00096503366 -0.059837602 0.00474792 -0.0077908323 0.106779054 -0.0028678165
0.00013103068 0.1535077 -0.002141778 -0.0031741145 -0.0044477843 0.0006180371 -0.0035898392 -0.00096804654
-0.13245083 0.0043578558 -0.0069351527 0.0016185694 0.021214554 1.1239156e-05 0.00333473 -0.0048787673
-0.03323139 0.049959417 0.0050428356 0.004081292 0.00013616524 0.007086896 0.0013647097 0.11151795
-0.004307111 -0.01563259 -0.007590377 0.000951118 0.00015396826 0.002552013 -0.03154942 -0.031475198
-2.1095767 -0.046709593 -0.9026845 -0.004415152 -0.15808536 0.0035460584 0.030850967 -0.0018186258
-0.013362235 0.0034782782 0.0029615816 -0.039148748 0.45710224 0.005595824 -0.021386921 -0.0083805015
0.000746376 7.832802e-05 -0.00096088793 -0.0011799283 -0.0040806187 0.0048332256 -0.074414544 -0.63965243
-1.0064158 -0.03137352 -0.003986796 -0.008766431 -0.0002890556 -0.00073495286 -0.12642299 -0.00490649
-0.012316426 -0.006880612 -0.002615443 -0.0008699273 1.3026732 -0.00050372496 -0.0016109527 -0.0028891338
0.00019603383 -0.0028884322 -0.011346704 0.31082055 -0.0017160246 -0.011366421 -0.0052286116 -0.0019354877
-3.6615427e-06 -0.0073579587 -0.003579115 0.13953409 -0.007452533 -0.0013582758 -7.811956e-06 -0.000112779795
-0.010415021 0.00026153284 -0.1346282 -0.0073397555 -0.0041895416 -0.0049792654 -0.0024427467 -8.0618265e-05
-3.6771016e-05 -0.0057026255 -0.012510978 -0.65272593 -0.007085066 -0.7125476 -0.002515146 0.586858
-0.0048716823 0.046588115 -0.001492852 -0.013104031 -0.0026310422 0.00039603026 -0.018213645 2.326545

fc2.bias f4 [32]
00000000: 8d81 39bf ef39 81bf 9616 85bf 04dc d8bf
00000010: 71aa 09be f79e f2be af5a 6fbe 640c a8bf
00000020: 3edd 3abf aaf5 95be b999 ca3b 7c7c 73be
00000030: f581 adbe 2f26 b3be bace 1cc0 6c7a b9be
00000040: 015c 9bbe 1077 adbe 40bd 19be d2ab 5ebe
00000050: 47da fd3e 7895 d3be c271 8abf f3c6 8b3e
00000060: cbae d6be ca6b fdbe 2e1d 7abd 0e80 94be
00000070: 1d26 52bf 78ca 3abe 7387 efbe 2106 2ebd
-0.72463304 -1.0095805 -1.0397518 -1.6942143 -0.13443924 -0.47386906 -0.23374437 -1.3128781
-0.7299384 -0.2928899 0.006182876 -0.23777956 -0.33888212 -0.3499007 -2.4501176 -0.36226213
-0.3034363 -0.338799 -0.150136 -0.21745232 0.49580595 -0.41324973 -1.0815966 0.27300224
-0.4193023 -0.494963 -0.061062984 -0.29003948 -0.82089406 -0.18241298 -0.46783027 -0.042486314

fc3.weight f4 [16, 32]
00000000: 7f3d 87ba 3f5a a439 2e8b 21ba f90b cdb8
00000010: fbba 5c3a 5601 22bb 1ecb 8b3b 5300 1d3a
00000020: 4df0 a6be 62bc 343a 3efc 8abd b4fc a63a
00000030: 3816 e33b 3668 1fba 4ac6 253c 75d0 323c
00000040: e975 2139 316e 413c 6bf3 fb3a f55c 9d3a
00000050: 283f abbe 42fb d839 9c9a f93b c519 b13b
00000060: 8eb6 853a 21c2 9eb9 b901 e037 398d 5e3c
00000070: 5d19 12bb 7fd4 7239 53c7 9639 e2c8 69b9
00000080: fc1f 003f b3ad 2f3f b5ec 523f b114 3a3f
00000090: 271c f9bd 55e1 ac3e 102e e6bc 0454 eabe
000000a0: 51a2 8c3e c4ef 98bd f39a e43f d48d 29be
000000b0: 530e 96bd 2288 923d 1671 883e 0b1d 8a3d
000000c0: 00d0 87bd b3eb 9cbd 215c 98bd edec 4cbc
000000d0: 129a 3040 f2a4 ffbd b50d f53d 7381 f7bf
000000e0: 7bb1 ca3e 3f47 263e 391f c8bd c1b2 a73f
000000f0: 7674 2340 2ddb b4bd 29a8 29be 17f2 d4ba
00000100: 7ec6 a9ba dd4c 0ebb 5ff9 59ba c9c9 c0b9
00000110: 1cd4 f4b9 cfda d2b9 c22d 14bb bf9f a4ba
00000120: c22a c7bc b8b9 18ba e082 0ebc 5209 77ba
00000130: 1ca5 deba 3e20 5cba 61b2 e63b f056 82bb
00000140: 3b00 0eba 600d 8ebc d12f 19ba 52b5 26ba
00000150: daef cc3a c35b 6339 c543 baba 1032 b7ba
00000160: 0e08 3aba 6507 94b7 3730 9cb8 adac 7d3c
00000170: 2827 98ba d11d ccb9 19c2 83ba 9313 6439
00000180: 40e7 b2b7 c43b 75b7 411a 6fb7 ed38 16b7
00000190: dca8 69b7 bf82 01b7 e4b7 87b7 34a6 34b7
000001a0: d7b8 5c39 7bc2 3ab6 8fca 62b8 98d2 64b6
000001b0: cf0c bab7 814e 21b7 8a94 adb8 c4bc 04b8
000001c0: 61aa 54b7 131e 6c38 db6a 5934 d916 9eb6
000001d0: 0acd 1639 0c26 f6b6 06fe 36b8 132f 94b5
000001e0: 2cc7 11b7 c5da d9b7 d225 96b5 ff99 b7b6
000001f0: 35ac 61b7 c088 e5b6 b957 edb6 b77a 03b6
00000200: a22f 34ba 7b00 40bb b7b1 dfbb 450d 4fbb
00000210: c0b2 f3ba c1a9 e63b d08a abbb 129a 23bc
00000220: 6ef9 90bf 9282 1ebb 310d 74bd f760 35bb
00000230: 9103 44bc 4438 8ebb dc62 173e f49d e5bc
00000240: c769 31bb f6ca abbd 0252 eebb e967 91bb
00000250: f9f5 1abe 1ecf b7b9 b5a5 b03b 9791 d93e
00000260: 4c7c aabb 9f04 e1b8 2afc 1aba ba68 eb3d
00000270: ead6 a63a f026 4bbb a312 0bbb 0636 c7b9
00000280: c677 a23e 368c 0f40 c514 8e3e 8235 1cbf
00000290: 252b 093e caec 753d dc6e 0ebe b684 343f
000002a0: 3d64 39c0 e9c0 8abd de8c 1bbf 1860 1d3e
000002b0: 5925 fc3d 8a39 633f 1b61 3cc0 50f9 bc3d
000002c0: fa9d f73d 4bc3 ea3e 0736 a83e 032f 213e
000002d0: bba3 19bf 6820 8c3e 07af 843f 49d8 52bf
000002e0: d654 203e 93e3 f53d edab 043d e002 173f
000002f0: 1087 0e3f 13dd 683e 2eff debe 6d88 c2bc
00000300: 9aba e9bf fc79 25c0 0191 a8bf 4af0 16bf
00000310: 67fd 083d 16af 4cbd fb04 433c 3110 b4bf
00000320: 7968 253f 549e 05be 4f3a 8e3f c8f4 d3bc
00000330: 09d3 fdbd 5139 0ebf 0867 8dbf 5e34 b53d
00000340: a74b 69be c091 e2be c808 b3bc dc2f f53c
00000350: a787 c43e dbbf 363d a88d 97c0 82cb 21bc
00000360: aa58 39be 6156 a6b9 2e56 0dbd e7cb b1be
00000370: 8f33 cdbf 8972 0abe b0b3 45bd b634 3c3c
00000380: b813 f3bb d45d c7bb 8dec 68b9 e67e d83b
00000390: 323c 5439 7be5 38ba 6b3f 1739 428f eb3a
000003a0: 3fa7 12be bcc5 493a 4b63 05be 170f a639
000003b0: e5aa 5a39 f8eb b939 1a3a d63b a765 453a
000003c0: 5b63 983a 81fc 96be 25ae 9e36 6030 0f39
000003d0: 39dd 8d3c f2b0 a339 5bef 6dbc 67f0 c9bc
000003e0: 6871 923a 2476 cf3a 369a fe37 b10b 1dbe
000003f0: 6d63 60bb 4549 da38 d205 523b 9abb 2238
-0.001031801 0.00031347756 -0.0006162402 -9.777392e-05 0.0008420196 -0.0024720035 0.004266157 0.0005989123
-0.3260521 0.00068945263 -0.06786393 0.0012740106 0.006930139 -0.00060808973 0.010118077 0.010913958
0.00015398081 0.011806057 0.0019222324 0.0012005853 -0.33446622 0.00041385932 0.007617308 0.0054046833
0.00102015 -0.00030280746 2.6703683e-05 0.013583475 -0.002229295 0.0002315808 0.00028758738 -0.00022295446
0.50048804 0.6862442 0.82392436 0.7268782 -0.12163573 0.33765665 -0.028098136 -0.45767224
0.27467588 -0.07467607 1.7859787 -0.1655801 -0.07326951 0.071548715 0.26648778 0.06743821
-0.0663147 -0.076621436 -0.07439447 -0.012507659 2.7594037 -0.12482633 0.11965505 -1.933638
0.39588532 0.16238116 -0.0977158 1.3101426 2.5539832 -0.08830867 -0.16568054 -0.0016246465
-0.0012952832 -0.0021713295 -0.0008315052 -0.00036771435 -0.0004669734 -0.00040217346 -0.0022610282 -0.0012559815
-0.02431238 -0.0005826014 -0.008698195 -0.0009423691 -0.0016986462 -0.00083971384 0.0070403074 -0.003977649
-0.00054169045 -0.017340362 -0.0005843612 -0.00063594163 0.0015635446 0.00021682591 -0.0014210871 -0.0013976712
-0.0007096537 -1.7646418e-05 -7.4476404e-05 0.015483064 -0.0011608349 -0.00038932127 -0.0010052352 0.00021751066
-2.1326938e-05 -1.4617053e-05 -1.4251623e-05 -8.953951e-06 -1.3927198e-05 -7.719441e-06 -1.6178885e-05 -1.0767533e-05
0.00021049693 -2.7829362e-06 -5.4071246e-05 -3.409723e-06 -2.2178892e-05 -9.614626e-06 -8.2769504e-05 -3.1647054e-05
-1.2675854e-05 5.6294793e-05 2.0248574e-07 -4.7114268e-06 0.00014381498 -7.3358005e-06 -4.362876e-05 -1.104056e-06
-8.689047e-06 -2.5970288e-05 -1.1186878e-06 -5.4717525e-06 -1.345114e-05 -6.8406516e-06 -7.0733627e-06 -1.959195e-06
-0.0006873553 -0.0029297161 -0.006826605 -0.0031593603 -0.00185927 0.007039279 -0.0052350536 -0.009985464
-1.132612 -0.0024186713 -0.059582893 -0.0027676204 -0.011963741 -0.0043402035 0.14783806 -0.02802942
-0.0027071105 -0.08388321 -0.0072729597 -0.004437436 -0.15132894 -0.00035058794 0.0053908476 0.4249389
-0.0052028056 -0.00010729697 -0.0005912209 0.114945844 0.0012728844 -0.003099855 -0.0021220825 -0.00037996488
0.31732005 2.2429328 0.2775022 -0.61019146 0.13395365 0.060040273 -0.13909477 0.70515
-2.896743 -0.06775076 -0.6076182 0.15368688 0.12311811 0.8875967 -2.9434268 0.0922724
0.120906785 0.45852122 0.3285372 0.1574059 -0.6001546 0.27368474 1.0365914 -0.82361275
0.15657362 0.12006297 0.032390524 0.5898876 0.5567484 0.22740583 -0.43554062 -0.023746694
-1.8260071 -2.5855703 -1.3169252 -0.589604 0.03344479 -0.049971662 0.011903043 -1.4067441
0.6461254 -0.13048679 1.1111544 -0.025873557 -0.123937674 -0.5555621 -1.1047068 0.08847879
-0.22782765 -0.44251823 -0.021854773 0.029930048 0.38384745 0.04461656 -4.736042 -0.00987518
-0.18100229 -0.00031726345 -0.034506015 -0.34725878 -1.603136 -0.13520254 -0.048267066 0.011487177
-0.007418122 -0.006084183 -0.00022213366 0.0066069243 0.0002024032 -0.0007053238 0.00014424107 0.0017971771
-0.14321612 0.0007697006 -0.13026159 0.0003167323 0.00020853763 0.0003546176 0.006537688 0.0007530101
0.001162629 -0.2948952 4.72904e-06 0.00013655564 0.017317401 0.00031221617 -0.014522399 -0.024650766
0.0011172714 0.0015828055 3.035097e-05 -0.15336491 -0.003423895 0.000104086976 0.0032046926 3.8798527e-05

fc3.bias f4 [16]
00000000: 2410 b0be 9477 11bf 597b 27bd 65e8 84ba
00000010: 3ab0 76bf 3231 ff3f 5d7a 7740 700a 2e3d
00000020: c262 4040 8947 47be 8fe1 cebc dac9 5640
00000030: d2c0 8040 6f45 15bb 4659 2340 78e3 79bd
-0.34387314 -0.56823087 -0.040889118 -0.001014006 -0.9636265 1.9936888 3.8668435 0.042490423
3.0060277 -0.19460882 -0.02525404 3.35607 4.0235376 -0.0022776981 2.5523238 -0.061007947

fc4.weight f4 [1, 16]
00000000: da92 403e e7a7 85bf 0564 19bd 408e 9f38
00000010: 18a2 89bf 07f8 3240 b091 6440 3482 35b8
00000020: 8a43 1140 0007 bf3d f5ea 67bc 5612 e83f
00000030: 868a 1140 fe7e 373b 143d 0e40 0edb 39bd
0.1880602 -1.0441865 -0.0374489 7.608207e-05 -1.0752592 2.7963884 3.571392 -4.3275024e-05
2.2697473 0.09327507 -0.014155139 1.8130596 2.2740798 0.0027999277 2.222478 -0.045374922
