Pytorch/fixed_goal/reward_step_minus_euclidean_square/model/checkpoint_critic.pth (torch, 14963 bytes, 7 tensors)

fcs1.weight f4 [64, 4]
-1.8325773e-05 8.719459e-06 -1.2349977e-05 -7.740818e-06 3.2866672e-06 -7.018298e-07 3.1016789e-06 -3.0797294e-06
-7.038967e-08 1.6813969e-07 -1.17796695e-07 -2.4314943e-07 -8.8713794e-05 0.00029384252 -0.0003551081 0.00051243673
0.00132749 -0.009534407 0.0021097185 -0.0023921435 0.00021634449 0.0005642541 6.801689e-05 0.00025225623
3.4936274e-09 -3.646457e-09 5.1187836e-09 1.1428871e-09 2.0920842e-08 -1.3946327e-08 -5.582265e-08 4.3139615e-08
2.9196691e-08 1.3380615e-08 -8.441833e-09 8.688395e-09 -7.5541266e-08 3.4134501e-07 -6.906389e-08 1.4129138e-07
-6.2750782e-06 6.9592197e-06 -8.7939145e-07 7.4167374e-06 -3.06991e-06 -3.26708e-06 -4.3464775e-06 4.1084177e-06
-0.00016312103 -0.0009787322 -0.00037227734 0.00043701447 3.2216485e-07 -1.8323334e-09 -4.2077332e-08 -4.337109e-07
-3.1055017e-05 0.00022009797 -4.023964e-05 7.8654804e-05 -6.976756e-07 -6.981233e-08 -5.8587386e-07 2.840983e-07
-2.5370582e-05 6.7821995e-05 -1.4134068e-05 -5.4899352e-05 1.0972756e-06 -8.218542e-06 9.621135e-07 -6.231539e-07
3.2291523e-06 -1.8987716e-06 2.9140635e-06 -2.7027056e-06 -1.307757e-05 -2.3943756e-05 -1.8173867e-05 1.9039966e-05
3.282629e-07 1.233224e-07 1.8031983e-07 -1.689504e-07 1.2855696e-06 -1.6677059e-06 1.3879909e-06 -6.340997e-07
0.00020139548 0.00034121424 -0.00013040488 0.00012095499 -3.6794358e-08 -8.7543617e-07 1.3749195e-06 -9.916891e-07
3.7818228e-07 -3.59893e-07 1.03367825e-07 2.7868458e-07 4.93261e-07 2.6906778e-06 -8.131992e-07 -8.949629e-07
-6.1299076e-08 3.552472e-08 -8.245591e-08 6.718346e-08 2.5812632e-09 -5.199655e-08 -1.2231395e-08 -9.6220425e-08
-1.323799e-10 1.7053009e-09 1.1260161e-09 -2.3782432e-10 -8.976124e-09 2.6665596e-09 -8.589424e-09 5.020875e-09
0.009576292 0.0052481513 0.0064303866 -0.0061385627 2.9445366e-05 4.7217414e-05 -2.2872508e-05 2.096196e-05
-1.4194014 0.04512369 -0.06318132 0.049570456 -0.0007685262 0.01060116 -0.0014898248 0.0016440294
5.619062e-06 -9.878178e-06 5.7456364e-06 -5.4753464e-06 1.8080621e-08 4.116906e-09 -6.1843393e-09 8.038377e-09
-3.0614737e-09 3.2457752e-09 -7.654476e-09 1.7449024e-09 7.869396e-05 -2.7501326e-06 4.7999434e-05 1.1531434e-05
-3.948908e-05 -3.7323356e-05 1.3245535e-05 -1.310957e-05 -1.3047822e-08 8.621676e-08 2.827113e-07 -8.999932e-08
8.1153434e-05 1.3444833e-06 7.4967706e-05 -6.791993e-05 0.20588 0.039164286 0.19352509 -0.17293172
0.0019017605 0.00255788 0.0010831986 0.00013369601 -8.4223086e-07 1.3894231e-07 -9.34342e-08 4.0399296e-08
-3.338244e-08 1.179119e-08 -1.0667199e-08 1.5202241e-08 3.1225238e-07 -7.592014e-08 2.6210475e-07 -2.0423415e-07
-0.6045556 -2.2052295 -0.055612493 0.038589373 0.0127729485 0.0015461389 -0.022251578 0.017966704
5.396896e-08 1.0665194e-08 3.285267e-08 -3.4263024e-08 4.4938115e-06 1.7281855e-05 3.1149648e-07 -4.0784929e-07
4.984115e-05 -4.0192126e-06 4.7659505e-05 -3.9450926e-05 -1.1625909 0.04929554 0.016814152 -0.011433554
-4.4080245e-10 -5.4226257e-10 1.6155027e-09 -1.569552e-10 2.3294562e-09 -9.196096e-10 1.879801e-09 -1.8151104e-09
4.439022e-10 -8.444293e-09 1.1030997e-08 -1.1306179e-08 -0.004573115 0.001201072 0.0021435115 -0.0031625156
-0.008772497 0.048849545 -0.03178942 0.03140075 7.878788e-07 3.6608775e-08 5.599472e-07 -1.2761568e-07
-0.00045177457 0.00015189484 0.000866157 -0.001914317 -2.3173923e-06 2.4258243e-05 -1.0059164e-05 9.91172e-06
-0.00026911907 -0.00012433386 9.3320035e-05 -9.4204486e-05 -8.3723774e-07 8.8839e-06 -5.640519e-06 6.246801e-06
0.00056085305 -0.009228837 -0.010716452 -0.0031300592 -7.235184e-08 3.779714e-09 -5.186627e-08 6.6928925e-09
00000000: 4cba 99b7 cb49 1237 bf32 4fb7 8fde 01b7
00000010: 8390 5c36 6065 3cb5 7026 5036 59ad 4eb6
00000020: 2129 97b3 e389 3434 6bf7 fcb3 348a 82b4
00000030: db0b bab8 e00e 9a39 cd2d bab9 0c55 063a
00000040: 2cff ad3a 3436 1cbc 3443 0a3b 82c5 1cbb
00000050: 88da 6239 74ea 133a 4aa4 8e38 4241 8439
00000060: 8b14 7031 2695 7ab1 4ce1 af31 c413 9d30
00000070: 6bb5 b332 9898 6fb2 a7c1 6fb3 8248 3933
00000080: 34cc fa32 91e0 6532 9307 11b2 f743 1532
00000090: 4039 a2b3 1a42 b734 4650 94b3 e1b5 1734
000000a0: 838e d2b6 3e83 e936 520f 6cb5 4add f836
000000b0: a704 4eb6 0240 5bb6 f5d7 91b6 0adb 8936
000000c0: 780b 2bb9 ce48 80ba 382e c3b9 171f e539
000000d0: 00f6 ac34 80d5 fbb0 84b8 34b3 c6d8 e8b4
000000e0: 1241 02b8 19ca 6639 fcc6 28b8 7af3 a438
000000f0: e747 3bb5 bceb 95b3 f244 1db5 2c86 9834
00000100: e9d2 d4b7 a83b 8e38 5c21 6db7 bb43 66b8
00000110: 1a46 9335 5ee2 09b7 f821 8135 cf46 27b5
00000120: 6ab4 5836 4cd9 feb5 3b8f 4336 2160 35b6
00000130: bc67 5bb7 d3da c8b7 1574 98b7 04b8 9f37
00000140: 1c3c b034 9a6a 0434 f09d 4134 bb68 35b4
00000150: d68b ac35 f0d5 dfb5 014b ba35 0037 2ab5
00000160: b02d 5339 00e5 b239 4bbd 08b9 37a9 fd38
00000170: d307 1eb3 84ff 6ab5 e089 b835 2e1a 85b5
00000180: fa08 cb34 5137 c1b4 10fb dd33 1e9e 9534
00000190: a368 0435 7e91 3436 a04a 5ab5 623d 70b5
000001a0: 86a3 83b3 d893 1833 9e12 b1b3 7f46 9033
000001b0: 1062 3131 d052 5fb3 3e22 52b2 bda1 ceb3
000001c0: a18d 11af f15f ea30 2bc2 9a30 ccbe 82af
000001d0: 6935 1ab2 9d3e 3731 b090 13b2 1584 ac31
000001e0: e1e5 1c3c aff8 ab3b feb5 d23b ff25 c9bb
000001f0: 7101 f737 500b 4638 56de bfb7 77d7 af37
00000200: f2ae b5bf 9ed3 383d 3565 81bd 640a 4b3d
00000210: ec76 49ba 7db0 2d3c 3a46 c3ba 797c d73a
00000220: 608b bc36 74ba 25b7 a4ca c036 deb8 b7b6
00000230: b54f 9b32 b074 8d31 067e d4b1 2819 0a32
00000240: 0462 52b1 480c 5f31 be80 03b2 4cd1 ef30
00000250: 8008 a538 eb8e 38b6 0053 4938 2277 4137
00000260: 14a1 25b8 a68b 1cb8 2439 5e37 2df1 5bb7
00000270: ee28 60b2 2a26 b933 8cc7 9734 a645 c1b3
00000280: eb30 aa38 1874 b435 fb37 9d38 3c70 8eb8
00000290: 35d2 523e bb6a 203d 712b 463e 0315 31be
000002a0: 7e44 f93a 1ba2 273b 1dfa 8d3a c030 0c39
000002b0: aa15 62b5 2c30 1534 ffa5 c8b3 7f83 2d33
000002c0: 6260 0fb3 3492 4a32 d642 37b2 1596 8232
000002d0: a4a3 a734 8a09 a3b3 67b7 8c34 754b 5bb4
000002e0: 28c4 1abf 7b22 0dc0 edc9 63bd e40f 1e3d
000002f0: a145 513c d0a7 ca3a f148 b6bc e92e 933c
00000300: 80cb 6733 053a 3732 e519 0d33 9828 13b3
00000310: 8cc9 9636 80f8 9037 c03b a734 61f6 dab4
00000320: 870c 5138 c6dc 86b6 01e6 4738 1c78 25b8
00000330: c7cf 94bf 1fea 493d d5bd 893c cd53 3bbc
00000340: 6e55 f2af 560e 15b0 7308 de30 f692 2caf
00000350: 3a14 2031 c6c7 7cb0 cf2d 0131 8577 f9b0
00000360: ae09 f42f 6512 11b2 d682 3d32 1a3d 42b2
00000370: 12da 95bb 4a6d 9d3a 287a 0c3b 3542 4fbb
00000380: 85ba 0fbc 7616 483d 9f35 02bd 139e 003d
00000390: 9e7e 5335 c63b 1d33 474f 1635 bb06 09b4
000003a0: 28dc ecb9 f645 1f39 d00e 633a d2e9 faba
000003b0: 7f84 1bb6 2e7e cb37 c8c3 28b7 834a 2637
000003c0: 8d18 8db9 9e5f 02b9 d0b4 c338 a68f c5b8
000003d0: 8abe 60b5 0f0c 1537 b043 bdb6 9d9b d136
000003e0: 3606 133a 8c34 17bc 0f94 2fbc ae21 4dbb
000003f0: d85f 9bb3 b7de 8131 91c3 5eb3 4ef7 e531

fcs1.bias f4 [64]
-2.9203202e-05 -3.2447113e-06 -1.3798264e-06 -0.07959155 -0.0033420227 -0.0017560753 -4.47178e-07 -6.346551e-07
-2.0848044e-07 -5.0853214e-07 -4.9580725e-05 -1.0998566e-05 -0.0011631942 -2.7971424e-07 -0.00022845833 -5.9837857e-06
-2.1797587e-05 -2.3630294e-06 -3.6687811e-06 -4.6648176e-05 -2.2325447e-07 -3.758882e-06 -0.0040787146 -1.4522404e-05
-1.6256329e-06 -1.9005397e-06 -1.2739004e-06 -9.1654435e-08 -1.8654417e-08 -2.9488707e-08 -0.0065012304 -0.0009237351
0.22437069 0.0004816095 -6.5485474e-06 -2.1456074e-08 -1.2739525e-07 -0.00031355023 -9.8994606e-05 -1.1889341e-06
-9.3846356e-05 -0.24720623 -0.0068497164 -2.0723895e-05 -1.9312237e-07 -2.2877141e-07 0.13951367 -0.025897255
-1.5490225e-07 -3.8731247e-07 9.036976e-06 -0.027524503 -1.9564897e-08 -4.101086e-09 -4.8272163e-08 -0.008780265
0.03265436 -2.2101167e-06 -0.0001511813 1.1362896e-05 -0.0003896074 6.2885565e-06 -0.023869373 -7.848817e-07
00000000: 66f9 f4b7 b7bf 59b6 7932 b9b5 e500 a3bd
00000010: d605 5bbb 1c2c e6ba ad13 f0b4 2b5d 2ab5
00000020: abda 5fb4 1082 08b5 e6f4 4fb8 7b86 38b7
00000030: 5276 98ba a22b 96b4 518e 6fb9 54c8 c8b6
00000040: f6d9 b6b7 8994 1eb6 2e35 76b6 19a8 43b8
00000050: b9b7 6fb4 1a41 7cb6 bda6 85bb 40a5 73b7
00000060: 5230 dab5 0c16 ffb5 e2fa aab5 8fd3 c4b3
00000070: 7f3d a0b2 5a4e fdb2 4608 d5bb d026 72ba
00000080: 6ec1 653e 8880 fc39 98bb dbb6 684e b8b2
00000090: 24ca 08b4 0064 a4b9 539b cfb8 7793 9fb5
000000a0: 61cf c4b8 a123 7dbe 9673 e0bb 3ad8 adb7
000000b0: 135d 4fb4 35a4 75b4 acdc 0e3e 7b26 d4bc
000000c0: 3553 26b4 d2ef cfb4 849d 1737 117b e1bc
000000d0: aa0f a8b2 89e9 8cb1 ce53 4fb3 1adb 0fbc
000000e0: 94c0 053d 8451 14b6 6c86 1eb9 44a3 3e37
000000f0: 3844 ccb9 4a02 d336 b489 c3bc a9b0 52b5

fc2.weight f4 [32, 67]
3.0217691e-07 1.8942274e-07 -1.4772983e-12 4.637757e-12 2.2333156e-11 -1.6906031e-10 5.773903e-14 -1.1338892e-09
5.6284086e-15 1.493293e-13 1.7176868e-12 4.159251e-12 1.8890667e-10 -3.2257367e-13 -1.7227374e-06 -7.1438976e-14
-2.7152898e-06 4.4732536e-13 4.691063e-14 -1.9301723e-08 -3.1356814e-14 2.762847e-13 9.885634e-13 1.3421447e-14
-1.8848914e-13 1.5801762e-12 -1.9039428e-13 -7.6868486e-07 -4.1246845e-15 -3.757653e-15 -5.064181e-08 -1.6369232e-11
3.7229617e-09 2.3673456e-06 -1.1671438e-11 -2.2256971e-13 -4.9445552e-11 7.598542e-09 -3.9055783e-11 -2.8646193e-13
4.280132e-12 -5.651841e-07 7.5450697e-07 6.9334876e-12 -7.024266e-14 3.7652312e-10 3.833456e-08 -2.3767765e-08
-8.5479757e-10 -5.0536784e-09 -3.7484415e-11 -7.590636e-09 6.073912e-17 -4.743318e-16 -0.00012767344 -7.0761828e-09
8.000194e-09 1.0148619e-15 1.8658701e-09 2.1531316e-06 -2.509094e-12 -5.485271e-09 1.183059e-08 -2.4509705e-14
-1.2254411e-07 -8.742629e-08 -8.448422e-08 9.893752e-09 -8.015411e-11 1.2204215e-10 4.434685e-07 -1.3578642e-07
1.3494018e-07 1.7267615e-08 6.7656725e-07 0.00046727696 -2.2213628e-10 9.6539345e-09 7.2526767e-09 6.943222e-08
-9.071179e-06 -5.2734606e-07 -3.5489595e-10 -1.745571e-08 2.4172067e-07 0.0010911999 5.9554506e-05 -4.9991813e-11
-3.141663e-10 -6.7583805e-08 6.202799e-09 1.04010245e-10 -7.2613107e-09 -2.097592e-05 1.1911183e-10 -1.0151747e-05
-1.5778598e-12 -3.781767e-05 3.815915e-08 -7.715516e-05 -7.8081456e-08 8.645341e-10 0.00031173212 -7.603955e-09
2.9744022e-08 3.8479662e-08 2.0995187e-05 5.563607e-08 0.00042669426 -9.199291e-07 -1.2100947e-08 5.4657146e-08
0.0010938183 0.00010141173 -9.6957694e-05 5.0507896e-09 2.1007422e-08 -1.7001277e-05 0.00011828056 2.7057107e-08
1.1347452e-12 1.464882e-11 -6.9081457e-06 -8.098937e-05 6.099822e-10 -0.00012581015 -1.5383307e-08 -2.2021918e-07
-1.7061943e-08 -6.694881e-05 -3.337229e-10 -0.0078114774 -9.991583e-05 -0.00010529348 1.0353749e-06 2.9501673e-05
2.7442952e-09 -8.852561e-06 -2.149292e-07 7.540316e-08 1.1039086e-10 3.3585624e-05 -1.1405822e-10 0.0007326249
-9.971578e-09 1.1035498e-05 -3.5365179e-06 5.355971e-08 0.0006764888 7.2320977e-10 0.00020721744 -1.6296189e-09
-8.839886e-10 -0.00031091378 -2.480247e-10 3.463124e-06 6.563219e-07 2.4231646e-08 -1.0342184e-08 -2.6994318e-10
2.248164e-10 7.942236e-05 -9.776401e-12 1.4565412e-06 0.00017577424 1.4720327e-07 -0.0005573988 0.00016377386
-5.792609e-07 -1.0074722e-10 2.506893e-09 -1.2280112e-06 1.2300055e-07 -5.8867213e-09 -2.7097377e-07 -5.8032456e-06
0.00076638104 -1.5112711e-08 3.2879204e-09 2.061315e-07 -0.00072114466 -0.0001221732 -1.1865152e-10 -3.9125577e-08
-2.419232e-08 -0.0004999077 -4.622737e-12 -3.144581e-07 5.8035722e-11 3.8652597e-06 -1.7989652e-05 -4.984882e-10
-3.2306195e-06 -2.0809999e-08 6.292911e-08 1.4790931e-08 4.942667e-06 6.134599e-11 -0.00056787685 0.0004521077
0.0003947234 -1.3210283e-07 4.6093446e-05 2.3985258e-06 7.297621e-06 1.7295775e-06 -1.4746636e-06 2.598255e-12
-1.1795408e-07 7.93063e-09 8.6735316e-05 -6.2870484e-08 -5.402441e-09 0.00018015757 1.2426611e-09 1.1764149e-06
-7.310108e-11 1.766698e-07 4.267826e-08 -2.4011054e-10 6.756951e-07 9.9610514e-11 -3.1180862e-09 -6.6715955e-08
9.748206e-09 7.700866e-05 -1.3070505e-08 5.751182e-10 4.7710214e-09 1.1107019e-11 5.654652e-07 -8.653625e-05
1.1043048e-06 2.653509e-05 -4.918109e-07 -1.359078e-07 -6.506293e-08 -4.0253827e-08 -0.00054687075 -2.6378054e-08
-0.0011558043 7.554503e-08 0.00026512815 2.9370362e-06 -6.674748e-09 3.5654397e-05 2.349725e-08 0.00012039701
0.00031106698 -6.75973e-07 -1.5411382e-06 -7.114437e-06 -0.00016225211 2.3420219e-11 9.62088e-10 2.9128037e-06
00000000: e13a a234 2064 4b34 48e9 cfab 342d a32c
00000010: cc71 c42d 3fe2 39af 4904 8229 2ed7 9bb0
00000020: e8c8 ca27 3e21 282a 30be f12b 3457 922c
00000030: 80b4 4f2f c497 b5aa ce38 e7b5 c4dd a0a9
00000040: 5338 36b6 61d2 fb2a 4644 5329 f0cc a5b2
00000050: f237 0da9 d288 9b2a c020 8b2b 80c7 7128
00000060: 4c38 54aa d963 de2b 6a5d 56aa 9f57 4eb5
00000070: 809b 94a7 3b62 87a7 4281 59b3 3cfc 8fad
00000080: 09d7 7f31 b0de 1e36 7c53 4dad 5a97 7aaa
00000090: be76 59ae be8a 0232 e7c4 2bae 8443 a1aa
000000a0: 0098 962c 28b7 17b5 5389 4a35 4ef3 f32c
000000b0: 232c 9ea9 ebfe ce2f 4ba5 2433 de29 ccb2
000000c0: 08f7 6ab0 a0a4 adb1 b3db 24ae f867 02b2
000000d0: 0c0e 8c24 82b7 08a6 14e0 05b9 c322 f3b1
000000e0: 3a71 0932 cc41 9226 bc38 0031 857e 1036
000000f0: d28f 30ac f478 bcb1 7c3f 4b32 88c3 dca8
00000100: ab94 03b4 1cbf bbb3 b16d b5b3 2ef9 2932
00000110: c142 b0ae d02f 062f d915 ee34 b0cc 11b4
00000120: 13e4 1034 e353 9432 599d 3535 dafc f439
00000130: ce3d 74af 74da 2532 3833 f931 c41a 9533
00000140: 6b30 18b7 f28e 0db5 2a1b c3af 83f1 95b2
00000150: d6c5 8134 9806 8f3a 2aca 7938 c7dd 5bae
00000160: fab6 acaf 9722 91b3 6620 d531 90b8 e42e
00000170: 2a7f f9b1 72f5 afb7 00f7 022f 6c51 2ab7
00000180: 6410 deab 6a9e 1eb8 6ee4 2333 5cce a1b8
00000190: bcad a7b3 2ea4 6d30 fa6f a339 8ca2 02b2
000001a0: cc7f ff32 d644 2533 d21e b037 82f4 6e33
000001b0: efb5 df39 0cf1 76b5 87e4 4fb2 2bc0 6a33
000001c0: 745e 8f3a 02ad d438 c455 cbb8 378b ad31
000001d0: cf73 b432 f79d 8eb7 640d f838 356b e832
000001e0: 81b3 9f2b 36da 802d 85cc e7b6 d6d8 a9b8
000001f0: aeab 2730 e8eb 03b9 4024 84b2 6375 6cb4
00000200: 9c8f 92b2 de66 8cb8 5377 b7af 6cf7 ffbb
00000210: e789 d1b8 02d1 dcb8 36f7 8a35 5c7a f737
00000220: 2796 3c31 7685 14b7 4ac7 66b4 53ed a133
00000230: 88c0 f22e 4ade 0c38 12d1 faae a00d 403a
00000240: 774f 2bb2 1a25 3937 ea54 6db6 8609 6633
00000250: 6556 313a 5dcb 4630 8248 5939 1ef9 dfb0
00000260: 2bfd 72b0 2402 a3b9 605a 88af 0468 6836
00000270: 192e 3035 f425 d032 68ad 31b2 2067 94af
00000280: 3130 772f 8e8f a638 fffc 2bad 607e c335
00000290: 0a50 3839 ed0e 1e34 661e 12ba b6ba 2b39
000002a0: 827e 1bb5 a58b ddae ba45 2c31 25d2 a4b5
000002b0: 2212 0434 2644 cab1 5a7a 91b4 80b9 c2b6
000002c0: f6e6 483a 34d1 81b2 b5f1 6131 ff54 5d34
000002d0: 330b 3dba 9e1b 00b9 6f75 02af 070b 28b3
000002e0: 79cf cfb2 3d0c 03ba eaa5 a2ac cbd2 a8b4
000002f0: 6a3e 7f2e 54b2 8136 7ce8 96b7 fd05 09b0
00000300: 9fcd 58b6 acc1 b2b2 a523 8733 341b 7e32
00000310: 30d9 a536 b9e6 862e 92dd 14ba de08 ed39
00000320: e1f2 ce39 26d8 0db4 7654 4138 5cf6 2036
00000330: 16de f436 d523 e835 0eed c5b5 00d6 362c
00000340: f14d fdb3 483f 0832 abe5 b538 6a03 87b3
00000350: 60a0 b9b1 aee8 3c39 40ca aa30 4fe5 9d35
00000360: 40c0 a0ae a0b2 3d34 3e4d 3733 8e00 84af
00000370: 6a61 3535 bc0b db2e f445 56b1 7c45 8fb3
00000380: 1079 2732 b67f a138 b08c 60b2 5816 1e30
00000390: 59ee a331 9165 432d 79ca 1735 cc7a b5b8
000003a0: a037 9435 ac97 de37 fd04 04b5 0dee 11b4
000003b0: b9b8 8bb3 8de3 2cb3 e05b 0fba f495 e2b2
000003c0: 5b7e 97ba 523b a233 e600 8b39 e619 4536
000003d0: b457 e5b1 9e8b 1538 00d7 c932 a77d fc38
000003e0: b416 a339 8374 35b5 1bd9 ceb5 8cb8 eeb6
000003f0: 3822 2ab9 a501 ce2d 763a 8430 9679 4336

fc2.bias f4 [32]
-1.2256112e-07 -0.007816895 -0.00056747376 -0.000501054 -0.00014044275 0.23052219 4.118798e-05 -0.008002834
-5.290124e-08 -8.599866e-08 -0.006467299 -6.5182263e-07 -0.0005079195 -0.26931933 -2.9503485e-06 -1.895109e-07
-0.007137508 -0.044034325 -3.0509063e-06 -0.00022908956 -0.067498095 -0.06349607 -4.3560874e-08 -0.00092284597
-3.1628156e-06 -6.481262e-05 -0.0042471336 -0.010777438 -2.4557127e-07 -8.844552e-07 -0.0010484823 -0.19645593
00000000: 5899 03b4 6f12 00bc 85c2 14ba 2a59 03ba
00000010: d043 13b9 020e 6c3e 42c1 2c38 521e 03bc
00000020: 8735 63b3 43ae b8b3 a3eb d3bb e9f8 2eb5
00000030: e725 05ba 39e4 89be 9afe 45b6 5c7c 4bb4
00000040: c2e1 e9bb 565d 34bd 2cbe 4cb6 c337 70b9
00000050: 713c 8abd 3a0a 82bd b017 3bb3 25eb 71ba
00000060: c240 54b6 03ec 87b8 8a2b 8bbb da93 30bc
00000070: 0fd7 83b4 4c6b 6db5 3a6d 89ba be2b 49be

fc3.weight f4 [16, 32]
-4.679415e-12 1.3638677e-07 2.8746348e-09 -6.0180348e-05 2.464474e-09 -2.1601543e-06 -6.1093004e-08 -1.5171625e-07
5.6963982e-15 1.2483135e-12 3.5752397e-05 6.0823577e-12 1.1375967e-09 -3.2275668e-06 -5.795242e-12 -1.5681414e-08
1.289981e-07 9.725345e-07 -1.5952521e-10 4.2944345e-07 4.4880566e-05 -2.8105669e-07 -2.763995e-06 3.4629475e-06
1.4453899e-08 3.572478e-05 5.5305307e-09 -0.001107583 1.6853457e-07 7.222521e-14 7.933059e-09 4.3171426e-07
-5.096545e-13 -1.6437934e-05 3.278075e-08 -6.5607937e-09 -3.021282e-10 4.4129155e-07 -1.2154562e-09 5.017155e-08
-1.5105994e-10 -3.1951324e-13 0.00021141992 6.8972355e-08 -9.291421e-09 1.3546997e-07 -3.6581935e-13 3.609174e-11
-4.587058e-07 -6.2851626e-09 4.821741e-11 -1.1614175e-07 -5.691711e-07 -1.521188e-07 2.6469918e-06 -1.724328e-08
0.00030185079 7.1982253e-11 4.971878e-10 -3.2523226e-07 3.4209208e-14 -3.9222377e-13 5.120958e-09 -1.4403941e-08
3.2234546e-10 8.33884e-06 3.2755946e-07 5.2861844e-07 -5.7133293e-06 -0.0007111274 2.9142439e-06 1.0693456e-05
-4.2959237e-11 -2.9527603e-10 -2.2256565e-05 -1.2893098e-10 2.4594044e-07 -9.362746e-05 0.00042014488 -1.7842991e-10
3.4234035e-06 2.035661e-05 -8.401338e-09 -9.0276714e-08 1.0114003e-05 1.3697747e-05 -6.667509e-07 2.0053972e-06
-4.024221e-09 1.3273191e-07 -5.5033884e-06 -1.9529816e-06 1.4379772e-10 -3.0981737e-09 1.1763259e-05 1.3607434e-05
3.652367e-05 -1.6689999e-06 0.00012738867 2.4230212e-07 -1.2685041e-07 -0.0021838855 1.4027641e-05 7.442788e-05
6.6925764e-11 0.00019920553 3.6853096e-05 3.6407815e-09 -1.5514804e-06 6.201789e-05 1.2658997e-09 -5.998212e-10
0.00012497365 -1.8792005e-05 -7.083288e-08 1.0250246e-06 -0.00011144875 -1.5519134e-05 -6.0844595e-06 5.023536e-06
-0.00030746448 -0.00010152736 -2.4704586e-06 -7.498104e-05 -1.3100698e-10 8.0441986e-11 -6.08703e-07 3.0662326e-05
3.6030922e-12 -3.2473582e-07 3.191453e-05 1.8326557e-07 4.1388068e-07 -2.05318e-07 3.878302e-08 -1.5618593e-07
4.9547774e-13 -3.9492006e-06 3.5838525e-07 -3.0861735e-05 2.642473e-10 -3.7715863e-06 -2.728014e-08 1.457447e-12
3.6323422e-07 -1.1531475e-06 0.0007837837 6.8511895e-08 7.665893e-06 2.5352809e-05 -8.4450794e-11 -5.6772864e-05
-1.19546115e-08 3.090547e-09 2.3279902e-08 0.00016299037 -6.281728e-07 -0.00042512908 2.4111455e-07 -0.0004405782
2.3826661e-07 -0.00080726587 -0.003318406 0.0014830516 0.0008137111 1.6777043 -0.00015511188 -0.0019912047
3.1699345e-09 4.292008e-08 0.00758799 9.031103e-07 -0.0008772899 -0.027607704 1.4287423e-08 -1.0513864e-08
-0.029759588 0.148741 3.2280618e-06 0.00079413515 -0.06920907 0.04790432 -3.7649095e-08 -2.3710034e-05
9.617531e-07 0.00033880226 0.090298355 -0.01891542 1.8158928e-06 -9.114629e-07 -0.00054060575 0.036665976
3.939817e-07 -4.763746e-09 7.059947e-11 -9.633642e-11 -4.019327e-09 -4.329819e-08 1.591274e-11 -1.9585042e-09
-1.25145e-14 -1.9215247e-09 2.1747887e-10 -2.707082e-13 4.0147535e-10 6.2200634e-10 -8.6511776e-09 -2.2275624e-15
-4.389962e-09 -3.8880676e-10 -2.0874024e-06 6.7492438e-06 2.4652515e-08 6.2866035e-10 0.0011331028 6.844446e-10
-3.8069285e-13 5.2044253e-08 1.6576342e-07 -5.7772604e-09 -3.6990356e-14 9.273064e-15 3.8918333e-08 -2.1861581e-08
1.3945188e-10 4.0106905e-05 3.7003872e-06 -1.4516161e-05 -5.316747e-07 -0.0038114514 1.30188e-05 8.53507e-05
7.454586e-10 -1.6014204e-09 5.325128e-05 1.7885252e-08 1.3424797e-05 0.0010745499 -7.2729724e-09 -1.3930874e-09
0.0001205175 -7.6755234e-05 1.14138565e-08 8.33658e-06 -0.00026711923 -1.14259165e-05 -2.371597e-06 1.7123148e-06
8.915902e-06 -2.1977436e-07 -1.3502633e-05 -4.651291e-05 -1.4220318e-06 4.623112e-09 -2.2432248e-05 -0.00021276933
00000000: 6ca4 a4ac b671 1234 1c8b 4531 286a 7cb8
00000010: 7c5b 2931 2bf7 10b6 3c32 83b3 72e7 22b4
00000020: 003c cd27 3caf af2b d8f4 1538 0201 d62c
00000030: a059 9c30 2d99 58b6 e6e6 cbac cbb3 86b2
00000040: ba82 0a34 0888 8235 5b66 2faf 428e e634
00000050: 243e 3c38 23e4 96b4 137d 39b6 fc64 6836
00000060: ec50 7832 31d7 1538 1007 be31 522c 91ba
00000070: 6ef6 3434 00a3 a229 f649 0832 5bc6 e734
00000080: 7a74 0fab 32e4 89b7 d1ca 0c33 5a6d e1b1
00000090: c418 a6af a6ea ec34 100d a7b0 347c 5733
000000a0: 9817 26af b6de b3aa 9ab0 5d39 f41d 9433
000000b0: 1aa0 1fb2 b475 1134 20f0 cdaa b0bb 1e2e
000000c0: 0c44 f6b4 e0f4 d7b1 fa0f 542e 9a69 f9b3
000000d0: 24c9 18b5 1956 23b4 f9a2 3136 601e 94b2
000000e0: ba41 9e39 684a 9e2e 7baa 0830 959b aeb4
000000f0: 8810 1a29 67cd dcaa 6cf4 af31 3475 77b2
00000100: 1736 b12f 0ce7 0b37 6edb af34 62e6 0d35
00000110: 20b5 bfb6 f46a 3aba 5492 4336 0b68 3337
00000120: cdef 3cae 6854 a2af 9cb3 bab7 d8c2 0daf
00000130: cc09 8434 dc59 c4b8 e446 dc39 8e2f 44af
00000140: a0bd 6536 7dc3 aa37 7a55 10b2 26de c1b3
00000150: 50af 2937 60cf 6537 c6fa 32b5 7694 0636
00000160: 6c45 8ab1 1285 0e34 bfa9 b8b6 f80f 03b6
00000170: 761b 1e2f a6e7 54b1 d05a 4537 7c4b 6437
00000180: fe30 1938 6602 e0b5 a393 0539 c015 8234
00000190: 6034 08b4 851f 0fbb 4258 6b37 2a16 9c38
000001a0: db2b 932e d4e1 5039 b692 1a38 4e31 7a31
000001b0: 763c d0b5 9a0f 8238 e3fb ad30 aae0 24b0
000001c0: 5c0b 0339 86a3 9db7 ca1c 98b3 9493 8935
000001d0: 98b9 e9b8 162f 82b7 1c29 ccb6 d88f a836
000001e0: 2f33 a1b9 16eb d4b8 28ca 25b6 243f 9db8
000001f0: 300b 10af d0e4 b02e c065 23b5 6c9b 0038
00000200: 8a8b 7d2c 5a57 aeb4 f7db 0538 a8c7 4434
00000210: 5433 de34 6275 5cb4 6292 2633 10b4 27b4
00000220: ef76 0b2b 6083 84b6 1868 c034 8971 01b8
00000230: 8045 912f 5c1b 7db6 aa55 eab2 101e cd2b
00000240: 8802 c334 d9c5 9ab5 d576 4d3a d020 9333
00000250: c29c 0037 beac d437 92b5 b9ae 661f 6eb8
00000260: f060 4db2 7a61 5431 0cf9 c732 65e8 2a39
00000270: b59f 28b5 dce3 deb9 8872 8134 68fd e6b9
00000280: 3ad6 7f34 b29e 53ba 9d79 59bb f462 c23a
00000290: 3a4f 553a 04bf d63f 87a5 22b9 df7e 02bb
000002a0: 14d6 5931 2157 3833 aca4 f83b 446d 7235
000002b0: eef9 65ba 8d29 e2bc c074 7532 76a0 34b2
000002c0: 61ca f3bc 904f 183e aea1 5836 822d 503a
000002d0: 7cbd 8dbd 5237 443d 9eb3 21b3 e9e4 c6b7
000002e0: 9615 8135 45a1 b139 58ee b83d 83f4 9abc
000002f0: 9ab9 f335 41ab 74b5 70b7 0dba 102f 163d
00000300: 6f84 d334 5aae a3b1 f83f 9b2e 95d8 d3ae
00000310: 601a 8ab1 ddf6 39b3 4ef8 8b2d 5f96 06b1
00000320: f270 61a8 d20b 04b1 dc1e 6f2f 2a65 98aa
00000330: a2b6 dc2f cef9 2a30 48a0 14b2 4683 20a7
00000340: 84d6 96b1 b0bf d5af 4d15 0cb6 9077 e236
00000350: 74c3 d332 0ace 2c30 9f84 943a 8223 3c30
00000360: 9f4f d6aa 4387 5f33 b4fc 3134 5281 c6b1
00000370: fa96 26a9 760c 2728 2927 2733 20ca bbb2
00000380: 3754 192f 7638 2838 2b54 7836 708a 73b7
00000390: 68b8 0eb5 8bc9 79bb 526b 5a37 4ffe b238
000003a0: fce8 4c30 f918 dcb0 205a 5f38 16a2 9932
000003b0: 103b 6137 e9d7 8c3a bee5 f9b1 e876 bfb0
000003c0: 57be fc38 a7f7 a0b8 ac16 4432 57dd 0b37
000003d0: 230c 8cb9 f0b1 3fb7 ba27 1fb6 b0d2 e535
000003e0: 8295 1537 1efb 6bb4 5e89 62b7 db16 43b8
000003f0: a4dc beb5 53d9 9e31 e32c bcb7 d51a 5fb9

fc3.bias f4 [16]
-2.0246407e-06 -4.7621305e-07 -0.0013245447 -0.0024549628 -6.9875323e-06 -0.034517474 -2.5609134e-07 -0.0036270204
0.39485803 -9.394606e-06 -0.00013447308 -1.6158684e-09 -0.0015475878 -0.022807265 -0.00034883356 -9.345144e-05
00000000: 10df 07b6 39aa ffb4 589c adba 71e3 20bb
00000010: 7276 eab6 3262 0dbd ed7c 89b4 4eb3 6dbb
00000020: d52a ca3e 879d 1db7 5801 0db9 5115 deb0
00000030: 6ed8 caba 4dd6 babc a6e3 b6b9 5cfb c3b8

fc4.weight f4 [1, 16]
5.257225e-06 -1.1584067e-06 -0.000489504 -0.0029136073 -5.4881975e-06 1.5992426 9.5084e-08 -0.0022095412
-1.0740837 -3.0295552e-05 5.468539e-05 -5.323265e-10 -0.0011916888 0.021118803 0.0010995029 4.7774432e-05
00000000: 3867 b036 8d7a 9bb5 0f52 00ba 38f2 3ebb
00000010: 4227 b8b6 fbb3 cc3f fb30 cc33 f3cd 10bb
00000020: 937b 89bf 3423 feb7 fe5d 6538 2653 12b0
00000030: 7132 9cba 5701 ad3c 321d 903a 6861 4838
