Pytorch/fixed_goal/reward_step_minus_euclidean_square/model/checkpoint_actor.pth (torch, 15603 bytes, 10 tensors)

fc1.weight f4 [64, 4]
0	0xbdb9058c	-0.09034261
1	0xbdfa85e4	-0.12232569
2	0xbd3a1134	-0.045426562
3	0xbddddfbc	-0.108336896
4	0x3dfd6394	0.12372509
5	0x3d3f3ee4	0.046690837
6	0x3e20cb59	0.15702571
7	0xbe4a9ee5	-0.19787176
8	0xbc8a90f8	-0.01691483
9	0x3d8a03fa	0.0673904
10	0xbd61d810	-0.055137694
11	0xbdda852c	-0.10669932
12	0xbcc49b62	-0.023999874
13	0x3cb4ff34	0.022094347
14	0x3d8a6c7d	0.06758974
15	0xbc0fb380	-0.0087708235
16	0x3ce2ad74	0.0276706
17	0x3ddbed63	0.10738637
18	0x3e1009a5	0.14066179
19	0xbc44a352	-0.012001829
20	0xbb83c0e0	-0.004020795
21	0x3d7ef7c4	0.062248006
22	0xbdd6da1a	-0.10490818
23	0xbddaba5a	-0.10680075
24	0x3e227eea	0.15868726
25	0xbd4881a5	-0.048951764
26	0xbca3381a	-0.019924212
27	0x3ca3636d	0.01994487
28	0x3cf3c368	0.029756263
29	0xbda4dfe4	-0.08050516
30	0xbd4390b4	-0.04774542
31	0x3bdbf060	0.0067120045
32	0x3dbfaf26	0.09359579
33	0xbdfa7278	-0.122288644
34	0x3cce2ab0	0.02516684
35	0x3c346700	0.011010885
36	0x3e10c7db	0.14138739
37	0x3d6cf208	0.057848006
38	0x3d6ad6fa	0.057333924
39	0x3d812954	0.06306711
40	0x3e29ef7f	0.16595267
41	0x3e1e37a9	0.1545092
42	0xbd1c5be6	-0.03817358
43	0xbdb1e6c3	-0.086865924
44	0x3d14739d	0.03624307
45	0x3c8ba899	0.017048167
46	0x3e1a5704	0.15072256
47	0x3d350d65	0.044202227
48	0xbdba62c4	-0.09100869
49	0x3d3935f4	0.04521747
50	0xbcb62240	-0.022233129
51	0xbd859766	-0.065230176
52	0xbca067b8	-0.019580707
53	0x3cbe8b70	0.023259848
54	0x3d9dc736	0.07704012
55	0xbca35058	-0.019935772
56	0xbd9c880e	-0.07643138
57	0x3d89d70d	0.06730471
58	0x3d972959	0.07380933
59	0xbe07200d	-0.1319582
60	0xbce13b7d	-0.027494187
61	0xbe083f99	-0.1330551
62	0x3c778cfb	0.015109296
63	0x3d84bae8	0.06480962
64	0xbd6ce69c	-0.057837114
65	0x3c086670	0.008325204
66	0x3cbb2990	0.022846967
67	0xbdbd9d84	-0.09258559
68	0xbd260a6f	-0.040537294
69	0xbd8084db	-0.0627534
70	0x3ca57f97	0.020202441
71	0x3dd4cc30	0.10390508
72	0xbc53a7c8	-0.01291842
73	0x3e0d4557	0.13795982
74	0xbd344394	-0.04400976
75	0x3d8011f7	0.062534265
76	0xbd9c348e	-0.076272115
77	0xbc668f60	-0.014072269
78	0x3d881fa4	0.0664666
79	0x3dc260b2	0.094910994
80	0x3de21f83	0.11041167
81	0xbd80e7dd	-0.062942244
82	0x3e361340	0.17780781
83	0xbd45ae1f	-0.048261758
84	0xbdf3331a	-0.11874981
85	0xbdad879b	-0.0847313
86	0xbd96eceb	-0.07369407
87	0xbadd5617	-0.0016886619
88	0x39b74c00	0.00034961104
89	0xbdf08bf8	-0.11745447
90	0x3d8d713c	0.06906363
91	0x3dc350ba	0.09536882
92	0x3dafcd14	0.085840374
93	0x3dac79b2	0.08421649
94	0x3e09945d	0.13435502
95	0xbe18b638	-0.14913261
96	0xbdb0976b	-0.08622631
97	0xbe0c34c8	-0.1369201
98	0x3d6f2829	0.05838791
99	0xbd551b81	-0.052028183
100	0x3ddab00b	0.10678109
101	0xbadca24d	-0.0016833037
102	0x3baac504	0.0052114744
103	0x3cdc654b	0.026903769
104	0xbdaf0ca1	-0.08547331
105	0xbc9848fb	-0.018589487
106	0x3dcbf521	0.09958864
107	0xbd5cbaab	-0.053888958
108	0x3b0ced80	0.0021503866
109	0xbd5a44d4	-0.053288296
110	0xbc9016f8	-0.017589077
111	0x3c5b9660	0.013402551
112	0xbd99cd5a	-0.07509871
113	0x3c1a9795	0.009435554
114	0x3e170cb5	0.14750941
115	0x3d6fd8ec	0.058556482
116	0x3e0d1d85	0.13780792
117	0xbd457ea5	-0.04821648
118	0x3dddea6d	0.10835729
119	0xbbe67c1c	-0.007033838
120	0x3d4b6af8	0.04966256
121	0x3d28d764	0.041221038
122	0xbce25136	-0.027626615
123	0xbe316ad9	-0.17325915
124	0xbd9995fc	-0.074993104
125	0x3c825e70	0.015914172
126	0x3d914924	0.070940286
127	0xbb66cf40	-0.0035218745
128	0x3e0709eb	0.13187377
129	0x3e018b7a	0.12650862
130	0x3d9fcc46	0.07802634
131	0xbdcdf90c	-0.100572675
132	0xbd06365d	-0.03276669
133	0x3dcaf540	0.09910059
134	0x3af910da	0.0019002215
135	0xbe45f3e8	-0.19331324
136	0x3dc7375c	0.09727356
137	0xbd918e82	-0.07107259
138	0xbdefc11a	-0.11706753
139	0xbd6b35a8	-0.057424217
140	0xbbe0d440	-0.0068612397
141	0x3dc1c2be	0.09460972
142	0x3dee8722	0.11646868
143	0x3ba37980	0.004988849
144	0xbdab5340	-0.08365488
145	0xbcf49470	-0.029855937
146	0xbdb2d364	-0.08731726
147	0xbdd1f18e	-0.10251151
148	0x3dacd3e2	0.08438851
149	0x3dea9551	0.11454261
150	0xbd8720ee	-0.06598078
151	0x3da2866c	0.07935795
152	0xbca28eb4	-0.019843437
153	0x3d140cd4	0.036145046
154	0xbc98ef37	-0.018668754
155	0x3dc6c85c	0.09706184
156	0x3d6f8f54	0.058486298
157	0xbc10557b	-0.008809443
158	0xbc717e36	-0.014739564
159	0x3d91f506	0.07126813
160	0x3d50795d	0.05089699
161	0x39895f52	0.00026201695
162	0x3de6090b	0.112321936
163	0x3cd7d82c	0.026348196
164	0x3c857df4	0.01629541
165	0x3d56d0b8	0.052445143
166	0x3ce38fde	0.027778562
167	0x3d88a169	0.066714115
168	0xbd81b059	-0.06332464
169	0xbd39dc15	-0.045375902
170	0xbceedfe3	-0.029159492
171	0x3c920478	0.017824396
172	0x3d4ea008	0.050445586
173	0x3d8029bc	0.0625796
174	0x3d2e1456	0.042499863
175	0xbadb972f	-0.001675343
176	0xbd9e10f1	-0.07718075
177	0x3ddbeb51	0.107382424
178	0xbd90719f	-0.070529215
179	0xbdf9d65f	-0.12199091
180	0xbb91ba40	-0.0044472516
181	0xbc1b5e60	-0.00948295
182	0x3bfce6a0	0.0077179223
183	0xbd91583a	-0.07096906
184	0x3e35815c	0.17725128
185	0x3e133ca2	0.14378598
186	0xbca19fd0	-0.019729525
187	0x3d785dee	0.060636453
188	0x3de7de90	0.11321747
189	0xbbdafa80	-0.006682694
190	0x3dab0802	0.08351137
191	0xbdd9abd6	-0.10628478
192	0xbccaa977	-0.02473901
193	0xbddbbfd4	-0.10729948
194	0xbdeed0c3	-0.11660912
195	0x3cd0e1a5	0.02549822
196	0xbc94c2a8	-0.018159226
197	0xbda24ab8	-0.07924408
198	0x3dd37618	0.10325259
199	0xbe1d1549	-0.15340151
200	0x3d9dc397	0.077033214
201	0x3db52943	0.08845761
202	0x3d1d2f9e	0.03837549
203	0x3d6c88a0	0.057747483
204	0x3d2d6329	0.042330895
205	0x3c903fae	0.01760849
206	0x3d16e878	0.036842793
207	0xbd3ada46	-0.045618318
208	0x3d8f2a04	0.06990436
209	0xbc5d7fc0	-0.0135192275
210	0x3dd12c2c	0.10213503
211	0x3d879426	0.06620054
212	0x3dabbcac	0.08385596
213	0x3d80d982	0.06291486
214	0xbd0dc318	-0.034609884
215	0xbcaf5c28	-0.021406248
216	0xbd20d8b0	-0.03926915
217	0xbd8e2169	-0.06939966
218	0x3cf8791c	0.030331187
219	0x3d6792b6	0.0565364
220	0xbd95178a	-0.0727988
221	0x3d6e4734	0.058173373
222	0x3d5e0414	0.054203108
223	0xbdc0c320	-0.09412217
224	0xbd3f9aee	-0.04677861
225	0x3e0ecebc	0.1394605
226	0xbcef1937	-0.029186828
227	0x3d71d2a2	0.059038766
228	0xbd3669b2	-0.044534393
229	0x3cf7a290	0.030228883
230	0x3d88e00d	0.06683359
231	0x3c670092	0.014099257
232	0xbdb55d72	-0.08855714
233	0xbd3a0bfb	-0.04542158
234	0x3bcd3455	0.006262342
235	0x3c92d794	0.017925061
236	0x3de0220c	0.10943994
237	0x3cbe4960	0.023228347
238	0xbd600090	-0.054688036
239	0xbdc8769e	-0.097882494
240	0x3d26de28	0.04073921
241	0xbd284245	-0.041078825
242	0x3cffa6e7	0.031207515
243	0xbdde350a	-0.1084996
244	0xbdd58b09	-0.104269095
245	0x3b896110	0.004192479
246	0xbda92188	-0.08258349
247	0x3db32f30	0.08749235
248	0x3dd1c0a3	0.10241821
249	0xbd611abb	-0.054957133
250	0xbc8eaf2a	-0.01741751
251	0xbd7b9755	-0.06142362
252	0x3c26c445	0.01017863
253	0xbd99521a	-0.07486363
254	0x3d6ff6e5	0.058585066
255	0x3c3a068e	0.011354102

fc1.bias f4 [64]
0	0xbeb91b1a	-0.3615349
1	0x3e9e851c	0.3096093
2	0xbd51d730	-0.05123061
3	0xbc9f3375	-0.019433716
4	0x3dbaa4b1	0.09113444
5	0xbec4daf6	-0.38448304
6	0x3e974cc3	0.29550752
7	0xbea95022	-0.3306895
8	0xbee45d58	-0.44602466
9	0xbc076a73	-0.008265126
10	0x3cac2539	0.021013843
11	0x3e92bf96	0.28661793
12	0xbed11abc	-0.4084071
13	0xbdd23ac0	-0.10265112
14	0x3e9fd62a	0.31218082
15	0x3e4ebdf5	0.2018965
16	0xbed2f412	-0.41201836
17	0xbcf7ae14	-0.030234374
18	0xbcc89322	-0.02448422
19	0xbeaa368c	-0.3324474
20	0x3e63669d	0.22207113
21	0x3d981585	0.074259795
22	0xbe21934c	-0.15778846
23	0x3e4f5ff1	0.20251442
24	0x3e62aa95	0.22135384
25	0x3e8f7346	0.28017634
26	0x3e5075d0	0.20357442
27	0xbecda4fe	-0.40164942
28	0x3e1ccca2	0.15312436
29	0x3e5b71d0	0.21430135
30	0x3c638534	0.013886739
31	0xbe9b03dc	-0.30276382
32	0x3c3c9c52	0.011511879
33	0x3ec642a0	0.38722706
34	0xbd0d15b0	-0.03444451
35	0xbe855c72	-0.26047093
36	0xbef36c50	-0.47543573
37	0xbd6419f9	-0.055688832
38	0x3dd88aa8	0.105733216
39	0xbca75404	-0.020425804
40	0x3db5277c	0.08845422
41	0x3e156727	0.14590131
42	0x3e20f95d	0.15720125
43	0x3e98ae36	0.29820412
44	0xbd11ea01	-0.035623554
45	0xbeb9aba8	-0.36263776
46	0xbc9c1e14	-0.019057311
47	0xbe30abc8	-0.1725303
48	0x3e99ad88	0.30015206
49	0x3d394f1c	0.04524146
50	0x3d782c51	0.06058914
51	0x3dee2636	0.11628382
52	0xbedd87ac	-0.43267572
53	0xbe31acdc	-0.17351097
54	0x3e7d6feb	0.24749725
55	0xbe723a40	-0.23655033
56	0x3dadf1cf	0.08493387
57	0x3e859cdd	0.2609624
58	0x3eb139b3	0.34614334
59	0xbebfe9b4	-0.3748299
60	0x3e0e3f4c	0.13891333
61	0xbd83bf8e	-0.064330205
62	0x3d3faca5	0.046795506
63	0x3edb2b85	0.4280664

fc2.weight f4 [32, 64]
0	0x3db13cf2	0.086542025
1	0xbc9b40f3	-0.018951869
2	0x3d871d30	0.06597364
3	0x3ddb7b07	0.10716825
4	0x3c8ceef2	0.017203782
5	0x3d0d2c6c	0.034466192
6	0xbe1c2a4c	-0.1525051
7	0x3d81c800	0.06336975
8	0x3d856e1e	0.06515144
9	0x3c8aa29d	0.016923243
10	0x3dcf859c	0.10132906
11	0x3e1f08b3	0.15530662
12	0x3e08d285	0.13361557
13	0x3d268350	0.040652573
14	0x3dd38d7f	0.103297226
15	0xbd791179	-0.06080768
16	0xbe00ea2e	-0.12589332
17	0xbe1b182a	-0.15145937
18	0xbdc662f6	-0.09686844
19	0xbe1c09f1	-0.15238167
20	0xbddeabd1	-0.10872615
21	0x3e156112	0.1458781
22	0xbd87d421	-0.06632257
23	0xbe114900	-0.14188004
24	0xbd4e9220	-0.050432324
25	0x3dc223f7	0.09479516
26	0x3e1ce1c6	0.153205
27	0xbdd949e1	-0.106097944
28	0x3e0c4d7f	0.13701437
29	0xbc854cdb	-0.016272
30	0x3b6ce483	0.0036146946
31	0x3d7589f8	0.05994603
32	0xbe06afa3	-0.13152938
33	0xbdf7f461	-0.121071585
34	0xbd4fda0c	-0.050745055
35	0xbb630780	-0.0034641922
36	0x3cb1e500	0.021715641
37	0x3d507a3d	0.050897826
38	0x3dfef120	0.12448335
39	0x3c967c15	0.018369714
40	0x3d9d9b60	0.07695651
41	0x3e276d29	0.16350235
42	0xbda75581	-0.081706055
43	0xbdbdeda1	-0.0927384
44	0x3d386178	0.04501483
45	0x3d327954	0.04357274
46	0x3e37880d	0.17922993
47	0xbdb65982	-0.08903791
48	0x3c543f5b	0.012954558
49	0xbd8b2658	-0.06794423
50	0x3d1c6b60	0.03818834
51	0xbcb59956	-0.022167843
52	0x3d8a5238	0.06753963
53	0xbdb8824d	-0.09009228
54	0x3d611973	0.05495591
55	0xbcee6418	-0.029100463
56	0xbdf00337	-0.11719363
57	0x3c8d6211	0.017258676
58	0x3d83ea67	0.06441193
59	0xbdd57a10	-0.10423672
60	0xbdc983b6	-0.09839575
61	0x3c93d29d	0.018044764
62	0x3e2e52d1	0.1702378
63	0xbdebb6ee	-0.115095004
64	0xbe1c2b94	-0.15250999
65	0x3e1c7060	0.15277243
66	0x3d9e9126	0.077425286
67	0xbd620688	-0.05518201
68	0x3e01cfb2	0.12676886
69	0x3e2ac2db	0.16675894
70	0x3df846e3	0.121228956
71	0xbdc67d66	-0.096918866
72	0x3d9f52ca	0.07779463
73	0xbd5d6588	-0.054051906
74	0x3e1e7cc2	0.15477279
75	0xbc290c41	-0.010317863
76	0xbe000d37	-0.12505041
77	0x3ce2ab78	0.027669653
78	0x3d82aceb	0.06380638
79	0x3ddcbb1b	0.10777875
80	0xbe0dca10	-0.13846612
81	0xbd6047ee	-0.054756097
82	0x3d760c35	0.060070235
83	0xbe1ef37e	-0.15522572
84	0xbe182596	-0.14858088
85	0x3bc1da15	0.00591589
86	0xbe011a9b	-0.12607805
87	0xbe00153f	-0.12508105
88	0xbdde2b39	-0.10848088
89	0x3c24359c	0.010022547
90	0xbe322af2	-0.17399195
91	0xbd61af10	-0.055098593
92	0x3d1c3824	0.038139477
93	0xbe10154b	-0.14070623
94	0x3dfd32c6	0.123632
95	0xbe0b4b2b	-0.13602893
96	0x3e09772c	0.13424367
97	0xbe38d958	-0.1805166
98	0xbda7e897	-0.0819866
99	0xbdd38259	-0.10327596
100	0x3e105b03	0.14097218
101	0x3dff7cef	0.12475001
102	0x3da97f60	0.08276248
103	0x3dda6861	0.1066444
104	0x3e0404d1	0.12892462
105	0xbe31acbe	-0.17351052
106	0x3da2a1c5	0.07941011
107	0x3d5cc258	0.05389628
108	0x3d5a03ba	0.05322621
109	0xbe00783d	-0.12545867
110	0x3da0f13b	0.07858511
111	0xbdc02d62	-0.09383656
112	0xbd70f47c	-0.05882691
113	0xbbb727d0	-0.005589463
114	0x3d540478	0.051762074
115	0xbdd44a2d	-0.103657104
116	0x3da0a45e	0.078438506
117	0xbcc71b68	-0.02430506
118	0xbb41d17d	-0.0029574328
119	0xbcee2e50	-0.029074818
120	0x3df7b5d1	0.120952256
121	0xbe0c0bcb	-0.13676374
122	0x3df476f6	0.119367525
123	0x3dc22b26	0.09480886
124	0x3d953020	0.0728457
125	0x3df23a11	0.118274815
126	0xbca4ac00	-0.020101547
127	0xbd8226ba	-0.06355043
128	0x3dc7da82	0.09758474
129	0x3dc16191	0.094424374
130	0xbdc12704	-0.0943127
131	0xbe293680	-0.16524696
132	0x3de2c794	0.11073223
133	0xbe1860e3	-0.1488071
134	0xbcd0106e	-0.02539846
135	0x3d92ab68	0.071615994
136	0xbd2bbd28	-0.04192844
137	0x3df34785	0.11878876
138	0x3daff078	0.08590788
139	0x3d40d718	0.04708013
140	0xbdb55181	-0.08853436
141	0xbdf56180	-0.11981487
142	0x3dadfee6	0.08495884
143	0x3e08d254	0.13361484
144	0x3e0f854b	0.14015691
145	0x3e1877b6	0.14889416
146	0x3e01f6aa	0.12691751
147	0x3e0aae2f	0.13543008
148	0x3dcf28fa	0.101152375
149	0x3d322fe8	0.04350272
150	0x3d213338	0.039355487
151	0xbe29047f	-0.16505621
152	0xbca88357	-0.02057044
153	0xbd3fe159	-0.046845768
154	0x3db2cffa	0.08731075
155	0xbe2cd6e6	-0.16878852
156	0x3a2e1682	0.0006640927
157	0xbd70595a	-0.058678962
158	0x3e0cdab5	0.13755305
159	0xbe22147d	-0.15828128
160	0xbd3d34a6	-0.046192788
161	0x3dca8bab	0.09889921
162	0x3d929a14	0.07158294
163	0x3d02a260	0.031893134
164	0xbd9f21d3	-0.07770123
165	0xbd2bf447	-0.041981008
166	0x3d467da6	0.04845967
167	0x3d11e0bf	0.035614725
168	0x3d18e4e7	0.037327673
169	0x3d4c8c56	0.049938522
170	0x3d8e7ac7	0.06957012
171	0x3d4c189f	0.049828168
172	0xbd16dcdc	-0.03683172
173	0x3e142cb5	0.1447018
174	0xbe2721de	-0.16321513
175	0x3e0e67d5	0.13906796
176	0xbe1cb68e	-0.15304014
177	0x3d2995f8	0.041402787
178	0x3dc7b33a	0.09750982
179	0x3bdc4168	0.006721664
180	0xbe1bb72f	-0.15206598
181	0x3e02beb7	0.12768064
182	0xbe35356d	-0.17696162
183	0xbdc14355	-0.09436671
184	0xbcdf9376	-0.027291995
185	0x3d89728e	0.06711303
186	0xbc26587d	-0.010152933
187	0x3be9f880	0.007140219
188	0xbe4f17af	-0.20223878
189	0xbbcd202e	-0.0062599396
190	0x3d861c66	0.06548385
191	0xbdb706d8	-0.08936852
192	0xbda23ba9	-0.079215355
193	0x3d97c426	0.07410459
194	0x3d6f5470	0.058430135
195	0xbd1f16b2	-0.038840003
196	0xbe059ff0	-0.13049293
197	0x3d8cece0	0.06881118
198	0xbd6b85ae	-0.057500534
199	0xbe2f1fa1	-0.17101909
200	0x3d0104d8	0.03149876
201	0xbdb101d1	-0.086429246
202	0xbcf39d23	-0.029738015
203	0x3bdddb5f	0.006770536
204	0xbdbc1abc	-0.09184787
205	0xbcb80ce8	-0.022467092
206	0x3d11a62c	0.035558864
207	0xbe51ac77	-0.20475946
208	0xbb360c40	-0.0027778298
209	0xbda61e56	-0.08111255
210	0x3e0370e1	0.12836029
211	0xbd33c9bc	-0.04389356
212	0xbde2fca8	-0.110833466
213	0x3e0c0130	0.13672328
214	0x3d04b534	0.03239937
215	0xbe2ca94d	-0.16861458
216	0xbd0894bc	-0.03334497
217	0xbc17305d	-0.009227839
218	0xbd822cfd	-0.06356237
219	0x3dfc686e	0.12324606
220	0x3d6f0966	0.058358572
221	0xbe0c85ef	-0.13722967
222	0x3de63614	0.11240783
223	0xbd5eced0	-0.05439645
224	0x3d027746	0.03185203
225	0xbd69d9ef	-0.057092603
226	0xbcb4ae80	-0.022055864
227	0x3da50dde	0.080592856
228	0xbe1403a7	-0.14454518
229	0x3de29edd	0.11065457
230	0x3d3c632b	0.04599301
231	0xbe2cbda3	-0.16869216
232	0xbde43cff	-0.111444466
233	0xbdbd8a8b	-0.092549406
234	0x3dac6e7a	0.08419509
235	0x3db20c3f	0.08693742
236	0xbdd29d03	-0.10283854
237	0x3e2837dd	0.1642756
238	0xbe5de24a	-0.21668354
239	0xbdf960ac	-0.12176642
240	0x3cb9ceba	0.022681583
241	0xbe148635	-0.14504321
242	0x3d4adf22	0.049529202
243	0xbd965023	-0.073395036
244	0xbd30df34	-0.043181613
245	0x3da3b06e	0.07992636
246	0xbd685fca	-0.056731977
247	0x3ddcc8ce	0.10780488
248	0xbd67bc0d	-0.056575824
249	0xbe689131	-0.22711636
250	0xbdfd48c4	-0.123673946
251	0x3c3bb4c0	0.011456668
252	0x3df855a7	0.12125712
253	0x3e0237c5	0.12716587
254	0xbd2cbe71	-0.042173807
255	0xbc70899c	-0.014681246

fc2.bias f4 [32]
0	0xbd28b33c	-0.041186556
1	0x3d0fc1fd	0.03509711
2	0xbe0a6896	-0.13516459
3	0xbdac388e	-0.084092245
4	0xbda66f59	-0.08126707
5	0x3d918d00	0.07106972
6	0x3ae38f00	0.0017361343
7	0x3c90e668	0.017687991
8	0x3d6b6540	0.057469606
9	0x3d60258d	0.05472331
10	0xbdd60a38	-0.10451168
11	0xbb8b4880	-0.004250586
12	0x3d6cc706	0.05780699
13	0xbe0db4c3	-0.13838486
14	0xbdd072ae	-0.101781234
15	0x3d9d29e7	0.07674008
16	0xbdd846fe	-0.10560416
17	0x3cac70ba	0.021049846
18	0xbda918a2	-0.082566515
19	0x3ba90d2c	0.005159041
20	0x3d1e9b3f	0.038722273
21	0x3d36e05b	0.044647556
22	0x3ba2d3e9	0.0049691093
23	0xbd778658	-0.060430855
24	0xbdac5e74	-0.08416453
25	0xbcfec2ba	-0.031098712
26	0xbd073278	-0.033007115
27	0xbc98d990	-0.01865843
28	0xbdb4a0b0	-0.08819711
29	0x3cecbf60	0.028899848
30	0xbddb8d5e	-0.10720323
31	0xbd863d76	-0.065546915

fc3.weight f4 [16, 32]
0	0x3e2ad33d	0.16682144
1	0x3e1515d1	0.14559104
2	0x3e4f2bab	0.20231502
3	0x3dbfc58b	0.0936385
4	0x3dfb142e	0.12259708
5	0xbe283be0	-0.1642909
6	0xbe071308	-0.13190854
7	0x3d697078	0.056992024
8	0x3d9e0a30	0.07716787
9	0xbe67c169	-0.22632374
10	0xbd8109d0	-0.063007
11	0x3e353988	0.17697728
12	0xbe027b54	-0.12742358
13	0xbe80fe0b	-0.2519382
14	0xbd1b3c41	-0.03789926
15	0x3d4057d0	0.046958745
16	0x3e208450	0.15675473
17	0x3c46a3ce	0.012124015
18	0xbd2cbe39	-0.042173598
19	0x3d076eaa	0.03306452
20	0xbe6c6955	-0.23087056
21	0xbd2b20de	-0.04177939
22	0x3df30a51	0.11867202
23	0x3e18607a	0.14880553
24	0x3d918670	0.0710572
25	0x3e12662b	0.14296786
26	0xbe446c0c	-0.19181842
27	0x3dbc7a08	0.09202963
28	0xbd3dfa50	-0.046381295
29	0xbe465b7c	-0.19370836
30	0xbe6a5504	-0.22883993
31	0x3e0e5c74	0.13902456
32	0x3d816652	0.06318344
33	0xbe71c7a0	-0.23611307
34	0xbb0b3d2d	-0.002124618
35	0xbe783be0	-0.2424159
36	0x3d8f7ed1	0.0700661
37	0x3e73c8ec	0.23807114
38	0x3c5dafe0	0.013530701
39	0xbdb6d5fc	-0.08927533
40	0x3e083146	0.13300046
41	0x3e45ba99	0.19309463
42	0x3dbbe014	0.09173599
43	0xbd3e7110	-0.046494544
44	0xbda1fce8	-0.07909566
45	0xbaff7f9c	-0.0019492987
46	0x3b690c51	0.003556032
47	0x3e0c6932	0.13712004
48	0x3d436328	0.047701985
49	0x3dfa8ec6	0.12234263
50	0xbe407ef9	-0.18798436
51	0x3d8eb863	0.06968763
52	0xbe5fd775	-0.21859534
53	0x3e5574d9	0.20845355
54	0x3d69d9da	0.057092525
55	0xbe6c72be	-0.23090646
56	0x3dc501e4	0.09619501
57	0x3d92d528	0.071695626
58	0xbe021d90	-0.1270659
59	0x3e16909e	0.14703605
60	0xbd51f220	-0.0512563
61	0x3e7acc94	0.24492103
62	0x3ad3e000	0.001616478
63	0x3dd7737c	0.10520074
64	0x3e5c4875	0.21512015
65	0xbe783e63	-0.24242549
66	0x3e2ddd71	0.16979004
67	0xbe20c942	-0.15701774
68	0x3e11ae34	0.1422661
69	0xbce05280	-0.027383089
70	0xbe1d0788	-0.15334904
71	0xba92b400	-0.001119256
72	0xbdfb7264	-0.12277678
73	0xbe2fbc31	-0.17161633
74	0xbe2157d0	-0.15756154
75	0x3e0d7f68	0.13818133
76	0x3d7d0ac2	0.061777838
77	0x3e711eaf	0.23546861
78	0xbd0a6e68	-0.033796698
79	0x3de3e406	0.111274764
80	0x3e432baa	0.19059625
81	0xbe369cb2	-0.17833212
82	0x3d8a0042	0.067383304
83	0xbe672b02	-0.22575
84	0xbd155194	-0.036454752
85	0xbe48a450	-0.1959393
86	0x3e4af173	0.19818668
87	0x3dda47e0	0.1065824
88	0xbe49dc10	-0.19712853
89	0xbd0bc38c	-0.034122035
90	0x3e30bfa2	0.17260602
91	0x3d995884	0.07487586
92	0x3e5a799e	0.21335456
93	0xbe4e00d6	-0.20117506
94	0x3d1954b8	0.03743431
95	0xbdcfdb0c	-0.10149202
96	0x3deece7a	0.11660476
97	0xbe872c55	-0.2640101
98	0x3c78eb9d	0.015192893
99	0xbd35a41b	-0.044345956
100	0xbe3042bf	-0.17212962
101	0xbe499448	-0.19685471
102	0x3c3c8b20	0.011507779
103	0xbbcba7c0	-0.0062150657
104	0xbe28c7f0	-0.1648252
105	0xbe74a3a8	-0.23890555
106	0xbe48bea6	-0.19603977
107	0xbe566c70	-0.20939803
108	0x3e126479	0.1429614
109	0x3dbcf07d	0.09225557
110	0xbd7e9286	-0.062151454
111	0x3de02c8a	0.10945995
112	0xbe75a860	-0.23990011
113	0x3d98b9d8	0.07457322
114	0xbe862daa	-0.26206714
115	0x3e482a9a	0.19547501
116	0x3e2c3071	0.16815354
117	0x3dba61dc	0.091006964
118	0x3de73d7e	0.112910256
119	0xbd1556f0	-0.036459863
120	0x3e4c2718	0.19936788
121	0xbe82214d	-0.2541603
122	0xbda7f790	-0.08201516
123	0x3deb4400	0.11487579
124	0x3e233190	0.15936875
125	0x3d689480	0.056782246
126	0xbdda75f8	-0.10667032
127	0xbe0c0706	-0.13674554
128	0xbe7aa6c2	-0.24477676
129	0x3e4370dc	0.19086021
130	0xbe114f05	-0.141903
131	0x3e2e9fd8	0.17053163
132	0xbe6ead48	-0.23308289
133	0x3e07f5a0	0.13277292
134	0x3cbcaac0	0.023030639
135	0x3e0c9cca	0.13731685
136	0x3dcff130	0.10153425
137	0xbe2e8278	-0.17041957
138	0x3ddacc80	0.106835365
139	0x3cebe480	0.02879548
140	0x3c925589	0.017863052
141	0x3c279d9e	0.01023045
142	0x3e2df06c	0.16986245
143	0x3df7ccb5	0.12099592
144	0x3ba75200	0.0051062107
145	0x3d53fe0b	0.051755946
146	0xbe35679b	-0.17715304
147	0xbe6c4909	-0.23074736
148	0x3d9319ac	0.07182631
149	0xbe2c8e18	-0.1685108
150	0xbe177540	-0.14790821
151	0x3e40172a	0.18758836
152	0x3e49aaf6	0.19694123
153	0xbd9b997f	-0.075976364
154	0xbe377372	-0.17915133
155	0xbd191988	-0.037377864
156	0xbe5f3500	-0.21797562
157	0xbe0c106c	-0.1367814
158	0x3e7a65b0	0.24452853
159	0x3e4732ca	0.19452968
160	0x3e641814	0.2227481
161	0x3dc1c23a	0.09460874
162	0xba1ff841	-0.00061023614
163	0x3de6aff3	0.112640284
164	0xbd2dc993	-0.042428564
165	0xbe544744	-0.2073031
166	0xbe49697e	-0.19669148
167	0x3e51535a	0.20441952
168	0x3e04e132	0.1297653
169	0x3df35ace	0.11882554
170	0x3e77bf4a	0.24194065
171	0xbe1d18de	-0.15341517
172	0xbe1c7846	-0.15280256
173	0x3c064cc3	0.008197012
174	0xbc2c1c9a	-0.010504866
175	0xbca3b7c6	-0.019985091
176	0xbe643bd6	-0.2228845
177	0xbdcf12bb	-0.101109944
178	0x3da24119	0.07922573
179	0x3db86a1c	0.09004614
180	0x3e34c85e	0.17654559
181	0xbe3926a4	-0.18081146
182	0xbe6a156d	-0.22859736
183	0xbd811d8c	-0.06304464
184	0x3e03999e	0.12851569
185	0xbc9f9076	-0.019478064
186	0x3e58dd8a	0.2117826
187	0xbd604560	-0.05475366
188	0x3e59eefe	0.21282575
189	0xbe6669fa	-0.22501364
190	0x3e179b6c	0.14805382
191	0x3e1c7a40	0.1528101
192	0x3e2f65eb	0.17128722
193	0xbdc269b8	-0.094928205
194	0x3e43b180	0.1911068
195	0x3e62eff6	0.2216185
196	0x3cd26459	0.025682615
197	0x3dd261a0	0.10272527
198	0xbe73b6c6	-0.23800191
199	0x3e5db272	0.21650103
200	0x3e600b24	0.2187925
201	0x3e7f8254	0.2495206
202	0xbcc858d0	-0.024456412
203	0x3e3525bc	0.17690176
204	0xbe6bb233	-0.23017196
205	0x3db556d6	0.08854453
206	0xbdb307d0	-0.087417245
207	0x3de6a672	0.11262216
208	0xbd8adb64	-0.06780127
209	0xbd07150f	-0.032979067
210	0x3e511c36	0.20420918
211	0x3cb5bc62	0.022184554
212	0xbd2ac841	-0.041694883
213	0xbe1ea3d3	-0.15492181
214	0x3d831289	0.0640002
215	0xbe304a58	-0.1721586
216	0xbd4e26d0	-0.050329983
217	0xbe771fd3	-0.24133234
218	0xbdf18134	-0.11792222
219	0xbcf3afa0	-0.02974683
220	0x3d041958	0.032250732
221	0x3dbad0ec	0.0912188
222	0xbda445ac	-0.08021101
223	0x3e2cb57a	0.16866103
224	0xbdfa655f	-0.12226366
225	0x3ce72c27	0.028219296
226	0x3e159f2e	0.14611503
227	0xbe87b190	-0.26502657
228	0x3ddadbcd	0.10686455
229	0x3e52c514	0.20582992
230	0x3cb57790	0.022151738
231	0xbdcbd558	-0.099528015
232	0xbe05061c	-0.12990612
233	0xbe16a048	-0.1470958
234	0x3e2d95ee	0.16951725
235	0xbe3d656e	-0.18495724
236	0xbe1ecd52	-0.15508011
237	0x3d865f3e	0.06561135
238	0x3e11e8fa	0.1424903
239	0xbdaf83c9	-0.08570058
240	0x3e5dcad0	0.21659398
241	0xbe2770d0	-0.16351628
242	0x3e1d89a6	0.1538454
243	0x3d3b09d3	0.045663666
244	0xbd777a68	-0.06041947
245	0x3e444cd2	0.1916993
246	0xbe41304a	-0.18866077
247	0x3e207f7e	0.15673634
248	0x3e5b2e92	0.21404484
249	0xbe20ac31	-0.15690686
250	0x3e7514f6	0.23933777
251	0xbd4c0e58	-0.049818367
252	0x3e7d363e	0.24727723
253	0xbd0538f8	-0.032525033
254	0x3e49c5ca	0.19704357
255	0x3e666932	0.22501066

fc3.bias f4 [16]
0	0xbdb4ee24	-0.08834484
1	0xbd7d6a3f	-0.061868902
2	0xba99e5fe	-0.0011741517
3	0x3c3b459d	0.011430171
4	0xbc948673	-0.018130517
5	0xbd332bfe	-0.043743126
6	0xbcd2bef7	-0.025725825
7	0xbd2c66bc	-0.042090163
8	0xbd125335	-0.035723884
9	0xbddf9774	-0.10917559
10	0xbe1f7816	-0.15573153
11	0xbd8522b1	-0.065007575
12	0xbdd2c570	-0.102915645
13	0xbc85e80c	-0.016346
14	0xbd21a732	-0.03946609
15	0xbe1f862f	-0.1557853

fc4.weight f4 [8, 16]
0	0xbe69d2a8	-0.22834265
1	0xbe3996f9	-0.18123998
2	0xbca144c4	-0.01968611
3	0xbcb74522	-0.022371832
4	0xbc8c5896	-0.017132085
5	0x3e45e3dd	0.19325204
6	0x3e66da97	0.22544323
7	0xbc640843	-0.013917985
8	0x3d9a0253	0.075199746
9	0xbd35bc50	-0.044369042
10	0xbeb41fe8	-0.35180593
11	0x3e6e1fef	0.23254369
12	0xbe60cb9e	-0.21952674
13	0x3e00591b	0.12533991
14	0xbeb57465	-0.35440364
15	0x3eadd3bf	0.33950612
16	0x3e94b630	0.29045248
17	0x3e390ccd	0.1807129
18	0xbe826736	-0.2546937
19	0x3d5ed186	0.054399036
20	0xbd0762b9	-0.033053134
21	0xbe48b536	-0.19600376
22	0x3d29c670	0.04144901
23	0x3e0de67d	0.13857456
24	0xbdd1b4f8	-0.10239595
25	0xbe339a8c	-0.17539424
26	0x3e40a6b2	0.18813589
27	0x3ddb5068	0.10708696
28	0xbda6305e	-0.08114694
29	0xbd38b267	-0.045092013
30	0xbe26088f	-0.16214202
31	0x3ea42d0d	0.3206562
32	0x3e6c69f6	0.23087296
33	0xbe064b7d	-0.13114734
34	0xbe836402	-0.25662237
35	0x3e9cd80d	0.30633584
36	0xbd762350	-0.06009227
37	0xbe854b71	-0.2603412
38	0xbe3190e4	-0.17340428
39	0x3d191668	0.037374884
40	0x3d399360	0.045306563
41	0xbc8c0f80	-0.017097235
42	0x3e66f6d6	0.22555098
43	0xbdcedaa8	-0.10100299
44	0x3dbfcedc	0.09365627
45	0xbe77a550	-0.24184155
46	0xbeb3eb03	-0.35140237
47	0xbe28adb5	-0.16472514
48	0xbea9da22	-0.33174235
49	0x3e43cf22	0.19121984
50	0xbdfc66e8	-0.12324315
51	0xbe2e64ee	-0.17030689
52	0x3dd4b020	0.10385156
53	0x3de68eac	0.11257681
54	0xbdc938f4	-0.09825316
55	0x3ba3ffc0	0.005004853
56	0xbe2fecb1	-0.17180134
57	0xbe15acf2	-0.14616755
58	0xbe5d8610	-0.21633172
59	0xbe4cd682	-0.20003703
60	0xbe66c194	-0.22534782
61	0xbe5791c6	-0.21051702
62	0xbe32571c	-0.17416042
63	0x3d3215b0	0.043477714
64	0x3e691573	0.22762088
65	0xbe4effa9	-0.20214714
66	0xbd4c0aad	-0.04981487
67	0x3dec54ab	0.11539587
68	0xbea6e071	-0.3259311
69	0xbe8ac3b3	-0.27102432
70	0x3e1bca59	0.15213908
71	0x3d276197	0.040864553
72	0xbd88e5f0	-0.06684482
73	0x3e7ca622	0.2467275
74	0x3bcd61c0	0.006267756
75	0x3e30936e	0.1724374
76	0xbe170fca	-0.14752117
77	0x3d6533ea	0.055957712
78	0xbe86d39e	-0.26333326
79	0xbdac3dda	-0.08410235
80	0xbd24bf08	-0.040221244
81	0xbe3eb5c2	-0.18624023
82	0xbea46ce6	-0.32114333
83	0x3e3782e2	0.17921022
84	0xbbb99300	-0.0056632757
85	0xbde0f004	-0.10983279
86	0xbcc8d640	-0.024516225
87	0xbe4c1d14	-0.19932967
88	0xbe457765	-0.19283827
89	0xbd1b49d0	-0.03791219
90	0x3d315708	0.04329589
91	0x3e4f5856	0.20248541
92	0x3dc1760c	0.09446344
93	0xbeb27591	-0.3485532
94	0xbddd3d0a	-0.10802658
95	0xbe552754	-0.20815784
96	0xbe584721	-0.21120884
97	0x3e2ce57d	0.16884418
98	0xbdb06687	-0.086133055
99	0x3c6d5675	0.014485945
100	0x3af84684	0.0018941914
101	0xbe6ee8cf	-0.23330997
102	0xbe237a99	-0.15964736
103	0x3e197f83	0.14990048
104	0x3e447e66	0.19188842
105	0xbe9ba0b9	-0.3039606
106	0xbea92790	-0.33037996
107	0xbe3183a7	-0.17335378
108	0x3e4d8e16	0.20073733
109	0x3ea21d6d	0.31663075
110	0xbe2ddaa5	-0.16977938
111	0x3d4e02c4	0.050295606
112	0xbe036188	-0.12830174
113	0xbdccb810	-0.09996045
114	0xbca372bb	-0.019952169
115	0x3d8c4d1a	0.068506435
116	0xbe04bf46	-0.1296359
117	0x3e148993	0.14505605
118	0x3e816c74	0.25278056
119	0xbe1fced0	-0.15606236
120	0xbd97a225	-0.074039735
121	0x3e97d605	0.2965547
122	0x3eaa1a9b	0.33223423
123	0x3e5b9f25	0.21447428
124	0x3d8fd4c4	0.07023004
125	0xbe9ce12a	-0.30640537
126	0xbdb347d9	-0.08753938
127	0x3ea20fcf	0.31652686

fc4.bias f4 [8]
0	0xbc0052df	-0.007832258
1	0xbbb77fff	-0.005599975
2	0xbdadbc74	-0.0848321
3	0xbe60428a	-0.21900383
4	0xbd4e2021	-0.05032361
5	0xbdbd5c9c	-0.092461795
6	0xbd31320e	-0.043260626
7	0xbc7b0d47	-0.01532299

fc5.weight f4 [3, 8]
0	0x3bcaa797	0.006184529
1	0xbd860f5f	-0.065459006
2	0xbac27c53	-0.0014838077
3	0x3a451020	0.00075173564
4	0xbae16862	-0.0017197246
5	0x3a82d44c	0.0009981482
6	0xbbe78aa2	-0.007066087
7	0xba8fe599	-0.001097846
8	0xbd98d224	-0.07461956
9	0xbda5c690	-0.080945134
10	0xbb049e8d	-0.0020236105
11	0x3a437238	0.00074556796
12	0xbc0b8163	-0.008514735
13	0x39a46e90	0.00031362893
14	0x3ca08534	0.019594766
15	0xbbcec093	-0.0063095777
16	0xbe9c4d27	-0.30527613
17	0xbe91d8ad	-0.28485623
18	0xba82f172	-0.0009990169
19	0xbb213d47	-0.0024603175
20	0xbb403d42	-0.0029333388
21	0x3b2ce0de	0.0026379148
22	0xbc16010c	-0.009155523
23	0x3d6deddd	0.058088172

fc5.bias f4 [3]
0	0x41103326	9.012487
1	0xc1103bca	-9.014597
2	0xc1103ea0	-9.015289
